robot_rcs_models/actuators/mlp_jit_802050_8_50000.pt (torch, 152804 bytes, 7 tensors)

weight f4 [128, 16]
0	0xbf754cb9	-0.95820194
1	0xbf0a179f	-0.5394229
2	0xbe346309	-0.17615904
3	0xbd95a7a2	-0.07307364
4	0x3de32ae0	0.11092162
5	0x3e714fdf	0.23565625
6	0x3ef3a63a	0.47587758
7	0x3ead031c	0.33791435
8	0xbd0df304	-0.034655586
9	0xbe0a6646	-0.13515577
10	0xbd841213	-0.0644876
11	0x3e1c076c	0.15237206
12	0xbdb354ec	-0.08756432
13	0xbd349af0	-0.044093072
14	0xbd86b16c	-0.06576809
15	0xbdb4bd51	-0.08825172
16	0xbf65bb99	-0.89739376
17	0xbf12e680	-0.57382965
18	0xbef5e538	-0.48026443
19	0xbd5062ab	-0.050875347
20	0x3e0728c2	0.13199142
21	0x3f09134b	0.53545064
22	0x3f37a846	0.7174114
23	0x3f2488e5	0.64271384
24	0xbedbe8c0	-0.42951012
25	0xbe7d2b9c	-0.24723667
26	0xbd21336f	-0.03935569
27	0x3e319919	0.17343558
28	0x3e899bd2	0.26876694
29	0x3eba493b	0.36383995
30	0x3c64e8e9	0.013971546
31	0xbee8ea15	-0.4549109
32	0x3f93d11c	1.154819
33	0x3f23854e	0.6387528
34	0x3f793288	0.9734273
35	0x3f148d5b	0.5802819
36	0x3ea24639	0.316942
37	0x3e2fe1d4	0.1717599
38	0x3e6bce5e	0.23027942
39	0x3e65eef1	0.2245443
40	0xbe0fc36b	-0.1403939
41	0xbe827296	-0.25478047
42	0xbdcffdd4	-0.10155836
43	0x3e138bea	0.14408842
44	0x3d45c0ac	0.04827945
45	0x3e5849ab	0.21121852
46	0xbd11abdb	-0.035564285
47	0x3e350a79	0.17679776
48	0x3ef09d46	0.4699499
49	0x3f17700d	0.5915535
50	0x3e63f644	0.22261912
51	0x3e40c192	0.18823841
52	0xbedc1038	-0.42981124
53	0xbf06213c	-0.5239446
54	0xbee6c9be	-0.45075792
55	0xbeec5053	-0.46155033
56	0x3eb384f6	0.3506238
57	0xbd30330c	-0.043017432
58	0x3d123fa7	0.035705235
59	0xbc29c482	-0.0103617925
60	0x3d308950	0.0430997
61	0x3da51f14	0.08062568
62	0x3e2e1429	0.16999878
63	0xbd9761d6	-0.073917076
64	0xbe8277b0	-0.2548194
65	0xbe99fdc1	-0.3007641
66	0xbe3ff172	-0.18744448
67	0xbee460de	-0.44605154
68	0xbea22872	-0.31671482
69	0xbf09081b	-0.5352799
70	0xbe77e419	-0.24208106
71	0xbe354bcb	-0.17704694
72	0x3ec573a5	0.38564792
73	0x3eb1d07e	0.3472938
74	0x3d9c23ff	0.07624053
75	0x3b98d6be	0.004664271
76	0x3e73ca7f	0.23807715
77	0x3e0f4f5d	0.13995118
78	0xbd005095	-0.03132685
79	0xbe742416	-0.2384189
80	0x3dbdee13	0.09273925
81	0xbc4d542f	-0.012532278
82	0xbe812eca	-0.2523101
83	0xbe291dc3	-0.1651526
84	0xbe587722	-0.21139196
85	0xbdec967f	-0.11552142
86	0xbca1c840	-0.019748807
87	0xbe74ee55	-0.23919041
88	0x3ef1f507	0.47257254
89	0x3e93f10a	0.28894836
90	0x3de4c3c0	0.11170149
91	0x3e511377	0.20417581
92	0x3e61fe44	0.22069651
93	0x3e033644	0.1281367
94	0xbe5d0357	-0.21583305
95	0xbe0a20a0	-0.13489008
96	0xbea926dd	-0.33037463
97	0xbef1a9df	-0.47199914
98	0xbd97b75e	-0.074080214
99	0xbe321e83	-0.17394452
100	0xbe8e1a9c	-0.27754676
101	0x3e42e8c9	0.19034113
102	0x3e46ff45	0.19433315
103	0x3e58b810	0.21163964
104	0x3ef2d7b7	0.47430202
105	0x3f0cf9f4	0.550689
106	0x3ebebbda	0.37252694
107	0x3e2a23cc	0.16615218
108	0x3d404bb1	0.046947185
109	0x3d31414e	0.04327517
110	0xbeaea290	-0.341084
111	0xbdeaec10	-0.114708066
112	0x3ef42873	0.4768711
113	0x3daad0f7	0.08340638
114	0x3e99dc0e	0.300507
115	0x3e1f019c	0.15527958
116	0xbda1b112	-0.078951016
117	0xbd59cf0d	-0.053175975
118	0xbe848996	-0.2588622
119	0xbe82b0d2	-0.25525528
120	0x3ec5adac	0.38609064
121	0x3e7e1480	0.24812508
122	0x3e44fb40	0.1923647
123	0x3dd539db	0.10411426
124	0xbedf8918	-0.43659282
125	0xbd6f04bc	-0.058354124
126	0xbece2592	-0.4026304
127	0xbe983497	-0.29727623
128	0x3e0126d3	0.12612467
129	0x3f0bdee1	0.5463696
130	0x3eeda7ad	0.4641699
131	0x3f33c1b7	0.7021746
132	0x3f4a3748	0.789906
133	0x3f188bf9	0.5958858
134	0x3f2da5a3	0.67830867
135	0x3f09f4a9	0.53888947
136	0x3b67a28f	0.0035344695
137	0xbc8d71ce	-0.01726618
138	0xbda96945	-0.08272032
139	0xbe6a4af5	-0.22880156
140	0xbe0416a4	-0.12899262
141	0x3c0a8cc7	0.0084564155
142	0xbe47e46a	-0.19520727
143	0x3dbb9c17	0.09160631
144	0x3d769a0b	0.0602055
145	0xbc54cf5f	-0.012988894
146	0xbe2dbbdf	-0.16966198
147	0x3d7df325	0.06199946
148	0xbe4def9f	-0.2011094
149	0xbe9156ec	-0.2838663
150	0x3d26274e	0.040564828
151	0x3ecf1348	0.40444398
152	0x3eba9746	0.36443537
153	0x3e8a5a63	0.27022085
154	0x3e099f13	0.13439588
155	0xbe4610cb	-0.19342344
156	0xbe4ac322	-0.19801
157	0xbdc074de	-0.09397291
158	0xbd3a8d63	-0.045544993
159	0xbe532dd7	-0.20622955
160	0x3f033778	0.51256514
161	0x3ec11952	0.3771463
162	0x3c86255f	0.016375242
163	0x3e5f77b1	0.21823002
164	0xbcb33749	-0.021876948
165	0xbe23d49d	-0.15999074
166	0x3d5ea809	0.05435947
167	0xbe6dd024	-0.2322393
168	0x3e6705bd	0.22560783
169	0x3e6b4a01	0.22977449
170	0x3e0c5c04	0.13706976
171	0xbe987017	-0.29773018
172	0xbe8207fb	-0.25396714
173	0xbe9c6e4a	-0.30552894
174	0xbd9b1ab2	-0.07573451
175	0x3e338460	0.17530966
176	0x3e429d84	0.190054
177	0x3f23a00a	0.63916075
178	0x3efbca12	0.49177605
179	0x3ef7681f	0.48321626
180	0xbcfb7290	-0.030694276
181	0xbeac56ef	-0.33660075
182	0xbe6d922e	-0.23200294
183	0xbd329790	-0.043601573
184	0xbe86812b	-0.26270422
185	0xbee00170	-0.43751097
186	0xbeeeb2ea	-0.46620876
187	0xbe022217	-0.12708317
188	0xbe8624c5	-0.26199928
189	0xbe0c0ff1	-0.13677956
190	0xbc422694	-0.011850018
191	0xbb59c94e	-0.003323156
192	0x3e8143c8	0.25247025
193	0xbf35eec2	-0.7106744
194	0xbef4accb	-0.4778808
195	0xbebf96b5	-0.37419668
196	0xbde54c1a	-0.11196156
197	0x3df351ac	0.11880812
198	0xbddb94f3	-0.10721769
199	0x3eea1b43	0.45723924
200	0x3e47ea44	0.19522959
201	0x3ecd408c	0.40088308
202	0x3e8f06e9	0.2793496
203	0x3efe620d	0.49684182
204	0x3eab9ff2	0.33520466
205	0x3e70976e	0.23495266
206	0x3ee39411	0.44448903
207	0x3ef52a52	0.4788385
208	0xbf7f7f4f	-0.9980363
209	0xbf70aa77	-0.9401011
210	0xbf145580	-0.5794296
211	0xbf3dfc86	-0.74213445
212	0xbf5b7ac5	-0.85734206
213	0xbf144bdc	-0.5792825
214	0xbebee9d9	-0.37287787
215	0xbed36dbd	-0.4129466
216	0x3e4dfe69	0.20116581
217	0xbe2e406a	-0.1701676
218	0x3e555516	0.20833239
219	0xbd1f6644	-0.038915887
220	0x3e8e584c	0.2780174
221	0x3b9b3e31	0.0047376384
222	0xbe42085e	-0.18948504
223	0x3dcc8df8	0.09988016
224	0xbded98e8	-0.1160143
225	0x3dd2dc29	0.102958985
226	0x3e9bf02b	0.3045667
227	0x3cc57377	0.02410291
228	0x3edb2921	0.42804816
229	0x3e92fadb	0.28707013
230	0x3f18ffd4	0.5976536
231	0x3edcccf6	0.43125123
232	0xbe88a588	-0.2668879
233	0xbe681991	-0.22666003
234	0xbe10698e	-0.14102766
235	0x3d957872	0.07298364
236	0x3e3f3f52	0.18676499
237	0xbd88d122	-0.06680514
238	0xbe51660d	-0.20449086
239	0xbe1ef641	-0.15523626
240	0x3eb57171	0.3543811
241	0x3e0c45dc	0.13698524
242	0x3e11a3d6	0.14222655
243	0x3e713011	0.23553492
244	0x3e904eb6	0.28185052
245	0xbe0b2c1d	-0.13591047
246	0xbe92f743	-0.2870427
247	0xbc2ea944	-0.010660473
248	0xbd19f42f	-0.037586387
249	0x3e3a226e	0.18177196
250	0x3e261f80	0.16222954
251	0xbe01c45f	-0.12672566
252	0xbde2747f	-0.11057376
253	0xbcf00bc4	-0.029302485
254	0x3e3f9010	0.18707299
255	0x3d3b342e	0.04570406

bias f4 [128]
0	0xbf4550b4	-0.7707627
1	0x3cac3eb3	0.021025991
2	0xbebd760d	-0.37004128
3	0xbf226604	-0.63436913
4	0xbd617090	-0.05503899
5	0xbe28d8af	-0.16488908
6	0x3ddd630f	0.108099096
7	0x3edeb78b	0.43499407
8	0xbf9d3e29	-1.2284595
9	0xbd3e37d9	-0.04643998
10	0x3dc667d4	0.096877724
11	0xbe88b4c2	-0.26700407
12	0xbcb47f5c	-0.022033386
13	0x3da7e07b	0.08197113
14	0x3e28dba7	0.1649004
15	0x3faf0b45	1.3675314
16	0x3d28800d	0.041137744
17	0xbf41a4d3	-0.75642127
18	0xbde34cb7	-0.110986166
19	0x3eccfb6b	0.40035567
20	0x3ef8d515	0.4860007
21	0x3fa7b07a	1.3100731
22	0x3eafa1e3	0.34303197
23	0xbf49f63b	-0.7889134
24	0x3c8a69f9	0.016896235
25	0xbec017b6	-0.3751809
26	0xbd704d18	-0.058667272
27	0x3eb370e6	0.35047072
28	0xbe8c7acc	-0.27437437
29	0x3c7e98d5	0.015539368
30	0xbc389a02	-0.011267187
31	0x3f1f93df	0.6233501
32	0xbea5852e	-0.3232817
33	0xbdb3b969	-0.087755986
34	0x3ea88e32	0.32920986
35	0xbf307760	-0.6893215
36	0x3d21ca76	0.039499722
37	0xbc423cb9	-0.011855298
38	0x3ecf0d3b	0.40439782
39	0x3dd2dbc6	0.10295825
40	0xbc357f2f	-0.011077686
41	0xbf17798c	-0.5916984
42	0x3c88d488	0.016702905
43	0x3f0c9aba	0.54923594
44	0x3f3f9126	0.74830854
45	0x3dd4481b	0.103653155
46	0xbd2f2c93	-0.04276712
47	0x3ece97f3	0.40350303
48	0xbec01218	-0.37513804
49	0xbbeba4f0	-0.007191293
50	0x3c9fde2d	0.019515121
51	0x3dbddd89	0.0927077
52	0xbfbae36f	-1.4600657
53	0xbf01941f	-0.5061664
54	0xbe678fb0	-0.22613406
55	0xbcd29559	-0.02570598
56	0x3f41f685	0.75766784
57	0xbeb95cbb	-0.3620356
58	0x3b38e93c	0.002821519
59	0xbc17d84e	-0.00926788
60	0xbbbfdbac	-0.0058550444
61	0x3e8dc54d	0.2768959
62	0xbdd58453	-0.104256295
63	0xbce82dbc	-0.02834212
64	0xbdb2274c	-0.086989015
65	0x3ca4565f	0.020060716
66	0xbc10bf19	-0.008834624
67	0x3d13eaaa	0.036112465
68	0x3c4c17f7	0.012456886
69	0x3e1647cc	0.14675826
70	0x3f1e6b69	0.61882645
71	0xbd8f61c3	-0.070010684
72	0x3e478195	0.19483025
73	0xbea46773	-0.32110175
74	0xbc17e5bc	-0.009271082
75	0x3fa65d2e	1.2997186
76	0xbf4285d4	-0.75985456
77	0x3f1c2894	0.6099942
78	0xbd7e68c4	-0.06211163
79	0x3ef55678	0.47917533
80	0xbde6bf47	-0.11266952
81	0x3ebb7686	0.36613864
82	0xbfb01d43	-1.375893
83	0x3e9c9e29	0.30589417
84	0xbc888e37	-0.016669376
85	0x3cf3383e	0.029689904
86	0x3f596474	0.84918904
87	0xbd286532	-0.041112132
88	0x3ee90dd9	0.45518377
89	0xbe3bce92	-0.18340519
90	0x3f7e5451	0.99347407
91	0xbd83dc58	-0.064385116
92	0x3f78c19d	0.9717043
93	0xbc83f22a	-0.016106684
94	0x3efd7358	0.49502063
95	0xbe05369e	-0.13009116
96	0xbf8367da	-1.0266068
97	0xbe96a1bd	-0.29420272
98	0x3c85b656	0.016322296
99	0x3d21f131	0.03953666
100	0xbf7acd17	-0.9796919
101	0xbda535fa	-0.08066936
102	0x3f2596f7	0.6468348
103	0x3da22143	0.079165004
104	0x3faa5b35	1.3309084
105	0xbfa62ca1	-1.298237
106	0xbeabfe07	-0.33592245
107	0xbda28514	-0.07935539
108	0xbcd0e6b6	-0.025500637
109	0xbf465727	-0.77476734
110	0x3f0da6a1	0.5533238
111	0x3edff666	0.43742675
112	0x3cfcc1c6	0.030854117
113	0x3da6b8b1	0.08140696
114	0x3c9f21f3	0.019425368
115	0xbcb65b4c	-0.02226033
116	0xbd126b97	-0.035747137
117	0x3e15634d	0.14588661
118	0xbf287f6e	-0.6581944
119	0x3d11c263	0.035585772
120	0x3f26abe4	0.65106034
121	0xbf4d7322	-0.80253804
122	0xbc7e6f74	-0.015529502
123	0x3cc74c0e	0.024328258
124	0x3ec9c5be	0.39408678
125	0xbfa4372b	-1.2829336
126	0x3e8fad46	0.28061885
127	0x3d3a10b3	0.045426082

weight f4 [128, 128]
0	0xbd7ba95c	-0.06144081
1	0x3dd853d9	0.10562868
2	0x3e57b4c7	0.21065055
3	0xbd5cf86f	-0.053947862
4	0x3d2dff40	0.042479753
5	0x3da91ca8	0.08257419
6	0x3d90b8dd	0.0706651
7	0xbe9b5696	-0.30339497
8	0x3d59a2ea	0.053133883
9	0x3e9a6e91	0.3016248
10	0x3e911a02	0.28340155
11	0xbdde5b0f	-0.10857212
12	0x3e1fb20b	0.15595262
13	0xbe2b2b6d	-0.16715784
14	0x3de452e0	0.1114862
15	0xbf4ce0a5	-0.8003028
16	0xbc41dea7	-0.01183287
17	0x3c558c7b	0.013033981
18	0xbe346e56	-0.17620215
19	0x3e7f83c8	0.24952614
20	0x36e6a7c3	6.874064e-06
21	0x3f66cb55	0.9015401
22	0x3f7f84ee	0.9981221
23	0xbe022be1	-0.12712051
24	0x3dd4c6a9	0.10389454
25	0x3da5dbef	0.0809859
26	0x3e16e443	0.14735512
27	0xbddebc03	-0.10875704
28	0xbd8e736a	-0.06955607
29	0x3e6489a0	0.22318125
30	0x3e6fb82f	0.23410104
31	0x3dd132f2	0.10214795
32	0x3de3daed	0.11125741
33	0x3e74aa76	0.2389315
34	0xbd90aea9	-0.07064564
35	0x3de4a79a	0.1116478
36	0x3d41d659	0.04732356
37	0x3ee223ef	0.4416804
38	0x3da10335	0.0786194
39	0xbe829259	-0.2550228
40	0xbce4dbde	-0.027936872
41	0x3cbfc66f	0.02341005
42	0xbee94e76	-0.45567673
43	0x3d534787	0.051581886
44	0xbed39105	-0.4132158
45	0xbd6586db	-0.05603681
46	0xbdb65828	-0.08903533
47	0x3d125dbc	0.035733923
48	0xbd819341	-0.063269146
49	0x3e071467	0.13191377
50	0x3e8f6a37	0.28010723
51	0xbf0dde9b	-0.55417794
52	0xbf536d15	-0.8258832
53	0x3e2ec3de	0.17066905
54	0xbd5bf24f	-0.05369788
55	0x3ff3ee92	1.9057181
56	0xbe3609f0	-0.17777228
57	0xbdfe004c	-0.124024004
58	0xbe2bd42b	-0.16780154
59	0xbe519200	-0.20465851
60	0xbca5e4e7	-0.02025075
61	0x3dd2f5b8	0.103007734
62	0xbdc21950	-0.09477484
63	0x3dbf6466	0.09345321
64	0xbdfa6c60	-0.12227702
65	0x3d98b97a	0.07457252
66	0xbe07d9b5	-0.13266642
67	0xbe8b451f	-0.27201173
68	0xbe4b7599	-0.19869079
69	0x3dde3605	0.10850147
70	0x3dffeb1c	0.124960154
71	0xbe76c0ba	-0.24096957
72	0x3d2e9eea	0.04263202
73	0x3e7a5521	0.24446537
74	0x3cdc39f6	0.026883107
75	0x3db6b725	0.08921651
76	0xbe101e3b	-0.14074032
77	0x3ef85216	0.48500127
78	0x3dbd754b	0.092508875
79	0xbd08139f	-0.033221837
80	0x3e3aa32c	0.18226308
81	0xbe2784fe	-0.16359326
82	0xbf09ed3f	-0.53877634
83	0x3e90be0f	0.28270003
84	0x3e121545	0.14265926
85	0x3eacaceb	0.33725676
86	0xbe905319	-0.28188398
87	0x3e67f03c	0.22650236
88	0x3d58263d	0.052770842
89	0xbde30113	-0.11084189
90	0xbdd8e15f	-0.10589861
91	0x3ed6ccdb	0.41953167
92	0xbe7da1f2	-0.24768808
93	0xbbaa155b	-0.005190534
94	0x3cc397cf	0.023876099
95	0xbe900e40	-0.28135872
96	0xbdeecb1c	-0.11659834
97	0xbd2e8039	-0.04260275
98	0xbe07da03	-0.13266759
99	0xbe5fe650	-0.21865201
100	0xbe71aa15	-0.23600037
101	0x3e6008e6	0.21878394
102	0x3d4ec373	0.050479364
103	0x3e1d2442	0.15345863
104	0xbf89d54a	-1.0768216
105	0x3f6df5f1	0.929534
106	0xbe4f157a	-0.20223036
107	0x3e717ef0	0.23583579
108	0xbe192620	-0.1495595
109	0x3cc25ab9	0.0237249
110	0x3d018a8e	0.031626277
111	0xbe30396a	-0.17209402
112	0x3cff62e5	0.031175086
113	0xbe27f265	-0.1640106
114	0x3db1bea8	0.08678943
115	0x3e41bafa	0.18918982
116	0x3c35d805	0.011098866
117	0x3e0d8492	0.13820103
118	0xbd7a6788	-0.06113389
119	0xbde5eef4	-0.11227217
120	0x3d66348c	0.056202456
121	0xba53cd83	-0.0008079635
122	0x3d863512	0.06553091
123	0xbe15cea9	-0.14629616
124	0xbd4018c1	-0.046898607
125	0xbd93ac0e	-0.07210551
126	0xbe335ce8	-0.1751591
127	0x3d7922bc	0.06082414
128	0x3dde8919	0.10865993
129	0x3ec6d603	0.38835153
130	0x3eb6aee8	0.35680318
131	0x3e37ec24	0.17961174
132	0xbbf3d952	-0.007441678
133	0x3d8330cb	0.06405791
134	0x3d8b43ec	0.068000644
135	0xbe1a086c	-0.15042275
136	0x3e6f3c03	0.23362736
137	0x40109db0	2.2596245
138	0x3c8a389a	0.016872693
139	0xbda7585c	-0.0817115
140	0x3e348698	0.17629468
141	0xbeccc58e	-0.39994472
142	0x3e72344c	0.23652762
143	0xbd964d06	-0.0733891
144	0x3b9630c2	0.004583449
145	0xbc00c889	-0.007860311
146	0xbeb89908	-0.36054254
147	0x3e0fcf95	0.1404403
148	0x3f0b30ac	0.5437114
149	0xbf35a650	-0.709569
150	0xbe7aa949	-0.2447864
151	0x3e21ba0f	0.15793632
152	0x3df0ca04	0.117572814
153	0x3e6f29df	0.23355816
154	0x3da235e3	0.07920434
155	0xbe25274f	-0.16128276
156	0xbe40d121	-0.18829776
157	0x3e8a2ecd	0.2698883
158	0x3cde83a2	0.027162377
159	0xbd1ca0af	-0.038239177
160	0x3d994238	0.07483333
161	0x3e9616f7	0.29314396
162	0xbe4e60e7	-0.20154153
163	0x3ce6dcad	0.028181398
164	0xbdfdc466	-0.12390976
165	0x3f4e6813	0.80627555
166	0x3ee8dd59	0.45481375
167	0xbe37f344	-0.17963892
168	0x3e4ea5ff	0.2018051
169	0x3b8d67a4	0.0043153334
170	0x404c3b2f	3.1911123
171	0xbe0378dd	-0.12839074
172	0xbe250bf7	-0.16117845
173	0x3c476179	0.012169235
174	0xbd500cfa	-0.050793625
175	0x3cd8a5d3	0.026446259
176	0x3cd893ff	0.026437758
177	0x3da77f51	0.081785806
178	0x3e67fc5f	0.22654866
179	0xbe3959a6	-0.18100604
180	0x3f0e7d9b	0.5566041
181	0x3e09d1ac	0.1345889
182	0xbd274565	-0.040837664
183	0xbf6c7b67	-0.923758
184	0xbe6be74a	-0.23037449
185	0x3e359045	0.17730816
186	0xbdb71c19	-0.08940906
187	0xbead0d60	-0.33799267
188	0xbce16fd7	-0.02751915
189	0x3dcdd567	0.10050469
190	0xbd23d241	-0.039995436
191	0x3da2da54	0.07951799
192	0xbe5f0e0c	-0.21782702
193	0x3e6f00c0	0.2334013
194	0xbe8382c7	-0.25685713
195	0xbe3b375d	-0.18282838
196	0xbe5cddde	-0.2156901
197	0x3e7eb694	0.24874336
198	0xbc783502	-0.015149357
199	0xbdd7b8fd	-0.105333306
200	0x3e809457	0.25113174
201	0x3e2d041f	0.16896103
202	0x3e865d22	0.2624293
203	0x3db0855b	0.086191855
204	0xbc09f124	-0.008419309
205	0xbf01409e	-0.50489223
206	0x3e1ab7f6	0.15109238
207	0xbd588821	-0.052864198
208	0x3e2ea79a	0.17056122
209	0xbe72eb1f	-0.23722504
210	0x3fa21329	1.2662097
211	0x3f0c7774	0.5486977
212	0x3df8d761	0.12150455
213	0x3e8451ec	0.2584375
214	0x3e4ab00d	0.1979372
215	0x3d7f15e2	0.06227673
216	0xbec90426	-0.39260978
217	0xbbddf484	-0.0067735333
218	0xbea3e96f	-0.32014033
219	0x3dd7ab4f	0.105307214
220	0xbe08999b	-0.13339846
221	0xbdb2b3d8	-0.08725709
222	0xbcaf415f	-0.021393476
223	0xbecc19f0	-0.3986354
224	0xbe61d2c3	-0.22053055
225	0x3e492855	0.19644292
226	0xbec641a9	-0.3872197
227	0xbe5020c6	-0.20325002
228	0xbd960682	-0.0732546
229	0x3df81313	0.12113013
230	0xbe0174ef	-0.12642263
231	0x3e58b1a6	0.21161518
232	0xbe829b40	-0.2550907
233	0x3de9aee1	0.11410309
234	0xbe40dd92	-0.18834522
235	0x3e638a28	0.22220671
236	0xbc5aeef4	-0.013362635
237	0x3ee593df	0.4483938
238	0x3dbc9e5a	0.09209891
239	0xbdace05c	-0.08441231
240	0x3e40516d	0.18781061
241	0xbe30aa7e	-0.17252538
242	0x3e80c198	0.251477
243	0x3e85a3c6	0.26101512
244	0x3dafdaa5	0.08586625
245	0x3e131c5e	0.1436629
246	0xbb9df50d	-0.004820472
247	0xbe0f1698	-0.13973463
248	0xbe197d81	-0.14989282
249	0x3e328e72	0.17437151
250	0x3cfe0f56	0.031013172
251	0xbe2d68b7	-0.16934477
252	0xbe50b50f	-0.20381568
253	0x3e0334dc	0.12813133
254	0xbdfeb122	-0.12436129
255	0x3d46ee68	0.048567206

bias f4 [128]
0	0x3db2f479	0.08738036
1	0xbe5323cd	-0.20619126
2	0x3c9f8b2a	0.019475538
3	0xbe952492	-0.29129463
4	0x3eab4b21	0.33455756
5	0xbec70699	-0.3887222
6	0xbe20568e	-0.15658018
7	0x3d1c3c47	0.038143422
8	0x3ebf8ea7	0.37413523
9	0xbe015f30	-0.12633967
10	0x3df7fce4	0.12108782
11	0x3e7e63f6	0.2484282
12	0x3bf302f2	0.0074161226
13	0xbe7b700f	-0.24554466
14	0x3ea4fcd4	0.32224143
15	0xbeb7e805	-0.35919204
16	0xbda78cfb	-0.08181187
17	0x3da1c3df	0.078986876
18	0xbdddbbca	-0.108268335
19	0x3e73da24	0.23813683
20	0xbeabd903	-0.33564004
21	0x3edb62fc	0.42848957
22	0x3e17ffc0	0.14843655
23	0xbe25db0c	-0.16196841
24	0x3e9a9152	0.30188996
25	0xbee99236	-0.45619363
26	0x3d0c956c	0.034322187
27	0xbe04ddcf	-0.12975238
28	0xbebaae29	-0.36461
29	0xbdbe8b8c	-0.0930396
30	0xbc4dbefe	-0.012557743
31	0x3f35718e	0.70876396
32	0xbe868669	-0.26274422
33	0x3e3f06f4	0.18654996
34	0x3e80804d	0.25097886
35	0x3e5be020	0.21472216
36	0x3db426fb	0.087964974
37	0x3e344514	0.17604476
38	0xbda300fe	-0.079591736
39	0x3ee33561	0.44376662
40	0xbb8aa826	-0.0042314706
41	0x3e415b94	0.1888259
42	0x3e80eff8	0.25183082
43	0xbc34e057	-0.011039815
44	0x3e8eee48	0.2791617
45	0xbecb06b6	-0.39653558
46	0x3dc85bb3	0.09783115
47	0xbf22f14f	-0.6364946
48	0x3da81539	0.08207173
49	0xbe784b73	-0.24247532
50	0xbead7f5b	-0.33886227
51	0x3eafb222	0.34315592
52	0x3e627523	0.22114997
53	0x3e05c25c	0.13062423
54	0x3d3438dc	0.043999538
55	0xbfb63666	-1.4235351
56	0x3e4bb589	0.19893469
57	0x3eaa73ea	0.3329156
58	0x3ede301e	0.43396086
59	0x3e44c2dc	0.19214958
60	0x3e6ead4c	0.23308295
61	0xbdde61e2	-0.108585134
62	0x3e0e5b58	0.13902032
63	0x3e941836	0.2892472
64	0xbdc28646	-0.09498267
65	0xbdd18e1b	-0.102321826
66	0xbc52ee76	-0.012874236
67	0x3f136c71	0.57587343
68	0x3e2bdd7d	0.1678371
69	0x3edb476b	0.42827925
70	0x3f1f0c23	0.62127894
71	0xbee4c327	-0.4468014
72	0xbe36f472	-0.17866686
73	0x3e7f6f4b	0.24944799
74	0xbeb505ec	-0.3535608
75	0xbea22780	-0.3167076
76	0x3c934492	0.017977033
77	0xbe762097	-0.2403587
78	0xbebf7345	-0.3739263
79	0xbd440faf	-0.04786652
80	0x3d6e113b	0.0581219
81	0x3d011348	0.03151253
82	0x3c492381	0.012276531
83	0x3e879a4c	0.26484907
84	0x3ba9b188	0.005178634
85	0xbed2fca4	-0.41208375
86	0xbeba29cf	-0.36360022
87	0x3e85cc0a	0.26132232
88	0x3ded2cfa	0.11580844
89	0xbee4dd36	-0.4470002
90	0xbea14b86	-0.31502932
91	0xbed8f645	-0.4237539
92	0xbdaaade7	-0.083339505
93	0x3f61643c	0.8804357
94	0xbe2dcd52	-0.16972855
95	0xbdcd6dd7	-0.10030716
96	0x3eb08421	0.34475806
97	0x3e436e56	0.19085059
98	0xbeea4d8f	-0.45762298
99	0xbed9ee9b	-0.42564854
100	0x3cf36c75	0.029714802
101	0x3e9d862d	0.3076643
102	0xbf8ad69c	-1.0846744
103	0x3ed4fa9a	0.41597444
104	0xbf117e04	-0.5683291
105	0x3e771820	0.24130297
106	0xbe2a4466	-0.16627654
107	0x3f139ca7	0.5766091
108	0xbe50103f	-0.20318697
109	0x3f3c3d6e	0.73531234
110	0x3c215416	0.009846708
111	0x3e75c3b3	0.24000435
112	0xbee3ccbf	-0.44492146
113	0xbea822fa	-0.32839185
114	0x3e2672e5	0.16254766
115	0xbe8579c1	-0.26069453
116	0x3e019c35	0.12657245
117	0xbe7cedb2	-0.24700049
118	0x3f116f1c	0.56810164
119	0x3eacc647	0.33745024
120	0xbe1b4111	-0.1516154
121	0x3dfdb073	0.12387171
122	0x3e2c4505	0.16823204
123	0xbe40a9d9	-0.18814792
124	0xbe4866e8	-0.19570506
125	0x3ea90b1e	0.33016294
126	0xbd90b54b	-0.07065829
127	0x3ef86d93	0.48521098

weight f4 [128, 128]
0	0x3f3c205e	0.7348689
1	0xbf27732e	-0.65410125
2	0x3f38186d	0.7191227
3	0xbeb9fe5a	-0.36326867
4	0x3e3279f4	0.17429334
5	0x3f4477e9	0.7674547
6	0xbe7a8285	-0.24463852
7	0x400c979b	2.1967533
8	0xbf7a0eff	-0.9767913
9	0xbdb24661	-0.0870483
10	0xbf856118	-1.0420256
11	0x3f62a272	0.8852912
12	0xbf244f80	-0.6418381
13	0xbf437f38	-0.76365995
14	0xbf95142e	-1.1646783
15	0x3e81cdef	0.25352427
16	0x3f36b417	0.71368545
17	0x3f028b07	0.5099339
18	0xbeef8899	-0.46783903
19	0xbe37b85b	-0.1794142
20	0x3f9ec5cc	1.2404113
21	0x3f1fcec9	0.62424904
22	0x3ea9236d	0.3303484
23	0x3f2a1412	0.66436875
24	0xbf0b0a54	-0.54312634
25	0x3e1e0b8a	0.1543409
26	0xbec3dc19	-0.3825386
27	0x3f40d0dd	0.753187
28	0x3f62136a	0.88310874
29	0x3e0c3897	0.13693462
30	0xbe551d89	-0.20812048
31	0xbfc32299	-1.5244933
32	0x3fcba765	1.591046
33	0xbdb48d3d	-0.088160016
34	0x3e499353	0.19685106
35	0x3f8eaf5f	1.1147269
36	0x3e3cc81e	0.18435714
37	0xbf0b9d41	-0.54536825
38	0x3e459143	0.19293694
39	0x3e56c97a	0.20975295
40	0x3f1e4f65	0.61839896
41	0xbf86ae71	-1.0521985
42	0x3ed8c3d2	0.423369
43	0xbf512ea6	-0.81711805
44	0xbe8e7c9e	-0.2782945
45	0x3e547bef	0.20750402
46	0x3f67b7f7	0.90515083
47	0xbd6b9c6a	-0.057522215
48	0x3dcc4b75	0.0997533
49	0x3f331af8	0.69963026
50	0xbead4125	-0.33838764
51	0xbea756f3	-0.32683524
52	0x3e826c5d	0.254733
53	0x3e8f8fb8	0.28039336
54	0xbf442642	-0.76620877
55	0xbeeee493	-0.46658763
56	0x3f62e6e4	0.8863356
57	0x3ed1ea8d	0.4099926
58	0xbf71bb8a	-0.94426787
59	0xbe739999	-0.23789062
60	0x3d7cd5d6	0.061727367
61	0x3ef33002	0.47497565
62	0xbe2d81e8	-0.16944087
63	0x3f21a889	0.6314779
64	0x3eb4731f	0.3524408
65	0xbeb5765a	-0.35441858
66	0x3f3ddbcb	0.741635
67	0xbf4e0642	-0.804783
68	0x3f4188b4	0.7559922
69	0xbed2cb42	-0.41170698
70	0xbe8fc028	-0.2807629
71	0xbef12eb9	-0.4710596
72	0xbec10990	-0.37702608
73	0xbe13cd2e	-0.14433739
74	0xbe26062a	-0.16213289
75	0x3b9f3a66	0.0048592566
76	0x3ab31b5d	0.0013664771
77	0x4042fc35	3.0466435
78	0x40831e45	4.097445
79	0xbfc86d32	-1.5658324
80	0xbfa06652	-1.2531226
81	0xbf090658	-0.53525305
82	0xc01d8cb5	-2.461713
83	0xbf5aeb58	-0.85515356
84	0x3df537f5	0.119735636
85	0xbea7074b	-0.32622752
86	0x3f817dda	1.0116532
87	0x3e627d2f	0.22118066
88	0xbfae5b32	-1.3621581
89	0x405dca49	3.4654715
90	0x3f2d66a7	0.6773476
91	0xbde3dc3d	-0.111259915
92	0xbea88863	-0.32916555
93	0x3e7fc83a	0.24978724
94	0xbe40225f	-0.18763112
95	0x3ec3f3b2	0.38271862
96	0x3f980f86	1.1879737
97	0xbfd3f343	-1.6558613
98	0x3de3b02e	0.11117588
99	0x3ed50fe6	0.41613692
100	0x3f57e716	0.84336984
101	0xbfd7abbc	-1.6849284
102	0x3f25381b	0.64538735
103	0xbfd392fd	-1.6529232
104	0x3f49bdb7	0.78805107
105	0x3e4414f7	0.19148622
106	0x3e8c02aa	0.27345783
107	0xbf4cb438	-0.7996249
108	0x3f8d852b	1.1056265
109	0xbf7f0698	-0.99619436
110	0x3e9b3f7e	0.30321878
111	0x3e96ffb1	0.29491952
112	0x3f89b944	1.0759664
113	0x3fc05c6f	1.5028208
114	0xbecc633e	-0.39919466
115	0xbe142e02	-0.14470676
116	0xbd0acd2a	-0.033887066
117	0x3f27823f	0.65433115
118	0xbf444e2e	-0.7668179
119	0x3f3ef074	0.7458565
120	0x3f05f7e7	0.52331394
121	0xbf6479e8	-0.89248514
122	0xbf70ff00	-0.941391
123	0xbea42c56	-0.32065076
124	0xbf3ce9b3	-0.73794097
125	0xbf5e7dd6	-0.8691076
126	0x3daf57ae	0.085616454
127	0x3e45e262	0.1932464
128	0x3ec0ad9c	0.37632453
129	0x3f566bad	0.8375805
130	0x3fc1cf8e	1.5141466
131	0xbe2b8be2	-0.1675258
132	0x3e67d15a	0.22638455
133	0xbe9292bb	-0.2862757
134	0xbe3202a2	-0.17383817
135	0xbdd0a2b6	-0.10187285
136	0xbe8cd679	-0.2750738
137	0xbf139e5b	-0.57663506
138	0xbe96f12d	-0.29480878
139	0x3f01a1d8	0.5063758
140	0x3fd150bf	1.6352767
141	0xbf188d54	-0.5959065
142	0x3f14b216	0.5808424
143	0xbe6161d4	-0.22009975
144	0x400ca361	2.1974719
145	0xc0024f69	-2.0360968
146	0x3ecbd73f	0.39812657
147	0xbf6594bc	-0.89680076
148	0x3d9a31f1	0.07529057
149	0xbfc909de	-1.5706136
150	0x3c9cc1a1	0.019135298
151	0xbccd5351	-0.025064142
152	0xbc8d89a0	-0.017277539
153	0x3e8780a2	0.26465327
154	0xbec0184e	-0.37518543
155	0x3f29cb60	0.6632595
156	0xbd855862	-0.06510998
157	0x3d42f04f	0.047592457
158	0x3db4945a	0.08817358
159	0x3fefec1a	1.8743927
160	0xbd88e043	-0.066833995
161	0x3eb0797d	0.34467688
162	0x3e2daf34	0.16961366
163	0xbe58f8c6	-0.2118865
164	0xbd067813	-0.032829355
165	0x3fb25ec5	1.3935171
166	0x3f82f38a	1.0230572
167	0x3e1f996e	0.15585873
168	0x3e221ee1	0.15832092
169	0xbf05e2a1	-0.52298933
170	0xbea9db10	-0.33174944
171	0xbed9d03a	-0.42541677
172	0x3f603bc3	0.8759119
173	0xbe8af272	-0.27138096
174	0x3e8a0c22	0.26962382
175	0x3e5062cc	0.20350188
176	0x3f02d344	0.51103616
177	0xbde30255	-0.11084429
178	0xbd79c6c4	-0.060980573
179	0xbe523440	-0.20527744
180	0x3e362d5c	0.1779074
181	0x3ebe33be	0.3714885
182	0xbea9bbcf	-0.331511
183	0xbeb7a5df	-0.35868737
184	0x3eca598f	0.39521453
185	0x3beecbce	0.007287479
186	0x3f8673d2	1.0504096
187	0xbe9d7b12	-0.30757958
188	0x3e7313da	0.23738042
189	0x3ee7159d	0.45133677
190	0xbf21f61f	-0.63266176
191	0xbe4ae2dd	-0.19813104
192	0x3f4f09ee	0.80874527
193	0x403f2f48	2.9872608
194	0x3f2c64c4	0.67341256
195	0xbed41562	-0.41422564
196	0x3cbedbeb	0.023298224
197	0x3d9fb541	0.07798243
198	0x3ef5b9a9	0.4799321
199	0x3ef295a0	0.4737978
200	0xbf4461f0	-0.7671194
201	0x3fc8233a	1.563575
202	0xbe6e9fbe	-0.23303124
203	0x3ea4f284	0.32216275
204	0xbe019a49	-0.12656511
205	0xbe356ee8	-0.17718089
206	0x3e5409a8	0.20706809
207	0xbee3a5a3	-0.44462308
208	0xbecd3e54	-0.40086615
209	0xbf22153d	-0.6331366
210	0x3e6afe1e	0.229485
211	0x3f2a66cd	0.6656311
212	0xbed41af5	-0.41426817
213	0xbf34af6c	-0.7058017
214	0xbf62ecd6	-0.8864263
215	0xbdc1ed08	-0.09469038
216	0x3f96b070	1.1772594
217	0xc01b0e3e	-2.4227443
218	0xbf370f68	-0.71507883
219	0x3c86e2d2	0.016465578
220	0xbda67c57	-0.08129185
221	0x3fabb413	1.3414329
222	0x3e118c0a	0.14213577
223	0x3d77e01b	0.060516458
224	0x3f4bdc59	0.796331
225	0xbf8870ba	-1.0659401
226	0xbe1da72b	-0.15395801
227	0xbee26883	-0.4422036
228	0xbf2d0646	-0.675877
229	0x3f5ab54d	0.85432893
230	0xbe8f5710	-0.2799611
231	0x3ed88328	0.42287564
232	0xbf25dfe8	-0.6479478
233	0x3e195b51	0.1497624
234	0xbd04d2b6	-0.032427512
235	0x3eb6f9c1	0.35737422
236	0x3f085c57	0.532659
237	0x3dfd4100	0.123659134
238	0x3f50c089	0.81543785
239	0x3bef2123	0.0072976514
240	0x3ea5519c	0.32288826
241	0xbf533630	-0.8250456
242	0xbefe9e53	-0.49730167
243	0xbf3d0273	-0.7383186
244	0x3e1ae85c	0.151277
245	0xbfe894ff	-1.817047
246	0x3ebe4ae1	0.37166503
247	0xc04fbe58	-3.2459927
248	0x3e879a5f	0.26484963
249	0xbf138bec	-0.5763538
250	0x3f3a49b2	0.727687
251	0xbe987213	-0.29774532
252	0x3ef023b3	0.46902236
253	0x3fb3946f	1.4029673
254	0x3e8066c6	0.2507841
255	0x3d91e95f	0.0712459

bias f4 [128]
0	0xbecd6242	-0.40114027
1	0x3d1d92cb	0.03847007
2	0xbe235c3b	-0.15953152
3	0x3eccdf41	0.4001408
4	0xbece7ff4	-0.40331995
5	0x3ec4e8b8	0.384588
6	0xbe430cb8	-0.1904782
7	0xc010dd32	-2.2635007
8	0x3ee19de9	0.44065788
9	0x3ee9fad6	0.45699185
10	0xbf0099ba	-0.5023457
11	0xbe9ba327	-0.30397913
12	0xbf34779d	-0.70495015
13	0x3e8ed852	0.27899414
14	0x3f06974d	0.52574617
15	0x3fa27563	1.2692074
16	0x3f1551a0	0.58327675
17	0xbed834b2	-0.42227703
18	0xbf3caff4	-0.73705983
19	0xbf4cb996	-0.7997068
20	0xbf79065f	-0.97275347
21	0xbf24910b	-0.6428382
22	0x40069e66	2.1034179
23	0xbedf364b	-0.4359611
24	0xbe35268b	-0.17690484
25	0x3f001915	0.5003827
26	0x3f434644	0.7627909
27	0x3f0f0f90	0.5588312
28	0x3ef10c4d	0.47079697
29	0x3f06f421	0.5271626
30	0xbf264f51	-0.6496478
31	0x3e3881e2	0.18018296
32	0xbf4b4127	-0.7939629
33	0x3f3f4c50	0.7472582
34	0xbf39cdf8	-0.7257991
35	0x3f038b66	0.5138458
36	0x3f26d75f	0.6517238
37	0x3f232d59	0.6374107
38	0x3cf2a768	0.029620841
39	0xbf2cf15d	-0.6755579
40	0xbd09f98a	-0.033685245
41	0x3f8f4358	1.1192427
42	0x3fa0a044	1.2548909
43	0x3f2509e9	0.64468247
44	0xbe6b61b6	-0.22986493
45	0x3efa1a3b	0.48848137
46	0x3dc217f0	0.09477222
47	0xbf50d1fd	-0.81570417
48	0xbecc6090	-0.3991742
49	0x3fa84858	1.3147078
50	0xbd4961db	-0.049165588
51	0x3daa62d9	0.08319635
52	0xbf17700c	-0.59155345
53	0xbf65a2ba	-0.89701426
54	0xbf84a7d6	-1.036372
55	0x3de687f7	0.11256402
56	0xbeef7ced	-0.46774998
57	0x3eee2c3b	0.4651812
58	0xbe110f5e	-0.14166018
59	0xbfaeefca	-1.3666928
60	0xbf163641	-0.58676535
61	0xbf0b8031	-0.5449248
62	0xbf0f6f94	-0.5602963
63	0xbf350f1c	-0.7072618
64	0xbf3c2bf1	-0.7350455
65	0x3dbe69f1	0.092975505
66	0x3ea4db35	0.32198492
67	0xbe3f3865	-0.18673857
68	0xbf18d656	-0.5970205
69	0x3e566798	0.20937955
70	0xbf812ec7	-1.00924
71	0xbf16da78	-0.58927107
72	0x3f2f9572	0.6858741
73	0x3eb68d8e	0.35654873
74	0xbefb3590	-0.49064302
75	0xbebc1029	-0.3673108
76	0x3f39fc99	0.7265106
77	0x3e4147dc	0.18875068
78	0xbe888ba6	-0.26669043
79	0xbf145073	-0.57935256
80	0x3f1fe96f	0.62465566
81	0x3f45805b	0.7714898
82	0x3f56a914	0.8385174
83	0xbf3e09d7	-0.74233764
84	0xbf4197b1	-0.7562209
85	0x3ecb2634	0.39677584
86	0xc002f3fe	-2.046142
87	0xbec136e1	-0.37737182
88	0x3f156c27	0.5836815
89	0xbed39396	-0.41323537
90	0xbeb481b0	-0.35255194
91	0xbc581af7	-0.013190023
92	0xbeab7b6a	-0.33492595
93	0x3e26b0b1	0.1627834
94	0xbe93ab9f	-0.28841874
95	0xbf085fc3	-0.5327112
96	0xbf072918	-0.5279708
97	0x3e948d68	0.29014134
98	0xbf43b4c0	-0.7644768
99	0xbf8e2507	-1.110505
100	0xbf794039	-0.9736362
101	0xbf211b09	-0.6293188
102	0xbef20e8a	-0.47276717
103	0x3ef3a0cd	0.4758362
104	0xbaebfa74	-0.0018003718
105	0x3da08021	0.07836939
106	0xbfc34198	-1.5254393
107	0x3f5eded6	0.8705877
108	0xbedf3c11	-0.43600515
109	0xbf28a389	-0.65874535
110	0x3e1a61b9	0.1507634
111	0x3eaaa1f9	0.333267
112	0xbeea8170	-0.45801878
113	0x3f0ed64c	0.5579574
114	0xbee83db2	-0.4535957
115	0xbdfd6718	-0.12373179
116	0xbe59f0fc	-0.21283334
117	0xbf116baf	-0.5680494
118	0x3f5a50a8	0.8527932
119	0x3f333c4b	0.70013875
120	0xbecf8b0a	-0.40535766
121	0xbf36a80d	-0.71350175
122	0x3f19367f	0.5984878
123	0xbf20eee0	-0.62864494
124	0xbee89599	-0.45426634
125	0x3ee2757b	0.44230255
126	0xbf20ad58	-0.627645
127	0xbe888d11	-0.26670125

weight f4 [1, 128]
0	0x3f19fd8e	0.6015252
1	0x4062b810	3.5424843
2	0xbf02ccc2	-0.51093686
3	0xc02310a4	-2.5478907
4	0x3f346a7d	0.7047499
5	0x4016e868	2.357935
6	0xbf09517f	-0.5363998
7	0x3fa7814a	1.3086331
8	0x3f370298	0.7148833
9	0x3f21aa3a	0.6315037
10	0x3f5d3e93	0.86423606
11	0x3f93a72b	1.1535391
12	0x3fd1b146	1.6382225
13	0xbf6c3744	-0.9227183
14	0x40046670	2.0687523
15	0xbfe150ef	-1.7602824
16	0xbf1a3338	-0.60234404
17	0x3f1147c5	0.56750137
18	0x3f07b268	0.530066
19	0x3f3a3d52	0.7274982
20	0x3f068d5f	0.52559465
21	0xbfffa251	-1.997141
22	0xbf61a45d	-0.88141423
23	0x3f54d6da	0.8314034
24	0x3f105769	0.5638338
25	0x3ee73fe1	0.45165923
26	0x3fb8463a	1.4396431
27	0x3f3090ca	0.6897093
28	0xbeb96db6	-0.36216515
29	0xbf71b0ae	-0.94410217
30	0xbf711189	-0.9416738
31	0x3f91a9e4	1.1379972
32	0xbf91c071	-1.1386853
33	0xbf9b6913	-1.2141441
34	0x3eb86eb1	0.3602195
35	0xbeec6aaa	-0.46175128
36	0x3edc82a8	0.43068433
37	0xc0af3430	-5.4751205
38	0xbefeb94a	-0.4975074
39	0xbfa3ea2c	-1.2805839
40	0x3f3b1f1f	0.7309436
41	0xbfd019ac	-1.6257834
42	0xbe54c5b2	-0.2077854
43	0x3ede09a5	0.43366733
44	0x3fca6555	1.5812174
45	0xbf57568f	-0.8411645
46	0xbf646a8d	-0.89225084
47	0x3f399db5	0.72506267
48	0x3edb2221	0.42799476
49	0xbfade0ae	-1.3584192
50	0x3e93462b	0.2876447
51	0xbe103b2d	-0.14085074
52	0xbf3d3b0f	-0.7391824
53	0x40512ccb	3.268359
54	0x3f70f94a	0.94130385
55	0x3efb8d2a	0.49131137
56	0xbf1d2987	-0.6139149
57	0xbfdda576	-1.731612
58	0x3f11b145	0.56911117
59	0x3e924b1f	0.28572938
60	0xbf42db0e	-0.761155
61	0xbf44259d	-0.76619893
62	0xbf0fa0aa	-0.5610453
63	0xbf3fd1e8	-0.74929667
64	0x3ecd3794	0.40081465
65	0xbf21680e	-0.630494
66	0xc0ced94f	-6.464027
67	0x3fb82b6d	1.4388252
68	0x3f6bb6bc	0.92075706
69	0xbf2d6bd5	-0.67742664
70	0x3f0b3aa6	0.54386365
71	0x40f79bea	7.7377825
72	0xc082e954	-4.0909824
73	0xbf48b6e4	-0.7840407
74	0x3ee5965b	0.44841275
75	0xbeca0f6f	-0.394649
76	0x3fa5e6b8	1.2961035
77	0x3f29f2ad	0.6638592
78	0x3ef21679	0.4728277
79	0xbf333adc	-0.7001169
80	0xbfb2cc56	-1.3968608
81	0x3f62ab80	0.8854294
82	0xbf120630	-0.5704069
83	0xbf707fae	-0.93944824
84	0xbf14df99	-0.5815368
85	0x3f274433	0.6533844
86	0x3f582c7d	0.84442884
87	0x4049f1f4	3.1553926
88	0xbe0e080f	-0.13870262
89	0xbf6a96ad	-0.91636163
90	0xbf14ab95	-0.58074313
91	0xbfa2069b	-1.2658266
92	0xbf8ca36b	-1.0987371
93	0xbeecc95d	-0.46247378
94	0xbf536828	-0.82580805
95	0x3f37344e	0.71564186
96	0x3ee6ab37	0.45052502
97	0xbf03fb55	-0.5155538
98	0x3f44ae2a	0.76828253
99	0x3f81bf14	1.0136437
100	0xbfa5bdb0	-1.2948513
101	0xbf8a8816	-1.082278
102	0xbf3e654a	-0.74373305
103	0x3f638531	0.8887511
104	0x3fe7eaee	1.811857
105	0x3f8cc00d	1.0996109
106	0x3fc61687	1.5475625
107	0xbfad4445	-1.3536459
108	0xbf434d4d	-0.76289827
109	0x3f07b543	0.5301096
110	0xbea54890	-0.32281923
111	0xbfcd3943	-1.60331
112	0x3f1c4a51	0.610509
113	0xbf303605	-0.6883243
114	0x3f24bd54	0.6435139
115	0x3f274619	0.65341336
116	0xbec736f6	-0.3890912
117	0x3f3fb7ea	0.74890006
118	0xbf9a5117	-1.2055997
119	0xbeac92bf	-0.33705708
120	0x3f3949b2	0.72378075
121	0xbef15c6b	-0.47140822
122	0x400b428d	2.175937
123	0xbf2eadc9	-0.68233925
124	0xc04b4938	-3.176344
125	0x3f4437a4	0.766474
126	0xbf0ef1fb	-0.5583798
127	0x3ebccfe1	0.3687735
