robot_rcs_models/actuators/mlp_jit_361480_8_50000.pt (torch, 152804 bytes, 7 tensors)

weight f4 [128, 16]
1.3179156 0.89067924 0.58259755 0.3738534 -0.19420183 -0.39568228 -0.66799706 -1.08055
-0.49000856 -0.36239082 -0.24056454 0.12026124 0.26104575 -0.102137625 0.24861908 0.14187604
0.6107631 0.09404409 -0.039638963 -0.21767125 -0.06594922 -0.00087272434 -0.16152216 0.057363607
6.000751 5.725335 4.808512 4.2317247 4.0265493 3.8793106 4.1497164 2.850151
0.15409337 -0.16009764 -0.20989671 0.11373111 -0.23128441 -0.1384508 0.30652696 0.4050309
-0.027782928 -0.09039935 0.112690024 -0.059413683 0.10053608 0.2058019 -0.1245676 -1.0372851
0.67475754 0.41022086 0.22776352 0.23538671 0.046273697 -0.14811155 -0.6795547 -0.84434885
-0.36200637 -0.0815242 -0.10144135 0.23491298 0.15405175 0.16824764 -0.1700476 -0.084104866
-0.16817841 -0.23430602 0.17008819 -0.05570504 -0.06440188 -0.041472394 -0.08015817 0.33227545
0.13658085 -0.023732549 -0.042673916 -0.05994527 0.13859487 -0.164396 0.059001982 0.28744462
0.4501653 0.45308402 0.040403936 0.3762461 0.25970858 0.24888322 0.09221766 0.37224174
-0.53198844 -0.30970708 0.00046651126 0.07237776 0.15621783 0.32608163 0.58171713 0.6275512
0.55532914 0.3047717 0.2473179 -0.26481998 -0.22781487 -0.8466223 -0.94233114 -1.4787083
0.83363587 0.502177 0.5751769 0.22547019 0.25952756 0.3549895 -0.017424593 -0.008636499
0.04014501 -0.037516534 0.30917665 0.49934545 0.15959215 0.33123556 -0.066075064 0.23856622
0.6003737 0.2603805 -0.060701326 0.05747304 -0.2653053 -0.58355737 -0.13328265 -0.10764458
-0.87816906 -0.88186175 -0.60245 -0.41804418 -0.2612164 -0.018875364 0.008277273 0.1867591
0.02884304 0.16807045 0.31531164 0.096561424 0.45898825 0.5549942 0.12201823 0.106867544
0.4665465 0.10817117 0.17438756 0.020499796 0.0089759035 0.055615135 0.2469822 -0.13863206
0.050604466 0.028611874 -0.048884157 0.11687823 0.06596681 -0.030161565 0.14948858 0.21451135
0.25536355 -0.20622393 -0.09252736 -0.09036678 -0.14445655 -0.11646397 0.14511162 0.1894862
0.22176093 -0.0705212 -0.21087253 0.0060635074 0.01663496 -0.21534246 -0.012740909 0.3267924
1.1923573 0.5496589 0.271183 -0.14367269 -0.27330923 -0.6720179 -0.43040785 -0.3790137
-2.4315028 -2.142391 -2.2117684 -2.2653897 -2.0833762 -1.9286886 -2.5604508 -2.4853466
0.03277578 -0.13586012 0.069437034 0.017801475 0.18380749 -0.10995935 -0.20393957 0.11670401
1.3254358 0.9146189 0.69133365 0.82936376 0.89724183 0.7241184 0.48928964 0.9197592
0.31138024 0.21251512 0.092642 0.2862086 0.39985543 0.016821666 -0.4136427 -1.2213283
-0.50315934 -0.51496214 0.04710013 -0.23189199 0.30786481 0.47491926 0.73581415 -0.20859723
0.7307687 0.5675607 0.3349328 0.31808928 0.1421608 0.2683102 0.20631702 -0.08039914
0.29276323 0.061590303 -0.16617683 -0.37543505 -0.44415528 -0.38662696 -0.21965884 -0.038816582
-2.0746975 -1.0946404 -0.96853065 -0.6177626 -0.1795392 -0.27057788 0.07260108 0.3672303
0.34431514 0.20298739 0.4666842 0.33028403 0.4358716 0.60735077 0.71952105 0.11636586
00000000: 75b1 a83f 8e03 643f 1d25 153f b669 bf3e
00000010: d8dc 46be de96 cabe db01 2bbf 764f 8abf
00000020: 67e2 fabe 4a8b b9be 8d56 76be 864b f63d
00000030: caa7 853e 882d d1bd 0096 7e3e f447 113e
00000040: f85a 1c3f 309a c03d 775c 22bd 36e5 5ebe
00000050: 6210 87bd 8ac7 64ba 1166 25be 1af6 6a3d
00000060: 2706 c040 f235 b740 55df 9940 4a6a 8740
00000070: 7ed9 8040 a046 7840 7aca 8440 e068 3640
00000080: a7ca 1d3e a3f0 23be 2aef 56be dbeb e83d
00000090: d2d5 6cbe 0cc6 0dbe 1af1 9c3e 3660 cf3e
000000a0: 0699 e3bc 4b23 b9bd 07ca e63d c35b 73bd
000000b0: dce5 cd3d bcbd 523e 4c1d ffbd c2c5 84bf
000000c0: e9bc 2c3f 7808 d23e d73a 693e 3709 713e
000000d0: 7d89 3d3d 8eaa 17be 4cf7 2dbf 3f27 58bf
000000e0: e658 b9be 29f6 a6bd 7cc0 cfbd 078d 703e
000000f0: bebf 1d3e 1c49 2c3e f520 2ebe 2c3f acbd
00000100: f636 2cbe ebed 6fbe 992b 2e3e f82a 64bd
00000110: 22e5 83bd f5de 29bd f729 a4bd 0220 aa3e
00000120: dadb 0b3e c36a c2bc d8ca 2ebd 2c89 75bd
00000130: d0eb 0d3e 6d57 28be 10ac 713d f12b 933e
00000140: 117c e63e a1fa e73e 997e 253d 54a3 c03e
00000150: 86f8 843e 3edb 7e3e 9ddc bc3d 7896 be3e
00000160: 6530 08bf ed91 9ebe 1596 f439 cb3a 943d
00000170: 91f7 1f3e 2cf4 a63e 6aeb 143f 32a7 203f
00000180: 0d2a 0e3f 090b 9c3e e740 7d3e 7c96 87be
00000190: 4d48 69be 3dbc 58bf 9d3c 71bf 5046 bdbf
000001a0: 2969 553f ac8e 003f cb3e 133f a8e1 663e
000001b0: cce0 843e 2fc1 b53e 05be 8ebc 1a80 0dbc
000001c0: 186f 243d f0aa 19bd 674c 9e3e 35aa ff3e
000001d0: 206c 233e b597 a93e 5d52 87bd b44a 743e
000001e0: 17b2 193f 9850 853e f4a1 78bd da68 6b3d
000001f0: 19d6 87be 0464 15bf 3f7b 08be c374 dcbd
00000200: b0cf 60bf b1c1 61bf 2a3a 1abf e309 d6be
00000210: 28be 85be 82a0 9abc 669d 073c c73d 3f3e
00000220: 3d48 ec3c a91a 2c3e 8770 a13e ffc1 c53d
00000230: 8200 eb3e 1a14 0e3f b2e4 f93d 5fdd da3d
00000240: 2fdf ee3e d988 dd3d a792 323e 30ef a73c
00000250: ab0f 133c b2cc 633d e7e8 7c3e 90f5 0dbe
00000260: a146 4f3d 7363 ea3c c13a 48bd da5d ef3d
00000270: 9b19 873d 6315 f7bc 8913 193e dda8 5b3e
00000280: 03bf 823e 5e2c 53be fc7e bdbd 3812 b9bd
00000290: 6bec 13be a984 eebd 2498 143e ac08 423e
000002a0: 4c15 633e 6b6d 90bd f8ee 57be 63b0 c63b
000002b0: 0a46 883c bc82 5cbe 3fbf 50bc 5551 a73e
000002c0: 2a9f 983f 72b6 0c3f 80d8 8a3e ef1e 13be
000002d0: 30ef 8bbe 5d09 2cbf 6b5e dcbe 150e c2be
000002e0: be9d 1bc0 ef1c 09c0 9d8d 0dc0 25fc 10c0
000002f0: 0956 05c0 45df f6bf 6dde 23c0 eb0f 1fc0
00000300: e53f 063d ea1e 0bbe 0135 8e3d 66d4 913c
00000310: 0838 3c3e 5e32 e1bd 89d5 50be 8302 ef3d
00000320: e1a7 a93f 7724 6a3f 3efb 303f 2f51 543f
00000330: a4b1 653f d35f 393f 2c84 fa3e 5775 6b3f
00000340: 3b6d 9f3e 909d 593e 17bb bd3d ef89 923e
00000350: dab9 cc3e 97cd 893c fac8 d3be 7c54 9cbf
00000360: 0dcf 00bf 8fd4 03bf 11ec 403d 1875 6dbe
00000370: 75a0 9d3e 9e28 f33e 515e 3c3f 839a 55be
00000380: a813 3b3f a84b 113f 507c ab3e 99dc a23e
00000390: 9a92 113e f45f 893e c544 533e 4ea8 a4bd
000003a0: 10e5 953e 1d46 7c3d 422a 2abe 0639 c0be
000003b0: 5268 e3be f8f3 c5be 3fee 60be 23fe 1ebd
000003c0: d8c7 04c0 2d1d 8cbf a0f1 77bf b125 1ebf
000003d0: 20d9 37be 2f89 8abe e0af 943d 9c05 bc3e
000003e0: 134a b03e eddb 4f3e 3bf1 ee3e fd1a a93e
000003f0: 902a df3e 577b 1b3f 8832 383f 3951 ee3d

bias f4 [128]
0.045043297 0.35068294 -0.009005406 0.014871487 0.3005816 0.00900549 -0.46868652 0.5745008
0.14404117 -0.012670075 0.9251032 -0.06766858 -0.18506998 0.029816557 -0.35953075 -0.21755591
-0.5347284 -0.0138466405 0.1525787 0.7547343 0.13172503 0.40191388 0.0075823283 0.33291635
0.77358365 0.8348995 -0.7542547 -0.029011205 -0.37566948 0.8692358 0.48711014 -0.34219855
0.40663937 0.3038048 -0.81301826 0.021373779 0.0809751 -0.05863836 -0.79905725 0.48446307
0.089224555 -0.5901161 0.19113131 0.01979664 0.37410262 -0.1143056 0.32363135 0.43817365
0.8541824 1.034399 0.3052319 -0.38090348 -0.89871866 0.763789 0.39877865 -0.045824885
1.2506934 0.23973809 0.14334102 -0.21035999 -0.2933241 0.044148065 -0.13889085 0.49568146
-0.84618616 -0.055741616 0.0032741441 0.4778244 0.54428476 -0.9495314 -0.48061776 0.60784113
-0.4721999 0.24914496 0.013511974 0.27374914 -0.37683964 0.5037277 -1.1009396 0.05366785
-0.5265865 -0.38791025 -0.018047461 0.0058593163 0.0018838397 0.057201836 -0.61559904 -0.0076723723
-0.019412804 -0.6491595 0.061245363 0.028785272 -0.07657746 -2.2067082 1.029875 0.661303
1.260704 -0.022447746 0.24272037 -0.6262279 -0.5975453 -0.035748094 1.1268498 0.021236902
0.6291249 0.087356664 -0.026257303 -0.009775914 0.6393272 -0.12577482 -0.41764936 -0.03821659
-1.6027806 0.123479724 0.3124618 0.48942804 0.017217513 0.5644928 -0.06050672 0.4027199
-0.8281275 0.4154827 -0.27793202 0.3647981 0.027582133 -0.24307263 0.016832508 -0.12655728
00000000: 527f 383d b78c b33e 698b 13bc 8aa7 733c
00000010: d5e5 993e c38b 133c aef7 efbe 7c12 133f
00000020: 877f 133e 2596 4fbc 90d3 6c3f d395 8abd
00000030: fc82 3dbe da41 f43c 6a14 b8be fac6 5ebe
00000040: f6e3 08bf 05dd 62bc 973d 1c3e 4436 413f
00000050: ede2 063e a8c7 cd3e 2e75 f83b 0374 aa3e
00000060: 9409 463f f9bb 553f d616 41bf e8a8 edbc
00000070: c057 c0be 3d86 5e3f 8066 f93e a634 afbe
00000080: 0933 d03e 4e8c 9b3e f721 50bf 1018 af3c
00000090: 46d6 a53d c72e 70bd 048f 4cbf 8b0b f83e
000000a0: 5dbb b63d d911 17bf edb7 433e 902c a23c
000000b0: 618a bf3e 0e19 eabd 02b3 a53e 4c58 e03e
000000c0: b3ab 5a3f 3067 843f 5b47 9c3e c805 c3be
000000d0: 6d12 66bf ad87 433f b72c cc3e e0b2 3bbd
000000e0: b916 a03f e77d 753e fdc7 123e 9c68 57be
000000f0: 942e 96be 9ad4 343d 6739 0ebe f6c9 fd3e
00000100: a89f 58bf 5251 64bd 0693 563b 66a5 f43e
00000110: 3f56 0b3f 7d14 73bf 8813 f6be 7a9b 1b3f
00000120: 2fc4 f1be db1f 7f3e 5461 5d3c d928 8c3e
00000130: 20f1 c0be 4cf4 003f 97eb 8cbf d2d2 5b3d
00000140: 5fce 06bf 2c9c c6be 45d8 93bc 82ff bf3b
00000150: 2ceb f63a 794c 6a3d e697 1dbf 8668 fbbb
00000160: 9a07 9fbc 512f 26bf 6bdc 7a3d 17cf eb3c
00000170: a5d4 9cbd b53a 0dc0 f2d2 833f 274b 293f
00000180: c05e a13f 56e4 b7bc b08b 783e 7950 20bf
00000190: bbf8 18bf 986c 12bd 9d3c 903f 03f9 ad3c
000001a0: 540e 213f 0de8 b23d 8e19 d7bc 282b 20bc
000001b0: f3aa 233f 1dcb 00be 23d6 d5be 0089 1cbd
000001c0: ea27 cdbf f0e2 fc3d fefa 9f3e 5096 fa3e
000001d0: be0b 8d3c 9a82 103f e5d5 77bd 4d31 ce3e
000001e0: 2a00 54bf 26ba d43e 1b4d 8ebe d1c6 ba3e
000001f0: edf3 e13c 08e8 78be 54e4 893c 3b98 01be

weight f4 [128, 128]
-1.2080909 -0.86698717 1.6230361 -5.463371 0.14629793 -0.3021609 -1.1714991 0.13056917
0.50571275 0.008171034 0.020606123 -0.52774704 -0.26454026 -0.11049413 0.060479697 1.122731
-0.08915012 -0.48563457 -1.2397691 -0.29683286 0.42680475 -0.058960292 3.2382257 -0.018446218
0.32680005 -0.035595275 0.40380552 0.18971623 0.5006763 0.18937854 -0.43740603 0.27716455
-0.35781455 -0.41492322 0.19134645 2.5340075 -0.106938794 -0.2922046 -0.16904885 0.5155972
-0.44704118 -0.55050075 -0.17029105 -0.38320065 0.46727872 0.6075491 0.11673425 0.16757104
0.15170595 -0.13847168 -0.343971 -0.6903647 -0.22889763 0.060462892 0.43259534 0.28153926
-0.021292076 0.12275136 -0.33866403 -0.5562452 0.4929058 2.014246 -0.21417998 0.025992017
0.14943302 0.10001086 0.9971678 -0.14441162 0.47558534 0.22731195 0.091337405 -0.12846445
-0.06410521 0.2750619 -0.45599154 -0.53772855 -0.16765197 0.25889882 0.31913647 -0.44819847
0.28928944 0.5598611 8.802002 1.5686365 2.7757819 -0.58667195 0.29450202 0.35433137
0.091847524 0.11386226 -0.50418323 -0.6248034 -0.9633969 0.021484993 0.59139854 0.15672643
0.25593325 0.96311164 -0.48031121 -0.048442066 0.4634714 -1.0671407 -0.031160833 -0.027364274
-0.12798092 1.5552717 -0.48596287 0.61391413 0.15344597 1.9021571 -0.014933144 1.0883815
-0.41955587 -0.5267173 0.47700417 -0.2313571 -2.565123 -0.19402024 -0.08055208 0.08243915
-0.7027627 0.17539616 0.03395503 -0.5735469 1.2410729 -0.058281038 0.9068532 0.24603371
-0.20135878 -0.13751349 0.39148006 -0.77768683 -0.26815632 0.08120986 -0.3656194 -0.015572096
-1.0516552 0.031241193 -0.36642635 0.15916516 0.1993122 -0.605119 0.55455005 0.44024223
-0.16879128 0.6410296 -0.04225104 -0.026833165 -0.27893654 -0.09700291 -0.09176942 -0.27798083
0.027090179 -0.26493904 -0.071753226 0.39065057 -0.043059405 -0.030104076 0.04805521 0.12401846
-0.4734605 0.19312443 0.032807726 -0.38247314 -0.41213658 -0.07703805 0.3090433 0.07328495
-0.39953232 0.1118094 -0.29615057 0.07300942 0.45475987 0.121974185 -0.26968342 -0.25158992
-0.06358526 -0.1542845 -0.28807625 -0.07049479 0.09734728 -0.3327298 -0.22689052 -0.17479858
-0.023605742 -0.29070026 -0.031209527 -0.4349718 -0.053198155 0.12518932 -0.3566573 0.08149491
0.11728391 0.050746717 -0.038158182 -0.5512171 -0.14944546 -0.26478392 0.22637054 0.12444483
0.6293424 -0.022976115 0.35757935 0.013196119 0.23208542 -0.2895052 0.6157727 0.12714827
0.109801345 -0.11158478 0.36658543 0.007274892 -1.0798107 0.14160468 -0.04366008 0.124593146
0.010900078 0.6733691 0.3860078 0.25101367 -0.1370182 0.08622785 -0.026688952 -0.09899899
-0.37548298 1.0036834 -0.10892666 -0.35425884 0.15884276 0.33877838 -0.7235883 -0.107389055
-0.73979723 0.84413236 0.001184149 0.26258463 -0.21920742 -0.009536014 0.5421935 0.49978846
0.13923638 -0.22465687 -0.12470561 -0.54772365 -0.7596223 -0.43000758 0.09695247 -0.0032180622
0.064309016 -0.39926055 -0.12796111 -0.035085615 0.024508098 -0.41335014 0.24908821 0.4797973
00000000: b9a2 9abf dff2 5dbf a6bf cf3f efd3 aec0
00000010: 20cf 153e d5b4 9abe aff3 95bf edb3 053e
00000020: 6476 013f cddf 053c 2cce a83c 6e1a 07bf
00000030: d271 87be bf4a e2bd 8fb9 773d a6b5 8f3f
00000040: 5794 b6bd 18a5 f8be c1b0 9ebf 7afa 97be
00000050: 2786 da3e 5980 71bd 173f 4f40 861c 97bc
00000060: 5652 a73e 5acc 11bd 99bf ce3e f944 423e
00000070: 522c 003f 73ec 413e aff3 dfbe 83e8 8d3e
00000080: 7833 b7be d170 d4be 53f0 433e 2e2d 2240
00000090: ba02 dbbd d79b 95be 241b 2dbe 2efe 033f
000000a0: 95e2 e4be 9eed 0cbf c760 2ebe e032 c4be
000000b0: 283f ef3e 5688 1b3f 5e12 ef3d be97 2b3e
000000c0: ce58 1b3e 85cb 0dbe f81c b0be bebb 30bf
000000d0: 2464 6abe f0a7 773d 237d dd3e ea25 903e
000000e0: b86c aebc 1165 fb3d 5f65 adbe 1666 0ebf
000000f0: 265e fc3e 68e9 0040 ff51 5bbe 36ed d43c
00000100: f804 193e 7ed2 cc3d 6446 7f3f a4e0 13be
00000110: ec7f f33e 77c4 683e 1b0f bb3d 2f8c 03be
00000120: 9849 83bd ead4 8c3e b977 e9be 94a8 09bf
00000130: f5ac 2bbe 638e 843e db65 a33e 457a e5be
00000140: bf1d 943e 0f53 0f3f 00d5 0c41 15c9 c83f
00000150: 69a6 3140 2230 16bf f8c8 963e ec6a b53e
00000160: 8e1a bc3d 9e30 e93d 2712 01bf 1ef3 1fbf
00000170: 2ea1 76bf 4c01 b03c e565 173f e57c 203e
00000180: af09 833e 7c8e 763f 5aeb f5be 306b 46bd
00000190: 204c ed3e 1198 88bf 0145 ffbc 0b2b e0bc
000001a0: 6e0d 03be 2513 c73f 20d0 f8be 7a29 1d3f
000001b0: f120 1d3e e279 f33f 25aa 74bc 1650 8b3f
000001c0: 07d0 d6be f2d6 06bf e439 f43e e0e8 6cbe
000001d0: fa2a 24c0 3ead 46be 7df8 a4bd dbd5 a83d
000001e0: 42e8 33bf 0d9b 333e 6e14 0b3d f8d3 12bf
000001f0: 7adb 9e3f 19b8 6ebd 8827 683f 43f0 7b3e
00000200: ff30 4ebe 56d0 0cbe 1370 c83e 7c16 47bf
00000210: c94b 89be 5b51 a63d 7732 bbbe 1b22 7fbc
00000220: a39c 86bf 88ed ff3c 3c9c bbbe 31fc 223e
00000230: 7f18 4c3e 14e9 1abf fef6 0d3f 6e67 e13e
00000240: 9fd7 2cbe 841a 243f 6d0f 2dbd 3ad1 dbbc
00000250: c5d0 8ebe 76a9 c6bd 9bf1 bbbd 8153 8ebe
00000260: 39ec dd3c 17a6 87be 5bf3 92bd 5a03 c83e
00000270: 0f5f 30bd d39c f6bc 8ad5 443d 64fd fd3d
00000280: 6a69 f2be 69c2 453e 6561 063d 85d3 c3be
00000290: 9103 d3be 20c6 9dbd ec3a 9e3e 6b16 963d
000002a0: 808f ccbe 54fc e43d 0ca1 97be f685 953d
000002b0: 49d6 e83e 9acd f93d f213 8abe 65d0 80be
000002c0: fd38 82bd c2fc 1dbe bb7e 93be 935f 90bd
000002d0: 035e c73d 8f5b aabe fd55 68be 66fe 32be
000002e0: d460 c1bc aad6 94be 1fab ffbc a0b4 debe
000002f0: 4fe6 59bd a131 003e c99b b6be cee6 a63d
00000300: 8c32 f03d cadb 4f3d c14b 1cbd 901c 0dbf
00000310: 3b08 19be c291 87be aecd 673e eedc fe3d
00000320: 951c 213f 6838 bcbc a414 b73e 8934 583c
00000330: cda7 6d3e 073a 94be 48a3 1d3f 2833 023e
00000340: 87df e03d 9086 e4bd 16b1 bb3e 3862 ee3b
00000350: 3d37 8abf d100 113e e9d4 32bd b12a ff3d
00000360: 3e96 323c eb61 2c3f d0a2 c53e dd84 803e
00000370: 804e 0cbe 3a98 b03d caa2 dabc fcbf cabd
00000380: 4e3f c0be b378 803f f114 dfbd 6a61 b5be
00000390: ada7 223e 5c74 ad3e 153d 39bf cbee dbbd
000003a0: 5a63 3dbf 0f19 583f 7235 9b3a 7e71 863e
000003b0: e977 60be f13c 1cbc 31cd 0a3f 46e4 ff3e
000003c0: fb93 0e3e 730c 66be a865 ffbd 9e37 0cbf
000003d0: 9b76 42bf f429 dcbe 048f c63d 20e6 52bb
000003e0: 72b4 833d e16b ccbe 3d08 03be efb5 0fbd
000003f0: 35c5 c83c a1a2 d3be fb10 7f3e fea7 f53e

bias f4 [128]
-0.03489384 -0.28336936 0.5130433 0.35654607 0.3133646 0.35486028 0.28541866 0.088439554
-0.08010608 -0.34664962 -0.025192901 0.28321576 0.036345556 0.1578507 -0.12587072 0.31779674
0.16291131 0.3704594 0.17621063 -0.57670283 0.22029851 -0.3636421 0.5446569 0.24116153
-0.15339227 0.2295022 0.3010584 -0.019080788 0.24292502 0.17178243 -0.5679876 -0.17828178
-0.19491261 -0.122297 -0.30336905 0.37311283 0.46340021 -0.39400095 0.12744243 -0.27974194
0.25908437 -0.20495082 -0.09256832 -0.2530693 -0.011256799 -0.035337403 -0.20441316 0.14756444
-0.15579924 0.24446984 0.091325544 0.44339707 -0.32005095 0.45666143 -0.28152406 0.25584924
0.27462235 0.21181391 -0.26790932 -0.34795454 0.0010189116 -0.34673506 0.3223078 0.3380512
-0.018186951 0.4853667 0.32133377 -0.2124014 -0.28518587 0.36388442 0.1822997 0.3812051
0.2208329 -0.32008877 0.29191387 0.24202329 0.3225132 0.21979226 -0.23433073 0.096733324
-0.33275554 0.2970118 -0.3214754 -0.29282123 0.22569802 -0.30688632 -0.019454857 -0.32446623
0.21807876 0.29119578 -0.1865247 -0.44587564 0.27157527 0.13824457 -0.2598784 -0.31812543
-0.044043943 -0.27233237 0.25499588 -0.36698174 0.29102632 -0.27084166 0.20028712 -0.26573816
-0.16932733 0.15297556 0.24221773 -0.757736 -0.3152825 0.058109373 0.30723715 0.16877204
0.25245824 0.27537408 -0.30392227 0.28297642 -0.22017533 -0.44240937 -0.27502513 0.19899794
-0.38302422 -0.026677238 -0.1845704 0.10353928 -0.38311243 -0.38391685 0.14901885 0.27651784
00000000: d8ec 0ebd ca15 91be ce56 033f 358d b63e
00000010: 5371 a03e 3fb0 b53e 6522 923e cc1f b53d
00000020: a80e a4bd 0f7c b1be 5861 cebc a801 913e
00000030: 14df 143d 9da3 213e 41e4 00be 41b6 a23e
00000040: 39d2 263e dbac bd3e 8f70 343e cca2 13bf
00000050: ef95 613e 4c2f babe a26e 0b3f 0cf3 763e
00000060: dd12 1dbe a002 6b3e 5424 9a3e 504f 9cbc
00000070: 56c1 783e bce7 2f3e a367 11bf 808f 36be
00000080: 2c97 47be d976 fabd 3053 9bbe a508 bf3e
00000090: cb42 ed3e 7eba c9be 4580 023e 563a 8fbe
000000a0: b5a6 843e a1de 51be 7694 bdbd 4d92 81be
000000b0: 706e 38bc f4bd 10bd af51 51be 221b 173e
000000c0: d689 1fbe 4d56 7a3e e308 bb3d f104 e33e
000000d0: b8dd a3be 87cf e93e ec23 90be acfe 823e
000000e0: 4d9b 8c3e bfe5 583e 692b 89be 1927 b2be
000000f0: 008d 853a 4287 b1be 8705 a53e 0c15 ad3e
00000100: cdfc 94bc fc81 f83e dc85 a43e c17f 59be
00000110: e203 92be 0f4f ba3e c6ac 3a3e 512d c33e
00000120: 0522 623e ade2 a3be bc75 953e f4d4 773e
00000130: 7320 a53e 3911 613e 65f4 6fbe 1f1c c63d
00000140: ef5e aabe ee11 983e 6c98 a4be aaec 95be
00000150: 621d 673e 3420 9dbe cb5f 9fbc 7020 a6be
00000160: 0a50 5f3e 9d17 953e 5500 3fbe d049 e4be
00000170: ea0b 8b3e fc8f 0d3e c80e 85be 56e1 a2be
00000180: 6c67 34bd 266f 8bbe d28e 823e 08e5 bbbe
00000190: 6701 953e c2ab 8abe 1118 4d3e d50e 88be
000001a0: 2564 2dbe a0a5 1c3e ed07 783e fdfa 41bf
000001b0: b56c a1be 1804 6e3d 304e 9d3e 94d2 2c3e
000001c0: 3542 813e d5fd 8c3e b39b 9bbe 49e2 903e
000001d0: a475 61be 7b83 e2be 18d0 8cbe 1ec6 4b3e
000001e0: c01b c4be 398a dabc 0600 3dbe 670c d43d
000001f0: 5027 c4be c090 c4be 6698 183e bf93 8d3e

weight f4 [128, 128]
0.19129343 -0.26125288 0.39775896 0.35197476 0.7064583 0.8565584 0.8896292 2.5976605
-1.7389491 0.08509459 0.15737481 0.7439909 0.66013455 0.34890133 0.8833211 3.2279384
-1.1088911 0.4383152 1.3686974 0.80490524 0.9701436 0.52535856 -0.7085369 -0.9439877
0.44555375 0.15927327 0.7671252 0.98989445 -0.5614304 0.24501792 3.6741161 0.607413
0.4148727 -1.2630264 0.12681587 0.86534095 0.31572142 -0.5257054 0.06929356 -0.2856397
0.92053264 -0.7256489 0.95818824 0.74752593 2.0034654 -0.45355758 -0.16025724 -2.9695024
1.415052 -0.6227268 -0.07280053 0.44179517 -0.27257314 -0.16343966 -0.14163585 0.07669881
-1.0833472 0.20967293 -0.6801178 0.029330498 0.046298914 -0.12307244 -0.5482603 1.2404191
1.0504651 3.411858 0.30787417 -0.20792226 1.1783836 0.25701705 1.183166 -1.5219185
-0.34861436 0.45945793 0.065946184 0.04781837 0.25922436 -0.5652544 0.03213205 -2.5837529
0.053960647 0.22085327 -0.31109536 -0.7702091 -0.06402087 -0.054437708 -1.3649759 0.39138538
0.22570105 0.011334319 0.09403463 1.7820289 0.49535614 -0.10240632 0.67289317 0.10166898
-0.79204744 -0.4774235 0.3596813 0.01688252 0.21389489 0.45438984 0.27972114 -0.4207633
0.30380508 -1.1632813 0.30237168 -0.25126484 -0.05762879 3.0172088 -0.92799735 0.1275244
-0.8688073 0.52293974 -0.11641477 0.4156438 1.6952641 -0.81626225 -0.106774345 -0.1048533
-0.23300365 0.45504755 0.91857743 0.53987473 -0.6745919 -0.16781533 -0.23668446 -0.14931816
1.8499264 -0.32735962 0.37555936 0.35852173 0.2086278 -0.013335022 0.18845008 0.29996532
-2.6060371 0.48060843 0.7086796 0.1533206 -0.1774605 -0.16422227 -0.80281377 0.43682584
-1.0433915 0.12059865 -0.4906473 -0.62740517 -0.22877006 -0.29081246 0.2664315 0.021353923
-0.0039685722 -0.1553812 0.29346058 -0.8452507 0.026101857 -0.30002758 0.1246024 -0.05305936
-0.016035166 0.8216651 -0.4519777 0.23162921 0.14393218 -0.24467066 -0.6584462 0.6627309
0.4903545 -0.3051171 -0.19375214 0.13348252 -0.41984993 -0.11748944 -0.46326846 0.42985463
-0.67874223 0.08724391 -0.3072357 0.325278 0.074295074 -0.47840494 -0.27162132 0.2865877
1.1917613 0.31274286 0.16615795 0.8143574 0.2075143 -0.6725301 0.14640063 0.108589314
-0.16305214 0.03231731 0.7474767 0.41286182 0.18313797 1.0664794 -0.13041171 -0.57064545
-0.52779716 -0.27240697 0.25377503 0.3011649 0.29494646 0.06706684 0.29987463 3.285315
-0.37682897 0.16450202 -0.02511387 0.30178648 -0.35056424 -0.3046386 -0.9683305 -0.138218
-0.1740082 -1.0874748 0.015392975 -1.1004589 0.24801701 -0.3127106 0.6633833 0.068338685
0.61649895 -0.17490308 -0.97616494 -0.03506467 0.48088148 0.071698636 -0.15527357 0.13766293
-0.29358202 1.0720454 -0.07126172 -0.061868105 -0.14289206 -0.09755162 0.07287565 -0.07301495
-0.5148286 0.23103276 -0.19227101 0.18415888 0.27960137 -0.01373841 -0.3051554 -1.5319498
-0.3142056 -0.23693104 0.5159494 0.27935818 0.10503709 -0.60686624 0.0325387 -0.21174468
00000000: 6de2 433e f0c2 85be 10a7 cb3e 0936 b43e
00000010: 73da 343f 6947 5b3f bdbe 633f 1240 2640
00000020: e295 debf 1346 ae3d dd26 213e 3076 3e3f
00000030: 94fe 283f 32a3 b23e 5521 623f 8b96 4e40
00000040: 25f0 8dbf da6a e03e 7a31 af3f 450e 4e3f
00000050: 555b 783f e67d 063f ad62 35bf 2ea9 71bf
00000060: 9f1f e43e 8818 233e 5162 443f b969 7d3f
00000070: e7b9 0fbf fae5 7a3e b824 6b40 6b7f 1b3f
00000080: 326a d43e d9aa a1bf 05dc 013e fc86 5d3f
00000090: 3da6 a13e a194 06bf c8e9 8d3d 5e3f 92be
000000a0: 07a8 6b3f 20c4 39bf d34b 753f dc5d 3f3f
000000b0: c738 0040 b338 e8be 791a 24be 540c 3ec0
000000c0: 6d20 b53f 066b 1fbf 7218 95bd fa32 e23e
000000d0: b58e 8bbe ba5c 27be fd08 11be 4414 9d3d
000000e0: 1fab 8abf 80b4 563e 331c 2ebf 8346 f03c
000000f0: eea3 3d3d 670d fcbd c95a 0cbf 0ec6 9e3f
00000100: a475 863f e25b 5a40 afa1 9d3e 93e9 54be
00000110: 46d5 963f bd97 833e fc71 973f 3ace c2bf
00000120: 957d b2be 123e eb3e cb0e 873d 32dd 433d
00000130: 0eb9 843e 83b4 10bf e59c 033d 355c 25c0
00000140: d705 5d3d 5c27 623e e447 9fbe 6c2c 45bf
00000150: 601d 83bd 13fa 5ebd 88b7 aebf aa63 c83e
00000160: 2d1e 673e 94b3 393c 3a95 c03d 8619 e43f
00000170: 529f fd3e 68ba d1bd ba42 2c3f d437 d03d
00000180: 9fc3 4abf da70 f4be 2628 b83e 364d 8a3c
00000190: 4307 5b3e c9a5 e83e 9c37 8f3e 4a6e d7be
000001a0: 578c 9b3e 67e6 94bf 76d0 9a3e c9a5 80be
000001b0: 2b0c 6cbd f319 4140 3c91 6dbf c295 023e
000001c0: 286a 5ebf 61df 053f de6a eebd 44cf d43e
000001d0: 6afe d83f 90f6 50bf 82ac dabd 54bd d6bd
000001e0: 8298 6ebe fefb e83e e427 6b3f 3b35 0a3f
000001f0: 0eb2 2cbf c8d7 2bbe 695d 72be dce6 18be
00000200: 63ca ec3f ae9b a7be 5149 c03e 2990 b73e
00000210: 87a2 553e 237b 5abc 0ff9 403e 0e95 993e
00000220: 50c9 26c0 4f12 f63e 076c 353f 1300 1d3e
00000230: 35b8 35be e229 28be 3485 4dbf a3a7 df3e
00000240: da8d 85bf 6dfc f63d 1f36 fbbe a09d 20bf
00000250: b342 6abe 5fe5 94be b669 883e 6cee ae3c
00000260: cc0a 82bb 401c 1fbe 7740 963e 5a62 58bf
00000270: 90d3 d53c 379d 99be 8b2f ff3d c554 59bd
00000280: 2e5c 83bc a558 523f 9f69 e7be 3530 6d3e
00000290: f562 133e f28a 7abe ee8f 28bf bba8 293f
000002a0: bf0f fb3e 4f38 9cbe f666 46be a4af 083e
000002b0: 92f6 d6be 4e9e f0bd 8631 edbe e815 dc3e
000002c0: 0dc2 2dbf efac b23d ff4d 9dbe d78a a63e
000002d0: 0428 983d 7ef1 f4be f311 8bbe 9fbb 923e
000002e0: a28b 983f d51f a03e 4f25 2a3e ba79 503f
000002f0: a17e 543e ef2a 2cbf 0cea 153e 1364 de3d
00000300: 24f7 26be 285f 043d a25a 3f3f a062 d33e
00000310: 8588 3b3e 6682 883f a68a 05be d215 12bf
00000320: b71d 07bf ed78 8bbe cdee 813e 4932 9a3e
00000330: 3903 973e 575a 893d 2b89 993e 9a42 5240
00000340: baef c0be 3873 283e 9abb cdbc c283 9a3e
00000350: 287d b3be 97f9 9bbe 82e4 77bf 0589 0dbe
00000360: 352f 32be 6032 8bbf d132 7c3c d6db 8cbf
00000370: 2cf8 7d3e 9b1b a0be 7dd3 293f 27f5 8b3d
00000380: e0d2 1d3f cb19 33be f2e5 79bf f99f 0fbd
00000390: 1936 f63e bcd6 923d 0900 1fbe 83f7 0c3e
000003a0: 6250 96be c938 893f aaf1 91bd 6969 7dbd
000003b0: 4c52 12be 25c9 c7bd d43f 953d dd88 95bd
000003c0: cfcb 03bf da93 6c3e b1e2 44be 2594 3c3e
000003d0: e927 8f3e 1117 61bc 543d 9cbe ee16 c4bf
000003e0: 8edf a0be 0d9e 72be 4315 043f 0908 8f3e
000003f0: b01d d73d 965b 1bbf 4d47 053d 99d3 58be

bias f4 [128]
0.55180126 0.3670732 -0.16110751 -0.092003405 -0.36917135 0.5733327 0.20338939 0.41228497
0.2063394 0.2235693 0.22793263 -0.14258255 -0.15968694 0.28703168 0.14611115 0.21270134
0.1982366 0.2687011 -0.35495326 0.22183499 0.19210795 -0.20134734 0.4264891 0.1305769
-0.13473266 0.1556235 -0.5202759 0.037590433 0.20497356 -0.24681087 -0.22870909 -0.23397663
0.041636646 -0.28263327 -0.3217619 -0.40653002 -0.187905 0.26956964 -0.1519415 -0.18777257
0.15609443 -0.02927816 -0.22046284 0.293052 0.2976946 0.28408188 0.27136046 -0.3258975
0.37487683 -0.0127054 0.35870507 0.08806204 -0.12202142 -0.20643204 0.29212332 -0.44737044
-0.20088947 0.19822389 -0.004369311 0.3093972 0.070913315 -0.1637764 -0.40137988 0.11988243
-0.62774897 0.32591268 0.4149665 -0.286046 0.26779196 0.17424095 0.28867477 0.07480974
0.23962866 -0.014659893 0.07364195 -0.41963375 0.33822688 0.067758195 0.2724826 0.11995246
0.25680268 -0.012842816 -0.33648688 -0.2502788 0.24802944 -0.3494315 -0.34481287 -0.19818436
-0.22998676 -0.14334296 0.15453243 -0.20258869 0.12735078 0.38172078 0.2484958 -0.36055475
0.57410645 -0.14941041 -0.2592801 0.1361229 0.12795937 -0.14267954 0.11825521 0.22613215
-0.36489815 0.18512385 0.09812894 -0.21821427 -0.2797467 0.19620708 0.14142942 0.47456378
0.23551849 -0.17200367 0.06461982 -0.26786143 -0.009155447 -0.23890083 -0.12820204 0.21435188
-0.08739196 0.14981206 0.52975017 -0.37951913 -0.0015373137 -0.3046515 -0.301001 0.29566595
00000000: d942 0d3f 05f1 bb3e 5ef9 24be 486c bcbd
00000010: 0704 bdbe efc5 123f 4f45 503e 0417 d33e
00000020: a34a 533e 5aef 643e 2c67 693e 2901 12be
00000030: f984 23be d1f5 923e 299e 153e 61ce 593e
00000040: 89fe 4a3e 3193 893e 6fbc b5be b628 633e
00000050: f2b7 443e ff2d 4ebe c85c da3e f3b5 053e
00000060: 5cf7 09be c45b 1f3e cd30 05bf 6df8 193d
00000070: 97e4 513e fdbb 7cbe b732 6abe 9297 6fbe
00000080: 308b 2a3d 4fb5 90be fabd a4be b424 d0be
00000090: 2b6a 40be 0805 8a3e 8d96 1bbe 7447 40be
000000a0: 38d7 1f3e c0d8 efbc 03c1 61be e90a 963e
000000b0: 6d6b 983e 2e73 913e c2ef 8a3e 0adc a6be
000000c0: dbef bf3e 4f2a 50bc 31a8 b73e df59 b43d
000000d0: 5ee6 f9bd ec62 53be 3091 953e bd0d e5be
000000e0: f8b5 4dbe 34fb 4a3e 702c 8fbb 4f69 9e3e
000000f0: 003b 913d 00b5 27be aa81 cdbe eb84 f53d
00000100: 28b4 20bf 07de a63e 7d76 d43e 9f74 92be
00000110: 071c 893e 386c 323e 2ecd 933e d935 993d
00000120: 3761 753e 0c30 70bc 97d1 963d 3cda d6be
00000130: 132c ad3e cfc4 8a3d d782 8b3e a3a9 f53d
00000140: a47b 833e ad6a 52bc 0248 acbe 8b24 80be
00000150: 6efb 7d3e b0e8 b2be 508b b0be d7f0 4abe
00000160: a681 6bbe 7fc8 12be c03d 1e3e 6973 4fbe
00000170: 3e68 023e e870 c33e af75 7e3e a29a b8be
00000180: a4f8 123f 0bff 18be 5cc0 84be cd63 0b3e
00000190: c807 033e 961a 12be ca2f f23d 308f 673e
000001a0: eed3 babe 1b91 3d3e d3f7 c83d 9073 5fbe
000001b0: f63a 8fbe 82ea 483e e0d2 103e 06fa f23e
000001c0: c22b 713e bb21 30be 6557 843d 2225 89be
000001d0: ba00 16bc 6ba2 74be 6547 03be 0f7f 5b3e
000001e0: 8efa b2bd 5568 193e b59d 073f 5550 c2be
000001f0: b07f c9ba 48fb 9bbe ce1c 9abe 8761 973e

weight f4 [1, 128]
0.35544634 -0.9099802 0.2462997 -1.4975924 -0.82556665 0.47736073 -0.20072073 -0.6467367
1.0755221 1.6451131 0.59551716 0.23161177 1.0058461 0.47811583 0.23782799 -0.9497471
-0.57005626 -0.8417056 0.63519806 0.45673692 1.5427169 0.48847148 0.3550184 0.3441509
-0.41599226 -0.3046018 1.2340564 -0.9277667 -0.43564117 -0.3269624 0.3115485 0.3447204
0.4398829 -0.22574435 -0.7080955 0.8122668 0.57215697 0.34877864 2.6514354 0.52234995
-2.599569 0.25541252 0.22472224 0.627314 0.33631304 0.6484747 -0.60785526 0.85763425
0.5348121 -3.2065377 -1.2245271 0.22308972 0.7797305 0.67060035 -0.32842165 -0.5646461
0.31130788 -0.38896978 0.21036471 -0.5569416 0.30602464 -0.28834558 0.7597063 -2.4154592
0.8259208 -0.44937792 -0.45409504 -0.70897084 -1.2774707 -0.42558646 -0.34456137 0.25850683
-1.9131228 -3.129516 -1.016245 1.2536807 -1.1259241 0.6036451 -0.7298324 -0.91546047
2.771485 0.86791027 0.31093004 -1.0599595 0.63719404 -0.38282177 -0.67161655 1.316966
-0.6516137 -0.29885334 -1.1730679 -0.5845296 -0.4399427 0.7379236 -0.8337001 0.4405373
0.45439845 -0.22742839 0.7881807 -0.7596792 0.2678811 -0.7907293 2.0983949 -0.6492651
0.7973496 -0.37965962 0.69622445 3.4292207 -0.5338709 0.5616111 1.5625545 -0.38738415
-0.35063523 0.49132597 -0.3799184 0.6636341 -0.35258606 0.5123714 -0.30793357 -0.44157493
0.74075896 -0.46328026 0.4748654 0.2707464 2.418509 -0.40514463 -0.37123743 0.44149467
00000000: 10fd b53e 76f4 68bf fd35 7c3e 1cb1 bfbf
00000010: 5658 53bf a068 f43e bc89 4dbe 8990 25bf
00000020: b5aa 893f 1193 d23f d073 183f a32b 6d3e
00000030: 91bf 803f 99cb f43e 2e89 733e a022 73bf
00000040: 35ef 11bf 057a 57bf 579c 223f 6cd9 e93e
00000050: bf77 c53f ef18 fa3e f9c4 b53e 8c34 b03e
00000060: f0fc d4be c4f4 9bbe 8ff5 9d3f 1e82 6dbf
00000070: 5c0c dfbe 9e67 a7be 4983 9f3e 317f b03e
00000080: 5538 e13e 8729 67be bf45 35bf b8f0 4f3f
00000090: e178 123f 1d93 b23e 1eb1 2940 bab8 053f
000000a0: 575f 26c0 6ec5 823e 961d 663e a697 203f
000000b0: 3931 ac3e 7002 263f 679c 1bbf eb8d 5b3f
000000c0: 72e9 083f ea37 4dc0 4ebd 9cbf a271 643e
000000d0: 6b9c 473f 77ac 2b3f e226 a8be a68c 10bf
000000e0: bf63 9f3e 0c27 c7be d969 573e ba93 0ebf
000000f0: 43af 9c3e 08a2 93be 1d7c 423f e296 1ac0
00000100: 8c6f 533f dd14 e6be 257f e8be 1d7f 35bf
00000110: 2984 a3bf 78e6 d9be 596a b0be 025b 843e
00000120: 35e1 f4bf fd49 48c0 5114 82bf 9c78 a03f
00000130: 481e 90bf 7c88 1a3f 4cd6 3abf 9e5b 6abf
00000140: 0360 3140 5e2f 5e3f 3932 9f3e c1ac 87bf
00000150: 261f 233f 3701 c4be 10ef 2bbf 5892 a83f
00000160: 28d0 26bf 4e03 99be 1727 96bf bba3 15bf
00000170: 2b40 e1be 90e8 3c3f 5f6d 55bf 1b8e e13e
00000180: eaa6 e83e fde2 68be 36c6 493f 567a 42bf
00000190: b627 893e 3c6d 4abf 1a4c 0640 3d36 26bf
000001a0: 1a1f 4c3f bf62 c2be c43b 323f 5a78 5b40
000001b0: c3ab 08bf bfc5 0f3f c901 c83f 3757 c6be
000001c0: 7686 b3be 148f fb3e aa84 c2be ede3 293f
000001d0: 2986 b4be c62a 033f 78a9 9dbe 1c16 e2be
000001e0: 61a2 3d3f 1233 edbe 8f21 f33e 469f 8a3e
000001f0: dac8 1a40 1e6f cfbe d512 bebe 970b e23e
