robot_rcs_models/actuators/mlp_jit_601750_8_50000.pt (torch, 153003 bytes, 7 tensors)

weight f4 [128, 16]
000000 41 8f a3 3c b9 8b 04 3d 2f f2 b0 be 1a f6 28 bd
       0.01996577 0.032359812 -0.3455977 -0.041250326
000010 cd 62 d1 be 88 25 2d be 5f e4 6f be 7c 88 1f be
       -0.40895692 -0.16908848 -0.2342696 -0.15579408
000020 9b 6b e3 3e cf 13 89 3e 07 bd e1 bd b4 c2 84 3e
       0.44418034 0.26772925 -0.11022382 0.25929797
000030 b9 a7 7c 3e bd ed 00 3e f0 94 a7 be de 53 69 bd
       0.24673356 0.1259069 -0.32730818 -0.056964748
000040 71 ec 35 3e a4 db c1 3d c3 33 ca 3e 85 88 98 bd
       0.17765976 0.09465721 0.39492616 -0.07447914
000050 f3 ca 5d 3e 83 7e 1f 3e 19 64 16 be 59 f8 4f bd
       0.2165945 0.15575604 -0.14686622 -0.050773952
000060 64 da 50 be 1e 9a 90 bd 71 09 93 3d 8d ae 62 be
       -0.2039581 -0.070606455 0.07179535 -0.22136898
000070 ee c6 93 bd c2 7f 67 3d 24 42 06 3e fb 93 93 3e
       -0.07215677 0.056518324 0.13111168 0.28823838
000080 fd 7e 17 40 2f 00 ba 3f 7b 3d 87 3f c2 df 5e bf
       2.3671257 1.4531306 1.0565637 -0.8706018
000090 e5 05 e8 be d2 cd 9a bf 92 76 ee bf fb 33 f3 bf
       -0.45316997 -1.2094061 -1.8629935 -1.9000238
0000a0 19 7a 30 c1 aa 49 34 c1 6f df 38 c1 c8 89 3f c1
       -11.029809 -11.267984 -11.554549 -11.971138
0000b0 7d 9c 47 c1 f1 7b 55 c1 92 17 66 c1 17 b8 56 c1
       -12.475705 -13.342759 -14.380754 -13.419944
0000c0 b9 43 d2 bd 7e 15 c1 3b 90 da 1b 3e 15 58 3a bd
       -0.10266823 0.0058924546 0.15220094 -0.045494158
0000d0 35 11 b2 3d 2e 98 64 3d 7b b3 dd bd 94 c8 6b be
       0.08694688 0.055809192 -0.10825249 -0.23025733
0000e0 f1 20 d2 bc e1 e3 d7 bd 8b b0 d6 bd ee 4a 2b 3e
       -0.025650473 -0.10541511 -0.10482892 0.16727802
0000f0 b2 ba 8d be 9c 1c a9 bd ea 64 02 bb 20 28 b0 bc
       -0.276815 -0.0825741 -0.0019896575 -0.021503508
000100 bf 3d 6d 3d b7 ee b6 3e 53 b1 ae 3e 3a 9d 97 bb
       0.057920214 0.35729 0.34119663 -0.004626897
000110 de 5e e1 3c 28 16 b3 be 0b 08 34 be e8 12 8b be
       0.027511057 -0.3497784 -0.17581193 -0.27162862
000120 d7 eb 1c 3e 44 00 e8 bc b0 2f a0 3d 41 7a c8 3a
       0.15324341 -0.02832044 0.07821596 0.0015295224
000130 e2 63 ee bd 82 80 01 be 5f 2e 33 be 33 58 e8 bd
       -0.11640145 -0.12646678 -0.17498158 -0.11344948
000140 d6 db 9e 3c 5c 40 ab be d9 be ac be ba 23 86 be
       0.019391935 -0.3344754 -0.33739355 -0.26199132
000150 d5 72 fe 3d 61 7f e4 3c 4c d0 95 3e 85 76 56 3e
       0.12424246 0.02789277 0.2926048 0.20943649
000160 24 9a 32 be a2 e1 f6 bd 06 95 ab 3b bc ae ec 3d
       -0.17441612 -0.12054755 0.005236271 0.115567654
000170 da 7b 56 3e 86 b0 a6 3d 64 44 53 3e 7d 97 c0 3d
       0.20945683 0.08139138 0.20631558 0.09403894
000180 84 3e 97 3f 1d d2 48 3f 91 d9 1e 3f 61 96 cd 3e
       1.1815953 0.7844561 0.6205073 0.40153793
000190 fb 64 66 3e 41 3e 9a be 62 82 7c be dc 3e 2f bf
       0.22499458 -0.3012562 -0.24659112 -0.6845529
0001a0 86 d7 6a 3c 4a 9a 9c 3e 73 88 2a 3e 46 ac 90 3d
       0.014333611 0.30586463 0.16653614 0.070641086
0001b0 cf 7c 85 3e 9a db 09 3c f1 27 9d bd 30 ea 92 bd
       0.26071784 0.0084141735 -0.07673634 -0.07173574
0001c0 86 6c 5f bd e0 45 b5 be 72 6a b8 be 39 d0 64 be
       -0.054546855 -0.35404873 -0.3601871 -0.22345056
0001d0 45 f1 19 bd 0b 7d 29 bd 3a 1e 0a 3e 46 a7 1a bc
       -0.03758361 -0.041379016 0.13488093 -0.009439295
0001e0 44 82 6b 3d a0 6e a6 3e b9 4f 07 3d 35 55 e8 3c
       0.057497278 0.32506275 0.033035014 0.028360942
0001f0 29 e5 c9 3d 4c 59 1d be 1f 71 9a bd 5e d0 8d be
       0.09858162 -0.15366095 -0.075411074 -0.27698034
000200 d9 2c c4 3e 7b 70 39 bd 44 1c ca 3d a1 fa e9 bd
       0.38315466 -0.045273285 0.098686725 -0.11424757
000210 31 35 1b be ed 30 26 bb 34 5c 3b be 5f db fc bc
       -0.1515701 -0.0025358752 -0.18296891 -0.030866323
000220 ef 78 87 3e d2 2e 25 3d 60 e1 18 be f3 af 83 bd
       0.26459453 0.040327854 -0.14929724 -0.06430044
000230 f6 a0 29 bd 11 94 86 3e 56 33 3f 3d 21 bd b6 bd
       -0.04141327 0.2628484 0.046679817 -0.08922792
000240 62 b5 c6 3e 8f 45 71 3e c2 3c 8e bd 75 fc 50 3e
       0.3881026 0.23561691 -0.069451824 0.20408805
000250 f1 d8 94 3e d7 4e 12 3e 64 09 90 3e ba 7f 77 3d
       0.29071763 0.14287888 0.28132164 0.060424544
000260 60 91 87 be a0 cd 83 be 15 5e 23 3e e8 84 8c 3d
       -0.264781 -0.25742817 0.15953858 0.06861287
000270 a1 fc 4d 3e ab ea 12 bd 17 d6 7e be a0 44 b7 3c
       0.20115902 -0.035868328 -0.24886356 0.02237159
000280 e5 a2 9a bd cb a1 d6 3c 57 41 b2 bd 8d 2a fe 3d
       -0.07550601 0.026200196 -0.08703869 0.1241046
000290 17 24 01 3d 81 da 58 be 39 fa e8 bd 81 da 2f be
       0.03152856 -0.21177103 -0.11375851 -0.17173196
0002a0 40 f0 11 be 86 07 2a bd ee fb c3 3d 0a ef 0a 3e
       -0.14251804 -0.04151108 0.09569536 0.13567749
0002b0 4a 61 27 3d d3 0f 22 3e 14 0a 17 bd fd 27 d6 3d
       0.040864266 0.15826349 -0.036874846 0.10456846
0002c0 6e 7a bc be 5d a7 2d bd ec 17 92 be 76 a9 32 3c
       -0.36812156 -0.04239594 -0.28533876 0.01090466
0002d0 c5 77 f6 bd 7a 77 20 3e 78 ca 84 3e 5e aa 82 3d
       -0.12034563 0.15670577 0.2593572 0.06380151
0002e0 82 b3 87 3e f5 d4 a4 bc d2 a7 6a 3d 4c 38 4a 3e
       0.2650414 -0.020121077 0.057288952 0.19748038
0002f0 6d f4 d5 3c 95 86 3b be 56 ab aa 3e 1a f3 da 3e
       0.026117528 -0.18313058 0.33333844 0.42763597
000300 87 6b 5b bf 07 08 10 bf d3 52 0b be 0f f4 8d be
       -0.8571095 -0.5626225 -0.13605814 -0.27725264
000310 06 99 0a 3e 80 a3 3f 3e 6f 8d 7a 3e 5b 3c c1 3e
       0.13534936 0.18714714 0.24468015 0.3774136
000320 46 49 64 be e2 c6 8d be d7 75 c9 3c cd 85 84 3d
       -0.22293577 -0.27690798 0.024592323 0.06470833
000330 7e b7 36 3e 2f 2c f7 ba 34 08 35 be e9 e9 3a bc
       0.17843434 -0.0018857772 -0.1767891 -0.011408308
000340 ed 13 7f bc 7a 04 3d bd 0b 27 af be bb df 97 be
       -0.0155687155 -0.046146847 -0.34209475 -0.2966288
000350 88 21 7c 3d 9d 69 7b bd 9b 13 1a be c0 54 eb 3d
       0.061555415 -0.061380018 -0.15046541 0.11490774
000360 11 c6 38 3c 61 b2 7a 3e fb c6 0c be 7a 95 55 3e
       0.011277691 0.24482109 -0.1374778 0.20857802
000370 41 e7 5c be 52 68 2b 3e 9f 85 93 3e a5 05 32 3e
       -0.21572591 0.16739014 0.28812882 0.17384966
000380 ae 22 8f be c4 c7 1e bb 4f a3 f1 bd 9e 56 90 be
       -0.27956146 -0.0024227956 -0.11798727 -0.28191084
000390 16 8b ed bd be dd eb bd 67 14 f3 be 46 62 95 be
       -0.11598794 -0.11516903 -0.47476503 -0.2917654
0003a0 e0 15 3c bc 10 18 17 3e af 06 f0 bc 12 65 80 3c
       -0.011479825 0.14755273 -0.029300062 0.015673194
0003b0 b5 2b 2f 3e da 7b 73 bd 32 c8 46 be 6c ce 34 be
       0.17106517 -0.059444286 -0.19412306 -0.17656869
0003c0 7c 5d 37 3e 37 36 78 3e 66 92 e2 3e 49 97 f1 3e
       0.17906755 0.24239431 0.44252318 0.47185734
0003d0 74 a5 50 3e 73 2f ca 3e 64 65 8d 3e fb fe 52 3d
       0.20375615 0.39489326 0.27616417 0.0515127
0003e0 45 df 8c bd 21 69 5f 3c bc f1 6f bd f3 6f 84 be
       -0.06878523 0.0136359045 -0.058580145 -0.2586666
0003f0 07 61 58 3e b3 ec a3 3d b8 f9 5e be 41 17 6c 3e
       0.21130763 0.08004131 -0.21774948 0.23055746

bias f4 [128]
000000 26 be 02 3f 24 b5 a1 3e b9 f2 96 3d d4 5b b3 be
       0.51071393 0.31583512 0.073705144 -0.35030997
000010 c1 c4 46 3d 4d 38 ce bb 1e 1f 1f be 31 bb ec 3e
       0.048527483 -0.0062933327 -0.15539214 0.46236566
000020 5c f0 42 be 04 25 2d bf 5c 87 e5 3b 6a ae b0 be
       -0.19037002 -0.67634606 0.0070046615 -0.34508067
000030 d9 a3 42 be aa 48 29 3f 3d 43 a2 3e 38 92 3d 3f
       -0.19007815 0.661265 0.31691924 0.7405124
000040 22 c4 48 bd d1 1d aa be ae c3 0d 3f f3 c2 bb 3e
       -0.04901517 -0.33225873 0.5537671 0.36672172
000050 d0 26 1d 3f c1 cc 77 be 3d e1 16 3d 7d 76 d6 3e
       0.6138735 -0.24199201 0.036835898 0.41887274
000060 48 a6 15 bf 2d 86 fd 3a c6 26 3c bc 2c 57 5b 3f
       -0.5845685 0.0019342356 -0.011483854 0.8567989
000070 ef 91 f2 bd 19 b1 cb 3d 7e 6f 33 bd 3d 53 6e 3d
       -0.11844241 0.09945888 -0.0438075 0.05818485
000080 d8 bd 3a 3f a4 68 26 bf b0 ce 25 3e 03 ae 09 3f
       0.7294593 -0.6500342 0.16192126 0.53781146
000090 27 70 aa be 66 b2 60 bf b5 81 44 3e 2b 3a 1d 3f
       -0.3328869 -0.87772214 0.19190104 0.6141688
0000a0 1f fb 79 bc 72 e5 1a c0 ed a4 0d bf 2a ba 95 3d
       -0.015257626 -2.4202542 -0.5532978 0.073108986
0000b0 36 d4 2f 3d a9 81 e0 3b cc 39 de be db 4e 86 be
       0.04292699 0.006851394 -0.4340347 -0.26232037
0000c0 42 70 a5 bb c8 84 7e 3e 0d ca 44 be 24 cd 44 bf
       -0.0050487826 0.2485534 -0.19217701 -0.7687552
0000d0 5e fc 0f 3e 5b 93 12 bd f2 33 1f 3e ed 70 8e 3e
       0.14061114 -0.03578506 0.1554716 0.2782053
0000e0 f2 76 64 bc bc 05 f5 3d 28 39 51 bf 1e 4d cb 3e
       -0.013944374 0.11963984 -0.8172784 0.39707273
0000f0 c2 0a fb be 49 30 c3 3d 17 a3 38 3f 14 5f be be
       -0.49031645 0.09530694 0.72123855 -0.37181914
000100 2b 47 3d 3f db cc 06 3f ca 5a a8 bf 5f 7d 0a 3d
       0.7393672 0.52656335 -1.3152707 0.03381097
000110 7e 7f 81 be 0e 5f 34 be bc 2a 7d bd d0 82 13 bd
       -0.2529258 -0.17614385 -0.061808333 -0.036013424
000120 50 20 5a 3d cb 31 de 3e 6b 24 91 be d8 5b ec bd
       0.05325347 0.43397364 -0.28348097 -0.11540955
000130 82 cf 90 ba 93 2b 9b bd 73 31 4a bc dd af 17 3f
       -0.001104817 -0.075766705 -0.012340891 0.5925272
000140 ee 84 d3 be a6 fa 48 3d da 54 8b bd b7 59 cf be
       -0.41312355 0.049067162 -0.068032935 -0.40498134
000150 6e 32 13 bd 88 05 0c bd ab bb 7e 3e 3d f1 af 3e
       -0.035936765 -0.034184963 0.24876277 0.34363738
000160 4e 31 a1 be 99 a7 8d be 88 04 33 3c 30 d0 7f 3d
       -0.3148293 -0.2766693 0.010926373 0.062454402
000170 3d fd e6 bd 92 6e ad bd a0 60 c0 3e 17 eb c7 bd
       -0.1127877 -0.08468355 0.3757372 -0.09761637
000180 a3 34 79 3d 0a ac 49 bf 3c 5e ae 3d d1 58 be 3d
       0.060841214 -0.78778136 0.085140675 0.09294284
000190 04 59 ae be 8b 3a 6d be 2e 40 1c 3f 05 94 a5 3d
       -0.3405229 -0.23166864 0.6103543 0.08084873
0001a0 ae ef 98 3d 50 6b b5 3e 2d 44 42 bd 4d 51 53 be
       0.0746759 0.35433435 -0.0474283 -0.20636483
0001b0 e0 41 07 3a 49 de e8 bd 74 ca 0e bc f0 f3 b6 3e
       0.00051596574 -0.113705225 -0.008715261 0.35732985
0001c0 23 c8 d0 bc 7c d7 33 be f8 4c 47 bf 57 c3 2b bf
       -0.025486058 -0.1756267 -0.7785182 -0.6709494
0001d0 48 dc f5 be 54 3c fd be 73 43 2c bd ff 67 57 3e
       -0.48019624 -0.4946009 -0.042056512 0.21035765
0001e0 28 17 aa be 08 34 cf 3b 3f b3 b6 bc 3a 93 76 be
       -0.33220792 0.0063233413 -0.022302268 -0.240796
0001f0 8a 2e 45 3d ba 2d f6 3b 10 f1 1e bf 36 d6 3a bf
       0.048140086 0.0075127752 -0.6208658 -0.7298311

weight f4 [128, 128]
000000 ee 96 e9 3d 35 fc e8 3c f6 89 89 3d 28 fb 2d be
       0.11405741 0.028440574 0.06715767 -0.1699034
000010 40 2b 17 be dd 3a 06 3e fe 97 b9 3d 39 f8 a3 3d
       -0.14762592 0.13108392 0.09062193 0.08006329
000020 42 96 a1 3d 16 89 a7 bd 58 2e 55 3d af 21 97 bd
       0.078899875 -0.08180444 0.05204615 -0.073794715
000030 b0 68 97 3c 7b 48 59 bd be 3c e0 bd 2f 8e bb 3e
       0.018482536 -0.05304764 -0.10949086 0.36631915
000040 6e 24 b2 be 2c 48 11 3d 87 7f 3e bd 23 94 d5 bd
       -0.3479342 0.03546922 -0.04650834 -0.104286455
000050 11 40 a8 3e c4 f6 14 3d 83 dc 55 bd b8 ae 90 3d
       0.3286138 0.036368147 -0.05221225 0.07064575
000060 0a 3d cf bc b7 d4 03 3d 81 94 d2 bd 78 fc 0c bd
       -0.02529766 0.032185283 -0.10282231 -0.03442046
000070 d7 3f f3 bb ab f2 b9 3d 92 e7 62 be d6 43 e0 bd
       -0.007423382 0.09079488 -0.2215865 -0.10950439
000080 37 50 0f 3e b2 9d 69 be 18 5a 03 be 1b dc c3 3d
       0.13995443 -0.22814062 -0.12827337 0.09563466
000090 ac 5a 7f 3c b1 50 57 bd c8 dd 33 3e c5 44 08 3e
       0.015585583 -0.052567188 0.17565072 0.13307483
0000a0 17 6c e0 3e cb f2 18 3d 6c c3 29 be d3 75 9d bd
       0.43832466 0.03734092 -0.16578454 -0.07688489
0000b0 c2 ff be bd 0d 55 e4 3d 99 38 99 bd c3 32 c7 bc
       -0.09326126 0.11149035 -0.07481498 -0.024316197
0000c0 a2 32 11 be 5d d1 31 be 4f 95 d8 3c 0d 0c 30 3c
       -0.14179471 -0.17365022 0.026438383 0.010745061
0000d0 13 ae 10 bd b8 ee 4b bd 95 05 b0 bc 23 f1 0f 3d
       -0.03532226 -0.049788207 -0.021487037 0.035142075
0000e0 f8 cb 4f 3f be 04 ec 3d f3 f4 00 be 67 e0 14 3f
       0.81170607 0.11524342 -0.1259344 0.5815491
0000f0 4c 9b 44 bd d9 e7 af bd a6 2e e3 3d 7b 03 2b bd
       -0.047999665 -0.08589143 0.11092882 -0.041751366
000100 6b 06 42 3f 8b 79 94 3c e0 fc 6d 3e 6a 1c 15 3d
       0.75791043 0.018124362 0.23240995 0.03640405
000110 eb 34 ab 3c 9e c6 37 3e d7 75 69 bc 08 24 a1 bd
       0.020899257 0.1794686 -0.014249287 -0.078682005
000120 82 00 da bc 10 3e 94 3d 14 6f f8 3c 27 1d e5 bd
       -0.02661157 0.072384 0.030326404 -0.11187201
000130 a1 fe 30 3e fc 51 e8 3d 4f bb aa bd 26 1f 02 3d
       0.17284633 0.11343762 -0.083365075 0.031767987
000140 68 00 5d 3d 86 7d 05 be 00 af 8f 3d 95 18 17 3d
       0.053955466 -0.13036165 0.070158005 0.036888678
000150 74 ab e0 bc a7 53 eb bc 2c 0e b2 bd d1 af 5c be
       -0.027425505 -0.028726412 -0.08694109 -0.21551444
000160 df cd 1d be bd 48 c4 bd a7 81 ae bd a7 df 51 3b
       -0.15410565 -0.09584186 -0.08520823 0.0032024176
000170 48 33 b0 bc 86 03 52 be 59 fc 11 3e e8 26 0b be
       -0.021508828 -0.20509157 0.14256419 -0.1358906
000180 26 f3 0c 3e 2e 78 42 bf 2a f2 70 3e 6b 51 c9 bc
       0.13764629 -0.7596463 0.23529878 -0.024574956
000190 ac 12 de bd 2c b8 d5 3c f9 b5 84 3e aa ab f9 bd
       -0.10843405 0.026088797 0.25920084 -0.121909454
0001a0 aa 0a 2f be 09 56 63 3e 2e 88 23 3d b4 23 d3 bd
       -0.17093912 0.22200789 0.039924793 -0.10309544
0001b0 9b 1f 23 3e 01 de 83 bd 4e 68 1a be ca 32 9b bd
       0.15930025 -0.06438828 -0.15078852 -0.075780466
0001c0 79 8a 89 3e 68 37 0d 3e bb 46 14 3e 87 f0 da be
       0.2686346 0.13790667 0.14480107 -0.42761633
0001d0 0a 83 6f be 7e c7 54 bd 24 ed c1 bc 1a df 96 3d
       -0.23389831 -0.051948063 -0.023672648 0.07366772
0001e0 68 2d d6 3d 74 85 33 be 23 8b ac 3b 57 0d b3 3d
       0.10457879 -0.17531377 0.00526561 0.08742779
0001f0 ed 23 10 be 24 bf 97 3d 14 63 33 be fc f5 a0 bd
       -0.14076205 0.07409504 -0.17518264 -0.07859418
000200 a1 90 26 3e 47 f7 5c bc c5 a8 08 3e fe 99 5c 3d
       0.16266109 -0.01348669 0.1334563 0.053857796
000210 4d 40 f7 3c a2 83 28 be f5 8c c8 bd 18 8f 0b be
       0.030182028 -0.16456464 -0.097925104 -0.13628805
000220 14 6f b6 bd 4a 59 be be 60 bb 14 be e9 3e 99 bd
       -0.08907905 -0.37177497 -0.14524603 -0.07482702
000230 3c 6a 0a 3e 31 af 91 ba b9 49 bf bd 34 aa 35 3f
       0.13517088 -0.0011114833 -0.09340233 0.70962834
000240 fa 90 b9 be 7f 2f 7e bc e9 b3 f7 3b f3 88 06 bc
       -0.3624342 -0.015514254 0.0075592888 -0.008211362
000250 8f c1 fb 3e 5f 39 32 bd 2b fe a7 bb 11 3a 8e be
       0.4917111 -0.043511745 -0.0051267347 -0.27778676
000260 97 5c 22 3e d9 93 46 3d 1b f8 32 bc a8 51 f4 bd
       0.15855633 0.048480842 -0.010923411 -0.11929637
000270 6f c8 ef bd d0 45 b8 3c 40 36 d3 be 7d 6e 22 3e
       -0.117081515 0.022494227 -0.41252327 0.1586246
000280 23 9f ff 3e dc 39 33 bf a3 6d c9 bc c9 ad 3e 3d
       0.499261 -0.7001016 -0.024588412 0.046552453
000290 82 24 93 bd 8b 95 89 bd d1 00 83 3e d2 96 bc 3d
       -0.07184698 -0.06717976 0.2558656 0.09208454
0002a0 0c 05 f9 3f c2 ec 5e bd 71 75 95 bd e9 1d 36 bd
       1.9454665 -0.05442501 -0.07297791 -0.04446212
0002b0 a8 e8 77 bd 1c 20 f1 bd 28 43 cf bd 3c f6 b0 3d
       -0.060524613 -0.117737025 -0.10120231 0.086407155
0002c0 b1 7c e1 bd d7 11 2a be c0 a9 23 3e 1d 50 81 3d
       -0.11010111 -0.16608368 0.15982723 0.063141085
0002d0 46 53 39 3c a6 d2 ee 3c 79 18 e3 3d d9 c1 6e bd
       0.011311358 0.02915318 0.11088652 -0.058290336
0002e0 69 98 1d 3f fd 61 4c 3d 9d 28 d7 bd c9 0e 11 3f
       0.61560684 0.049898136 -0.10505793 0.56663185
0002f0 5d 85 45 be ca ea be bc 1d ba 17 3e 85 9a ba 3b
       -0.19289155 -0.023305316 0.1481709 0.0056946897
000300 a3 80 ea 3f f6 05 21 be c8 62 10 3e f6 fb 5c be
       1.8320507 -0.1572493 0.14100182 -0.2158049
000310 23 d9 81 3e 8b 48 15 3e af a6 19 be 9a d6 94 3e
       0.25360975 0.14578454 -0.15004991 0.29069978
000320 8a 24 18 3e f6 61 27 bd ac b5 a5 bd 02 ff 42 3d
       0.14857689 -0.040864907 -0.08091292 0.047606476
000330 11 8b f8 bd b1 1f 15 3d 36 e2 b3 3d 0c a1 a7 be
       -0.121359 0.036407176 0.08783381 -0.32740057
000340 51 4e 14 be 42 e5 1e 3d 2a f0 00 3e 4c f2 81 bd
       -0.14483 0.038792856 0.12591615 -0.063450426
000350 2d 69 22 bc 54 11 ea bd e7 e5 c9 3c ba 82 69 be
       -0.009912771 -0.11429086 0.024645759 -0.22803774
000360 1c 36 ad 3d e3 a9 24 bd 9c 36 8a 3d 72 24 f2 bd
       0.08457586 -0.04020108 0.06748697 -0.11823358
000370 f4 74 03 3d bb b2 85 bd ad aa a5 3c 94 4c 26 3d
       0.032093957 -0.06528231 0.020222986 0.040600374
000380 59 42 7d 3d ca f4 03 bf 10 8f 8c bd b7 33 54 be
       0.061830852 -0.51545393 -0.068632245 -0.20722853
000390 60 c9 11 bf 36 ee 92 3d d1 ce cb 3f 9c e4 b1 3d
       -0.569479 0.071743414 1.592249 0.08686182
0003a0 90 d7 2e 3d b5 e5 24 3f c3 98 1d 3e 09 c1 60 bd
       0.042686045 0.64413005 0.15390305 -0.054871593
0003b0 2a e9 ec bc 64 f5 07 be fc 7e e9 3c d4 17 06 3e
       -0.028919775 -0.13277203 0.028502934 0.13095027
0003c0 08 7a a2 3c 52 77 00 be 26 e4 48 3e 4d 85 83 be
       0.01983358 -0.12545517 0.19618282 -0.25687638
0003d0 89 5f 0a bf 80 b5 e3 be 3a 54 00 be eb 4f de 3e
       -0.54052025 -0.4447441 -0.1253213 0.43420348
0003e0 3b 84 60 3e 44 ff 01 3e 7a 44 08 3d b2 c0 e3 bb
       0.21925442 0.12695032 0.03326843 -0.0069504613
0003f0 ca 86 80 bc 7d b9 f2 bd 7d 8d 8e be 82 f1 9f bd
       -0.015689272 -0.11851785 -0.27842322 -0.07809736

bias f4 [128]
000000 35 a0 c8 3d 36 62 0a bd b2 24 cd 3d 22 ea 8b be
       0.09796182 -0.033785067 0.10016765 -0.27327067
000010 a2 40 44 bd e4 73 d2 3d 76 e0 92 3d 1a 44 0d 3e
       -0.0479132 0.10276011 0.07171719 0.1379551
000020 5a 83 87 3e 84 59 98 3e ed e3 13 be 45 3f 4d bd
       0.264674 0.29755795 -0.14442416 -0.050109167
000030 b8 80 bd bd b4 c9 69 3e 2e 93 51 3c e0 bb c9 3e
       -0.09253067 0.2283085 0.012791438 0.3940115
000040 00 5c a5 3e b4 4d da 3d 99 7d 1f bd 12 48 15 be
       0.32296753 0.10659352 -0.03893814 -0.14578274
000050 64 24 d3 bc 66 21 7d be 8d ff 8d 3e 9a 5a 64 3e
       -0.025774188 -0.24719772 0.27734032 0.22300187
000060 ff 0a 65 bd f7 7f 5a 3e b1 98 63 be ed 10 9c be
       -0.05591869 0.21337877 -0.22226216 -0.30481663
000070 57 7d aa bc b2 36 d8 3d 25 a1 19 3e 5d c3 26 be
       -0.02081172 0.10557307 0.15002878 -0.16285463
000080 4c a2 a4 be 85 ea 04 3e 9f 03 7e 3e 50 f6 33 3e
       -0.32155073 0.12980087 0.24806069 0.1757443
000090 03 53 65 be 1c 1e 86 bc 83 a0 48 be e2 c8 11 be
       -0.22394948 -0.01637178 -0.1959248 -0.14236787
0000a0 f7 a6 2b be 79 e7 be 3e 01 f8 21 3d a7 32 a1 be
       -0.16762911 0.37285975 0.039543156 -0.31483957
0000b0 14 01 66 3e c0 1d 06 bb fd 24 aa 3d 82 20 43 be
       0.22461349 -0.002046451 0.08307836 -0.1905537
0000c0 60 59 ef 3d 58 0d 31 3e d8 79 a9 3e 86 7c 4c be
       0.11686969 0.17290246 0.33100772 -0.19969377
0000d0 ec e2 64 3b 69 4c 9f 3d 88 0c e6 3d 82 d8 84 bb
       0.0034925295 0.07778246 0.11232859 -0.00405413
0000e0 16 94 1a 3d 95 9b ba be 8f 36 81 3e 08 77 1a 3d
       0.037738882 -0.36446825 0.25236937 0.037711173
0000f0 48 58 5b be d1 58 96 be 42 17 71 3d 01 cf bd 3d
       -0.21420395 -0.29364637 0.05886007 0.092679985
000100 f4 4e 8f be 2c 03 83 3d 95 6b 96 3a 3b b9 93 3e
       -0.27989924 0.06397089 0.0011476154 0.28852257
000110 f5 1e 33 bc 7f 57 6e 3d a5 b6 1a 3e fc d4 c1 3b
       -0.010932674 0.05818891 0.15108736 0.0059152823
000120 32 46 2d be 69 e0 9e 3e 0a ab 75 be de e7 0c 3e
       -0.16921309 0.31030586 -0.23991027 0.13760325
000130 3c d2 83 3e 64 c5 c5 3e 6b bd 6c be 91 bc cb 3e
       0.25746334 0.3862716 -0.23119132 0.39792302
000140 37 f5 51 be 5d 5b 46 be b2 a0 81 be d1 3d ce bd
       -0.20503698 -0.1937079 -0.25317913 -0.10070384
000150 a2 f4 ba 3d b2 ab 5f be b8 25 8f 3b d9 06 23 3d
       0.09128691 -0.2184284 0.00436851 0.039801452
000160 fa c0 84 be 18 d8 ea bd a5 b0 e2 bc 3a 10 ac be
       -0.2592848 -0.11466998 -0.027672121 -0.3360613
000170 87 c8 06 be 2e 8e 8f 3e 29 43 4e 3e cb c1 ff 3c
       -0.13162433 0.28038162 0.20142807 0.031220337
000180 e4 29 42 bc bb 09 0a be 70 cd ce 3d d6 50 8a be
       -0.011850808 -0.13480274 0.10097778 -0.27014798
000190 5b 0d ca bc fb 75 63 be 9e c8 d0 be d1 59 cb 3d
       -0.024664572 -0.22212975 -0.4077806 0.099292405
0001a0 f3 ab 63 be 3b f7 34 bd 4a c8 93 3d 80 1c 74 3e
       -0.22233562 -0.04418109 0.072159365 0.23838997
0001b0 ab 88 db 3d 1f 75 f7 3d ec 5a f2 3d 41 37 a3 bc
       0.10719427 0.12082886 0.11833748 -0.019923808
0001c0 12 9f 3c bf 89 c4 53 be 63 3a c6 3d 28 64 e7 bd
       -0.7368022 -0.20680441 0.09679105 -0.112984
0001d0 3c b7 1e 3e a7 32 eb 3d 39 24 ce bc 69 1a b1 3e
       0.15499586 0.114842705 -0.025163757 0.34590462
0001e0 a6 aa 99 bc fe 08 26 be d6 21 a4 be 49 16 ae 3d
       -0.01875813 -0.16214368 -0.32057065 0.08500344
0001f0 1a f2 65 be ea 11 de bc bc 16 94 bd 27 8a 55 3e
       -0.22455636 -0.027108151 -0.07230899 0.20853482

weight f4 [128, 128]
000000 21 f6 8a 3f 1e 0d 45 bf 51 97 81 bf bc d3 f9 3e
       1.0856363 -0.7697314 -1.0124303 0.48794353
000010 72 94 14 bf 62 f6 28 be fb ef aa 3e dd 8f 9a 3e
       -0.5803901 -0.16500238 0.33386216 0.30187884
000020 1c bb c8 bc 90 9d 0c bd e8 df 24 bf e5 ad 26 be
       -0.024503283 -0.03432995 -0.64404154 -0.16277273
000030 47 5a 60 be c3 5b d0 be 55 68 a1 3e a1 aa 24 bd
       -0.21909438 -0.4069501 0.31524912 -0.040201787
000040 74 fe 9b 3d 98 be d1 3d 4b 33 91 bd 5a f6 5d be
       0.076168925 0.10241431 -0.070898615 -0.21676007
000050 cc 07 79 3e f7 54 88 3e c7 de fd bd 15 5d f4 bd
       0.2431938 0.26627323 -0.12396007 -0.119318165
000060 49 7f d7 bd a0 9d 0f 3d 39 e2 a2 3d a6 dd 7d 3e
       -0.105223246 0.035062432 0.07953305 0.24791583
000070 e8 36 55 be f8 3c 62 3d 73 90 8e be f7 9f a9 be
       -0.20821726 0.055233926 -0.2784458 -0.33129856
000080 41 5b 60 3e 7e 04 cd 3e 77 e8 40 bf 99 94 1f 3e
       0.2190981 0.4004249 -0.75354713 0.1558403
000090 32 67 2b 3f 5f d5 4a 3d f4 2b 85 3e 60 e3 0d 3f
       0.6695434 0.049519893 0.26010096 0.5542507
0000a0 8a 2c 56 3e 1d 19 22 bf 5e d3 09 3f e1 45 37 3e
       0.20915428 -0.6331957 0.53838146 0.1789775
0000b0 45 c8 ee 3d 61 03 d3 3e 9b 78 21 be bd e2 c8 3e
       0.11659292 0.41213515 -0.15768664 0.39235488
0000c0 2e 09 1a bf ff b8 a8 be f4 cf 07 bf 3f 27 83 3f
       -0.6017026 -0.3295364 -0.53051686 1.0246352
0000d0 9f 98 34 3d 63 d7 7c be da 59 a2 3e 20 b0 9f 3e
       0.044090863 -0.24691539 0.31709176 0.3118906
0000e0 eb 5a 34 3e e5 39 9b 3e 81 d8 d7 be 79 13 7a 3e
       0.17612807 0.30317608 -0.42157367 0.2442149
0000f0 dc eb fa 3d f3 ab 27 bc 97 ca 2c be 43 8c 24 3e
       0.12252018 -0.010233867 -0.16874157 0.1606913
000100 6a 72 af 3d 33 7c 08 be 51 72 0f be 90 4d b8 be
       0.085667446 -0.13328628 -0.14008452 -0.35996675
000110 b4 31 81 3e f5 3e ef 3e a0 fb 6c bd b7 15 46 3e
       0.25233233 0.4672772 -0.057857156 0.19344221
000120 9c 2e 0d 3f 9b 31 05 bb 3d bd 95 bc 16 95 46 3e
       0.55149245 -0.0020323757 -0.018278712 0.1939281
000130 a6 de 9b bf 09 9c 2a bf f9 60 f5 3d 6a 20 7d bf
       -1.2177322 -0.6664434 0.11981387 -0.98877585
000140 65 36 e8 3d d7 95 74 3d 44 4d 99 bd 43 f5 30 bd
       0.113385 0.05971321 -0.074854404 -0.04320265
000150 1a 53 31 be 22 11 1f bf 47 a0 0e 3e 89 4e 52 be
       -0.17316857 -0.6213552 0.13928328 -0.20537771
000160 f9 b9 c3 bd 45 a5 fc 3e ba e3 99 bd 6f 1f cb bc
       -0.09556956 0.4934484 -0.075141385 -0.024795262
000170 93 a3 37 be 9f 35 15 3f 7e eb 48 3f 48 b4 9c 3e
       -0.17933492 0.58284944 0.7848433 0.30606294
000180 cc 08 84 3e f0 16 53 be b8 ad a9 be 9e 44 4d 3e
       0.2578796 -0.20614219 -0.3314035 0.20045707
000190 cb 4f 44 be 59 61 df 3e f9 fc ee 3e 4e ec c6 bd
       -0.19171064 0.43628958 0.46677378 -0.0971304
0001a0 a1 a4 16 bd 6b 3f 1b 3d 98 42 f2 be 0c 8a 0b 3d
       -0.036778096 0.037902277 -0.47316432 0.0340672
0001b0 be be 4b 3e 1b ae 1b 3e 59 af b5 bd 6c 62 b0 3e
       0.19896981 0.15203135 -0.088713355 0.3445009
0001c0 ff 1c 94 3e 28 44 4f 3f ec 18 ab 3e 72 93 11 be
       0.28928372 0.80963373 0.3341745 -0.14216402
0001d0 6f 5c 5b be a5 57 30 3e 9d 9a 92 3e e9 df 8f bd
       -0.2142198 0.17220934 0.28633586 -0.07025129
0001e0 6e 71 d1 3e f4 11 e1 bd 00 e1 40 3f 6a 24 22 3e
       0.40906852 -0.109897524 0.7534332 0.15834203
0001f0 11 8b cb 3e a2 d4 02 be 54 1c d7 3d 27 7a af be
       0.39754537 -0.12776425 0.1050345 -0.34272882
000200 33 fd e5 3e 1b fb 6f be 6b 45 d1 bd b6 8a 6b 3d
       0.44919738 -0.23435633 -0.102183186 0.057505332
000210 7f 09 e8 be 06 91 cb be 19 e6 32 3e 9c 87 3c 3f
       -0.45319745 -0.39759082 0.17470588 0.73644423
000220 49 21 3d 3d a5 63 8f 3c c7 d2 6b 3d 64 49 7b 3c
       0.04617432 0.017503569 0.05757406 0.015337322
000230 16 9a 98 bd 38 dc 73 3e 39 12 00 3e 7a b6 99 bc
       -0.074512646 0.23814476 0.12506951 -0.01876377
000240 d4 31 3d 3e e2 8c 45 3e 21 a4 b9 bd bb 80 77 be
       0.18476039 0.19292024 -0.09064508 -0.241702
000250 4c c2 41 3e de 3f 44 3e 13 2d 71 bd 8b f8 33 be
       0.18921775 0.19164988 -0.058880877 -0.1757528
000260 07 de 44 3c 25 ed 2b 3e 12 4f 69 3d d3 87 b7 bc
       0.012015826 0.16789682 0.056960173 -0.022403633
000270 cf 3b bb be 88 4e 38 3e 68 21 c4 bd d0 df 74 bd
       -0.36569068 0.17998707 -0.09576684 -0.059783757
000280 ee be ba 3d 45 fa c3 3d 8f 0b 1f be c8 45 55 3c
       0.09118448 0.095692195 -0.15531753 0.013017125
000290 42 13 c5 3d 86 56 ae 3d ff 3f 93 bd 43 9f 02 bd
       0.09622814 0.08512597 -0.07189941 -0.031890165
0002a0 25 18 17 3e 9c d9 e7 be 4b 1b 6f 3e 86 1f 5e 3e
       0.14755304 -0.4528321 0.23350255 0.21691713
0002b0 f6 1d 0f 3e 28 ce 7f 3e 66 5a 1b be 62 7c b9 3d
       0.13976273 0.24980986 -0.15171203 0.09056927
0002c0 03 d9 41 bc da 20 95 bc 0a e9 31 be 25 2a 6a 3e
       -0.011831525 -0.018204141 -0.17374054 0.2286764
0002d0 93 d6 3d 3d 19 0a 31 be 4f 44 2c 3e 90 8f 04 3e
       0.046347212 -0.17289008 0.16822933 0.1294539
0002e0 58 b1 15 3e 05 77 60 3d 2e 19 a8 bd f9 cd 06 be
       0.14618433 0.054801006 -0.08207928 -0.1316451
0002f0 27 6d 29 3e 69 50 c3 bd 71 fa db be 55 21 a4 bd
       0.16545545 -0.095368214 -0.4296451 -0.0801417
000300 20 50 ee bd 2a c9 ca bd c2 2e 42 be bd 64 e9 bd
       -0.116363764 -0.0990165 -0.18963149 -0.113961674
000310 b4 e2 bf 3e 5a 6d d5 3e cc 42 f5 3d e9 d3 9a 3d
       0.37477648 0.4168499 0.11975631 0.0755995
000320 33 80 4e be 66 07 ce 3d f1 d2 17 bd 07 99 0d be
       -0.20166092 0.10060005 -0.037066404 -0.13827907
000330 1d 29 a2 be ca d9 da bd 04 46 87 3e 3a c0 90 be
       -0.31671992 -0.10686071 0.26420605 -0.28271657
000340 d6 a7 40 be 18 9a 80 3d ae 1a a4 3c 78 9a 0d be
       -0.18814024 0.06279391 0.020032253 -0.13828456
000350 ec e4 64 be b4 f1 e5 be 0e ae 89 3d 42 82 89 be
       -0.22352952 -0.44910967 0.067226514 -0.2685719
000360 30 0b f3 3e bc 58 2f 3e 11 61 2a be 6f ab 23 bd
       0.47469473 0.17123693 -0.1663859 -0.039958414
000370 bf fd 50 be ff d1 62 3f 85 fa 18 be 1b 26 96 3d
       -0.20409296 0.8860168 -0.14939316 0.07331487
000380 84 cb fc 3c c6 67 51 bd 66 6c f8 3c 79 b7 22 3d
       0.030858763 -0.051124357 0.030325126 0.039725754
000390 9a 88 6d 3d 5c 71 0c 3f 3c c3 68 3e 73 7e 12 3d
       0.0579916 0.5486047 0.22730726 0.035765123
0003a0 c5 7f 81 bd fd bf 41 3e 80 71 0e 3f 07 06 10 3d
       -0.06323198 0.18920894 0.5564194 0.035161998
0003b0 12 02 9c 3d 2f 8f 09 3e e6 6f 39 be 67 2d 5b 3e
       0.076175824 0.13433526 -0.18109092 0.21404038
0003c0 87 68 06 3e bb e8 25 3e e2 e5 17 3d 9a 61 43 be
       0.13125812 0.16202061 0.037084468 -0.19080201
0003d0 2f 02 33 bd dc 05 42 3e d9 bd 81 3e dc d8 9e 3d
       -0.043703254 0.18947548 0.25340155 0.077562064
0003e0 0e fe 96 3e 00 db e6 3c da 61 c0 3d 9a 4e 46 3e
       0.29490703 0.0281806 0.09393664 0.19365922
0003f0 0b 25 6b 3d 55 76 8e be be 7c ef 3d 60 01 33 bf
       0.057408374 -0.27824655 0.116937146 -0.69923973

bias f4 [128]
000000 a6 0b 4d bf 9b 6d 95 be a9 77 e4 3d 29 37 a4 be
       -0.800959 -0.29185185 0.11155636 -0.32073334
000010 61 dc 3e 3e 76 e6 7d 3e 46 db 1c 3f 8c 45 f3 bd
       0.18638755 0.24794945 0.61272085 -0.118784994
000020 84 dd c6 bd c2 41 79 3e 3d eb 15 3f cf a9 96 bd
       -0.097102195 0.24341491 0.5856207 -0.07356607
000030 f2 cc df be f3 bd 04 3f 51 b7 ee bd 55 7a f0 be
       -0.43711048 0.5185234 -0.116560586 -0.46968332
000040 c8 42 a4 be ad 19 18 be 58 ec 1a be 9c 74 a5 3e
       -0.320822 -0.14853545 -0.1512922 0.32315528
000050 87 d6 16 bf d5 bf fd bd d9 aa ac 3e 51 97 5d bd
       -0.5892109 -0.12390105 0.33724096 -0.054099385
000060 b2 28 07 3e 3f 21 79 3e 89 35 9a 3e 50 d9 a7 3e
       0.13199118 0.24329089 0.3011897 0.32782984
000070 d6 b0 8e 3e 14 3b 32 3f 0c ed e3 be b2 9c 55 3f
       0.2786929 0.69621396 -0.4451679 0.83442223
000080 ee 45 8c bd 65 ac 5b be 1c cd 39 bd 09 2f 26 3e
       -0.068492755 -0.21452482 -0.045361623 0.1622888
000090 21 23 65 be 89 f3 55 3e 7e a7 70 3e 8d 69 16 3f
       -0.22376682 0.20893683 0.23501393 0.5875481
0000a0 6f ae 88 3f 4d 77 0d bf c3 3e 76 3d be 4e e5 be
       1.0678233 -0.55260164 0.060118448 -0.44786638
0000b0 92 dc 98 be a7 ce 08 be 54 18 be 3e 13 95 2c be
       -0.29855782 -0.13360082 0.37127936 -0.16853742
0000c0 a2 8e 0a 3f 12 17 0e 3d fa 2e 1c 3f 89 51 88 be
       0.5412389 0.03468997 0.6100918 -0.26624706
0000d0 a4 2f 57 bf 62 09 b2 3e 5f 6f b0 3d 3c b5 c3 3d
       -0.8405707 0.34772784 0.08614992 0.09556052
0000e0 c6 46 51 be 95 a5 80 bf 15 27 66 3e 27 bf c2 3d
       -0.20437154 -1.0050532 0.22475846 0.09509116
0000f0 3d 51 ef be 4a 86 ab be 54 f8 8e 3d 19 24 73 bf
       -0.46741667 -0.33500892 0.069809586 -0.94976956
000100 f4 23 76 3e 20 42 81 3e bd e8 fc bd 2a 82 eb 3d
       0.24037153 0.25245762 -0.12349079 0.11499436
000110 be 04 71 3e 75 d8 f9 be 33 24 bc be f7 29 7b bc
       0.23536965 -0.48797956 -0.36746368 -0.015329829
000120 d4 42 c5 3d c0 cc 19 bf 49 61 02 bf 17 4b a3 3c
       0.09631887 -0.6007805 -0.50929695 0.019933267
000130 9a 9e c7 3e 05 0a 70 bd 0a 0d dd be c6 9f 50 bd
       0.3898819 -0.058603305 -0.4317401 -0.05093362
000140 6d a7 36 bf 2b 46 94 3d 19 fa 0f be 25 af 59 3e
       -0.7134922 0.07239946 -0.14060248 0.21258219
000150 04 87 05 bf f0 7a d0 be f2 0e 14 bf a1 64 2d 3f
       -0.5215914 -0.40718794 -0.57835305 0.6773167
000160 11 28 53 3f 96 b2 9c be f5 01 cd 3d 5c aa 33 3d
       0.8248301 -0.30605 0.10010139 0.04386364
000170 27 d5 06 bf 6b 48 03 bf 07 5d 03 3e c6 d4 2a 3f
       -0.52668995 -0.51282376 0.12828456 0.66730917
000180 b1 95 a1 be df af 5a bd 48 47 17 3e 9f fa 01 3b
       -0.31559518 -0.05339038 0.14773285 0.001983322
000190 96 d6 26 be dd 7a 22 3f 2b 7b db bc 79 6e 4b bf
       -0.16292796 0.63468724 -0.02679213 -0.7946544
0001a0 cb c2 08 be 16 09 08 be f1 d7 3f be fe a9 11 3e
       -0.13355558 -0.13284716 -0.18734719 0.14225003
0001b0 f4 00 72 3f 74 d1 88 bd c0 d7 71 be 4f 7f 6c 3e
       0.94532704 -0.06680575 -0.23617458 0.2309544
0001c0 c8 49 37 bf 7d bc 61 3e 78 d1 0c bf 52 2d cb bd
       -0.71596956 0.22044559 -0.55007124 -0.099207535
0001d0 9f 93 3a be c5 9f 94 bc 1a 19 24 3e 8e cc 01 be
       -0.18220375 -0.01814259 0.160252 -0.12675688
0001e0 cf 72 c1 be 55 98 a9 3e 52 4a 82 bf f5 88 3f 3e
       -0.37782905 0.33124033 -1.0178931 0.18704589
0001f0 90 da 35 be 4a 84 82 be 46 ea b1 3e a2 e6 8c 3f
       -0.17759156 -0.25491554 0.3474905 1.1007884

weight f4 [1, 128]
000000 06 29 02 bf cc db 11 be e4 7f 50 3f 25 91 94 bf
       -0.50843847 -0.14244002 0.81445146 -1.1606795
000010 fc 9e a9 3e 8f 7d d2 3e 22 e9 04 c0 48 a3 76 bf
       0.33129108 0.4111142 -2.0767293 -0.963429
000020 d4 2e 1b bf 4d e0 cf 3e 12 d2 61 be 64 e8 3c be
       -0.6061833 0.40600815 -0.22052792 -0.18448025
000030 28 53 2c bf c3 24 1f bf 0c 9c 35 3f 79 12 f4 3e
       -0.67314386 -0.6216547 0.70941234 0.47670344
000040 70 62 b3 be d3 ff 89 bf a7 0e 12 bf 8a 28 c7 3e
       -0.3503604 -1.0781196 -0.5705361 0.38898116
000050 2a a8 ed 3e b0 ca 43 3f cf 6f 31 bf af 56 a6 bf
       0.46417361 0.7648115 -0.6931123 -1.2995204
000060 7f 8a aa 3e 27 1b 14 3f 29 1f ab 3e 85 ac 43 c0
       0.3330879 0.5785393 0.3342221 -3.0574048
000070 50 9f 81 3f 8a bf 86 3e 79 e5 07 bf 39 2e a3 3e
       1.0126743 0.26318008 -0.5308452 0.31871203
000080 bf 65 37 bf 3b 47 83 3f 04 85 3b bf 84 3c 5a 3e
       -0.7163963 1.0256113 -0.7324984 0.21312147
000090 b5 a7 61 3f 06 1e a4 3e d2 3e 66 3f 50 38 a4 3e
       0.88146526 0.32054156 0.89939606 0.32074213
0000a0 b6 1f 93 bf f6 67 fd be 9f af a2 3e 16 97 d9 be
       -1.1494052 -0.49493378 0.31774613 -0.42498082
0000b0 0a 0b 96 3e 5f 6c fa 3e db 79 d3 3e 47 58 88 3f
       0.29305297 0.48910806 0.41303906 1.065194
0000c0 96 02 5c be 1e f4 b9 3f 21 70 60 be c2 ae d0 3f
       -0.21485361 1.4527624 -0.21917774 1.6303332
0000d0 6c 8f 08 c0 0b 69 c6 bf a7 1f fe bf 80 ae 8c 3e
       -2.1337538 -1.5500807 -1.985341 0.27476883
0000e0 69 5a a7 bf 6a 49 a8 bf 5a a8 f1 be f6 9f 80 3e
       -1.3074466 -1.3147404 -0.47198755 0.2512204
0000f0 31 86 fb be 94 4c 35 3f 94 d0 60 3f 56 4e 80 3f
       -0.49125817 0.70819974 0.87818265 1.0023906
000100 89 2f 9e 3f 9d b3 61 3f 3e 90 b6 be 5c f8 1e 3e
       1.2358257 0.88164693 -0.35656923 0.15524429
000110 a9 d5 f6 3e c5 ce 17 3f 49 1c 4d 3f 51 14 86 3e
       0.48209885 0.5929988 0.80121285 0.26187375
000120 41 c0 a4 3e b3 38 8b be 91 36 e3 3e 5b 91 0c 3f
       0.32177928 -0.27191696 0.44377568 0.54909295
000130 9f b1 29 bf 5d 13 ab be df 5c 45 bf fe b7 59 be
       -0.66286653 -0.3341321 -0.77094835 -0.21261594
000140 15 86 d9 3e eb 41 05 bf 84 79 6c bf c8 50 dd 3e
       0.4248511 -0.5205371 -0.9237292 0.43225694
000150 a0 80 8c 3f d2 cb 85 3f 17 80 6e 3e e2 d3 93 be
       1.0976753 1.0452826 0.2329105 -0.2887259
000160 ba b8 fa be fb 14 77 bf 5f ff 3c bf d2 bb 75 3f
       -0.4896906 -0.9651639 -0.73827165 0.95989716
000170 56 46 d0 3e 03 3f 0e 3e 94 86 c8 3e 10 06 a3 3e
       0.40678662 0.13891225 0.39165175 0.31840563
000180 2b 18 a9 be 3d 0f 91 bd 33 59 40 bf b1 44 28 3f
       -0.3302625 -0.070829846 -0.7513611 0.65729815
000190 9a a5 13 bf 9a 32 50 3f fd 97 0d 3f 8e 7e a8 be
       -0.5767456 0.8132721 0.5531004 -0.32909054
0001a0 ee 56 e0 be 4f 67 6d bf 25 7b fe be ad 7d 02 3f
       -0.43816322 -0.9273576 -0.49703327 0.50973016
0001b0 54 58 74 bf ea 1e 52 bf b7 4f 8c be 3b 0e 95 3f
       -0.9544728 -0.8207842 -0.27404568 1.1644968
0001c0 a3 06 90 3e b8 2a 1e 3f c2 73 88 be 3e 44 b6 be
       0.28130063 0.61783934 -0.26650816 -0.3559894
0001d0 67 62 90 3e 33 db 98 3e 54 7f fc be dc 4d 96 3f
       0.28200075 0.29854736 -0.49315894 1.1742511
0001e0 93 fa 76 3f 59 20 52 3f 57 bb 08 bf 52 ab bb 3e
       0.96476096 0.8208061 -0.5341086 0.36654145
0001f0 23 9d 49 bf 18 5b c8 be d8 e9 97 3e 00 4c 39 bf
       -0.78755397 -0.39132 0.29670596 -0.7238159
