robot_rcs_models/actuators/mlp_jit_601750_8_50000_old.pt (torch, 153003 bytes, 7 tensors)

weight f4 [128, 16]
00000000: 651b 5ebd be14 77be 567b 9b3d 87ba 933e
00000010: 268f b93d 1ab4 b13d 7733 d43e 0646 9d3e
00000020: a461 87be 8c7a 82be 7e28 97be 9674 82bd
00000030: 4a0f 0dbe e325 683e e27e 12bd 6e74 9f3e
00000040: 9ed2 babe 80c9 5fbe 9625 413e 9f56 6bbe
00000050: 41a6 ddbd c3c6 2a3e cb50 6cbc dda4 f83d
00000060: 3818 8bbe 7ef8 c7be 76d4 81be 6a11 a3be
00000070: d9db 36be 0732 153e 6eac fc3b ee42 b43e
00000080: c299 1ebe 6354 633d 0f0c a63d a40c d7bd
00000090: e459 cd3d 3e90 cabd 6f28 043e 9c0c e43c
000000a0: 11dd 2cbe 4bc9 e3bd 7cff 503e 4ad6 5cbe
000000b0: c186 cfbd 1cd0 8dbe e209 43be aa9b 3fbe
000000c0: f85c e8be a9ce 083e 7cb8 bb3d 5ade 253e
000000d0: 5c28 de3e 1b38 cb3e 945f c3bc deb0 9bbe
000000e0: d9d1 453e 4c9c 283e 6fa3 24bd 1c43 41be
000000f0: 4637 d93d 7ded 3cbe e90c 8e3e 83ec 2cbe
00000100: 3934 2a3c b88d 1fbe 9826 503e 173c c63e
00000110: 155e 933e 1233 073e 145b 8e3e 650e ae3e
00000120: 293d 18bf d802 a0be 2170 99be 821d 293d
00000130: 5f28 a73d d9f5 5abe 9291 b5bd aec2 fbbe
00000140: 58dc eabe bedf 1cbf a22b c5be 2492 e4be
00000150: 6af8 05bf 5c4f 9fbe 2d9f d9bd 6ddd d3be
00000160: 581e 413e 5ee4 29bd f6a2 85bd e496 0c3e
00000170: 7a11 ad3d ed3e c0bd 8473 5dbd d060 64bd
00000180: 217b 343e 8e07 2dbc ac17 4fbe c6b5 533d
00000190: f11a 813d ee0c dc3e 8dfa b03e 64e8 a63f
000001a0: 0e2c 5d3e d43a ce3d 3358 8a3e daac c93e
000001b0: c94d 91bd 992e a63e b1fe 3c3d 3541 413e
000001c0: 4848 d4be 6032 96be 0392 09be a25c 4c3e
000001d0: 8eee e2bd 44a1 943e 7d58 9d3e ce55 893d
000001e0: f15a 6cbe c78a 11be e650 bf3d 6824 7abc
000001f0: e62a 133e eb33 873e 44f6 8c3d 48aa 15be
00000200: cd26 cf3d cd4e 403c 9348 2bbe 13c1 cbbd
00000210: cb6a 493e 9a5f a23e 2f37 293e 01f4 4d3f
00000220: 939b 163e 55ec 953e 309c a1bb 4ae2 b93e
00000230: ee2f f63e ba52 033f ee5f 9f3e b358 02bb
00000240: 5519 2ebe f5f4 9ebd a439 1e3c f9f0 bc3d
00000250: 65c3 dc3d 609a 973e c54e 9b3e 0cd1 a1be
00000260: 256f 11be 8a55 063c 8427 8c3e 8a9a 9c3d
00000270: f98d f93d 8127 be3b 9855 8fbd 4c29 b9bd
00000280: 0743 ca3e f719 bf3e 6e4c 153f 61a8 ad3e
00000290: 13f7 9d3e 72c1 6f3e 92d3 c23e 84ad 943e
000002a0: aae2 a2be 0bf8 2abd 7776 2fbe a64e 01be
000002b0: da60 36bd 2bba 163e 8637 87bd f2ce 573e
000002c0: 960c c2be 383a 67be af65 51bd 8418 4abc
000002d0: 3865 a5be bd61 9c3d 953c 5bbe f7ff 163e
000002e0: 5ca7 8dbe 9bff c03d ab3e 20be 7b88 933d
000002f0: bb8f f2bc 9f98 573e 7c7e 7e3c 8997 1f3a
00000300: 977b 7cbe ba0c 5ebe 0f01 b9be a9c6 f5be
00000310: aea8 70be 7bf1 6fbe 33e8 4c3e d1d3 c13e
00000320: c524 57be c55f ef3d df38 123e 233c 0bbe
00000330: 888d 9cbd 61c0 b8bd a942 2fbe 0ea3 f73c
00000340: 84fb 02bf 0c8e 4a3e a202 313e db40 393e
00000350: 841d b63e 5d18 953e 40f5 68be 91d1 03bf
00000360: b356 c7bd 48aa 333e 6cbb 283e 0efa 60be
00000370: e8d0 1fbe e880 f6bb 35a4 263d f68b 343e
00000380: 0ccc 813e c054 773e c6b8 2dbd be35 513e
00000390: 6fb1 a73e 1da6 5a3e 888b 0ebe 5c3a 3ebe
000003a0: 4e43 b2bd f048 863e f8ba 913e c156 cf3c
000003b0: 6c13 e33e 4ea6 013f 6efe b53e c836 923e
000003c0: fc6c 353e a895 cf3e a489 21be 47ec 803a
000003d0: dc0c a13e c09f 0abe 2d86 46be 3e6c 39be
000003e0: 074b 0ebf 34a8 90be b340 a3bd 0c24 80bc
000003f0: afbd 43bc fa6d 893e ce91 4a3e 6516 c4ba
-0.054225344 -0.24129006 0.07591884 0.28853247 0.090605065 0.0867693 0.41445515 0.30717486
-0.2644168 -0.2548412 -0.2952308 -0.06369893 -0.13775364 0.22670703 -0.035765536 0.31143516
-0.36488813 -0.2185421 0.18861994 -0.22982262 -0.10822726 0.16677384 -0.014423559 0.1214082
-0.27166915 -0.39056772 -0.25357407 -0.31849223 -0.17857303 0.14569865 0.007710985 0.35207313
-0.15488341 0.0555004 0.08107769 -0.10500458 0.10026911 -0.09890793 0.12906049 0.027838044
-0.16881205 -0.11122378 0.2040996 -0.2156612 -0.10133124 -0.27697837 -0.19046739 -0.18711725
-0.4538343 0.13360085 0.09166047 0.16198102 0.43390167 0.39691243 -0.023849286 -0.30408376
0.19318332 0.16465873 -0.040194925 -0.18873256 0.10606246 -0.1844997 0.27744225 -0.16887097
0.010388427 -0.15581405 0.20327222 0.3871772 0.28782716 0.13203076 0.27803862 0.33995357
-0.59468323 -0.3125217 -0.2996836 0.041287906 0.08161997 -0.21382846 -0.08865656 -0.49171966
-0.45871234 -0.61278903 -0.38509852 -0.44642746 -0.52332175 -0.31115234 -0.106260635 -0.41379872
0.18859231 -0.041477554 -0.06525223 0.13729435 0.08450599 -0.09387002 -0.054065242 -0.05575639
0.17625095 -0.010560883 -0.20223874 0.051687025 0.06303967 0.42978615 0.34566155 1.303967
0.21598837 0.10069814 0.27020416 0.39389688 -0.070949145 0.32457426 0.04614133 0.18872531
-0.41461396 -0.29335308 -0.13434605 0.19957212 -0.11080657 0.29029286 0.30731574 0.06705819
-0.23081566 -0.14213096 0.09341602 -0.015267469 0.14371833 0.26406798 0.06882909 -0.14615738
0.101148225 0.011737538 -0.16726904 -0.09948935 0.19669645 0.31713563 0.16524957 0.80450445
0.14707784 0.2928187 -0.004931949 0.36305457 0.48083442 0.51298106 0.31127876 -0.0019889295
-0.17001851 -0.077615656 0.009657297 0.092256494 0.10779456 0.29609966 0.30333534 -0.31604803
-0.14202555 0.008199105 0.27373898 0.076466635 0.12185282 0.005803049 -0.069987476 -0.0904108
0.39504263 0.37324497 0.5831975 0.33917525 0.30852565 0.23413637 0.3805204 0.29038632
-0.31813556 -0.04174046 -0.17135035 -0.12627658 -0.04452596 0.14719455 -0.06602387 0.21075037
-0.37900227 -0.22580802 -0.051122364 -0.012334947 -0.32303786 0.076358296 -0.21409829 0.1474608
-0.27666748 0.09423753 -0.15648906 0.07203766 -0.029609552 0.21054314 0.015533086 0.0006087949
-0.24656521 -0.21684542 -0.3613362 -0.48003128 -0.23501846 -0.23431961 0.20010452 0.37856916
-0.2101012 0.116881885 0.14279507 -0.13597159 -0.076441824 -0.09021068 -0.17115273 0.030229118
-0.5116503 0.19780749 0.1728616 0.18091147 0.35569394 0.2912015 -0.22749805 -0.5149165
-0.097333334 0.17545426 0.16477746 -0.21970388 -0.15607035 -0.007522691 0.040683944 0.17631516
0.25350988 0.24153423 -0.04241254 0.20430657 0.3275256 0.2135243 -0.13920414 -0.1857695
-0.087042436 0.26227522 0.28462958 0.025309922 0.44350755 0.50644386 0.35545677 0.2855742
0.17717355 0.40543866 -0.15775162 0.0009836041 0.31455123 -0.13537502 -0.19387121 -0.18107697
-0.5558323 -0.2825333 -0.07971325 -0.015642188 -0.01194708 0.26841718 0.19782183 -0.0014960287

bias f4 [128]
00000000: 454b 663f c8b6 6ebd e3c2 453f 4c16 e939
00000010: 9bbf e13d f2ec a23e ce1a c93e 9074 3d3d
00000020: 184f b1bd 3e9f 263e 6be5 863f aa9c 19be
00000030: afb9 a43f 93d3 973b 1492 863d 2b14 c43e
00000040: c0d5 0abf d94f d8be f2fd dcbd eb18 c3be
00000050: 2a06 673f e0fc 2f3e aa91 ad3c f56f babc
00000060: af82 91bc dfde 353d b9a3 8b3c d063 46bd
00000070: 529d 38be 7776 bcbd f376 a0be 7bfb d23b
00000080: 98ef 0a3f d9d8 39bf bc9a 0a3d 1ee4 a5be
00000090: dada ce3e 164d 9c3c b3e1 9ebe 2ea9 373e
000000a0: 38ba d23e d266 f9be 35e4 3bbf 2f79 fc3c
000000b0: 0b0f 8c3f da0b 1dbe e5a2 8d3c 8420 ebbe
000000c0: 87b3 fe3e 486b 1fbf 1eb4 40be 7caa ebbe
000000d0: 5743 44bf 8439 05bd 768b 77bb b37d d0ba
000000e0: 894b 01bc 5471 983b 242a 80bd add1 ac3c
000000f0: 3979 e43e 9fb8 a03e 92a7 153f 77f8 dc3e
00000100: 3cb0 31bf 58be dfbe b5d5 2a3f 4baa 563f
00000110: 3a4f 3bbe 0bd0 c2be 58d9 91bd ed68 3b3c
00000120: a8ee 1dbd cec1 1dbf d0d8 c03e cd3c 1dbf
00000130: c4dc ecbe 17c3 52be 24d2 893f b23d a43e
00000140: 3def 373f fe2c 96bf 89c4 a5bc 52e5 75bd
00000150: afc6 1abd 519d 77bd dd79 373f f3ef a33c
00000160: ff2c 893d a8f8 11bf 4e06 35be 7894 fe3d
00000170: 0a9d 82be 8d80 d5bd 6774 f33e 4ec9 4b3f
00000180: af10 4b3f 3774 87bf caf8 1339 4943 553f
00000190: 5b60 2a3e bbb6 003d dbc0 9abd 893e b43d
000001a0: 1433 a0bd b066 82bd 84fb 473c d0f0 95be
000001b0: 8fad 483f fa04 2dbf 6de3 273d 57fa 1dbe
000001c0: 8475 273f 9a38 b13e 6f7a 943f 4ba3 04be
000001d0: d341 afbb 3605 cb3c 3b94 2d3f 0eba 093e
000001e0: 0a46 e1bc 0897 e13e 2aa7 a6bc 637c c63e
000001f0: 77b7 0a3f 7e1d 353f ce2d ebbe 807a 1f3f
0.899586 -0.058279783 0.772505 0.00044457836 0.11022874 0.318214 0.39278263 0.04625374
-0.08657664 0.16271684 1.0538763 -0.15001169 1.2869166 0.004633376 0.06570831 0.38296637
-0.54232407 -0.4224842 -0.10790624 -0.38104948 0.9024378 0.17186308 0.021187622 -0.022758463
-0.01776251 0.044402 0.017045842 -0.048435032 -0.18028763 -0.09202283 -0.3134075 0.00643867
0.5427184 -0.7259651 0.033838972 -0.32400602 0.40401345 0.019079726 -0.3103157 0.1793563
0.411577 -0.48711258 -0.7339509 0.030819504 1.0942091 -0.15336552 0.017289588 -0.45923245
0.49746343 -0.62273073 -0.18818709 -0.46028507 -0.7666525 -0.032525554 -0.0037772334 -0.0015906602
-0.007891544 0.0046521816 -0.06258038 0.021096075 0.44623736 0.31390855 0.58458817 0.43158314
-0.6940954 -0.43699908 0.6673234 0.83853596 -0.18291941 -0.3804935 -0.07121533 0.0114385905
-0.03855768 -0.6162385 0.37665415 -0.614209 -0.4626218 -0.20582233 1.0767255 0.3207832
0.71849424 -1.173248 -0.020235317 -0.06003315 -0.037787136 -0.060452763 0.71670324 0.020011878
0.066980354 -0.57020044 -0.17678186 0.12430662 -0.25510436 -0.1042491 0.47549745 0.7960404
0.7932233 -1.0582341 0.00014111694 0.83305794 0.16638319 0.031424265 -0.075563155 0.0880099
-0.078222424 -0.06367242 0.012205962 -0.29285288 0.7838983 -0.6758572 0.040988375 -0.15427528
0.6541369 0.34613496 1.1599864 -0.12952916 -0.005348423 0.024782758 0.67804307 0.1344988
-0.027499218 0.4406054 -0.020343382 0.38766775 0.54186195 0.70748127 -0.45933384 0.62296295

weight f4 [128, 128]
00000000: 74a9 3fbe e6cb f03d 314d d03d 4811 58bd
00000010: 7d89 613e c850 3a3f 130a 9fbd 9a2f ae3f
00000020: 3384 6e3c cb84 033f c750 95be 7964 f0bc
00000030: 309c 3f3d c7a3 793d 835b 823c 227d cfbe
00000040: a30b 60bf 660e 9cbc 72f8 e6be ad67 38be
00000050: c730 a13f 4c8b 9e3e 3d10 0d3d e360 cdbe
00000060: 6862 063e 4c4c b0bd 64e3 223e e5d5 bfbd
00000070: 511a b53f bef3 5dbe 84e7 d1bd 57bd 3fbe
00000080: 7d72 cabc d7d5 33bf 7c2e bebe d00d 83bb
00000090: cd40 443e 139b ccbe dcb8 d63d de95 e0bc
000000a0: 9eb2 d13e 048b d4bd cd82 96be fc6f fa3e
000000b0: b98c 573f 6e08 1cbe 35ac 213f 44bc 84bd
000000c0: 2aa2 00be 00f2 ccbe 5233 d73d bad3 e6bd
000000d0: a7f6 25be 2a4e 12bd 9fff 63be 5e89 073e
000000e0: 7a5a 32be a81e 9f3e f38f 063e fbed a1be
000000f0: fd2d 3e3e 40fc 0ebe aeaf 82be e44a a53e
00000100: 8367 79bf 8024 8bbe 9f99 863e e327 ef3d
00000110: 149b 8bbf 6299 193e 2664 49be 7ab2 afbe
00000120: 4eee c4bd 6fd4 63bf f9b6 8dbe 8dad 2bbf
00000130: 71aa a43c 8305 823e a3c6 083e 993f ba3d
00000140: 2acf c4be f3ec 42bf f32d 30be 7cb7 953d
00000150: 2656 8abe 0e1a 36be 9828 343e 1a0b 90bc
00000160: bbc5 2fbe 3534 7cbf a5f3 353d cb72 053e
00000170: 52e9 50bf 9810 883d a38f 25be b053 89bd
00000180: 1249 0b3e db41 b1be 401d f9bb 2a16 6e3e
00000190: 6dcc ba3d dc7e 9bbe 08c2 df3d 7ea8 ffbd
000001a0: cbce 3e3e db68 88bd e923 463f c7a3 75be
000001b0: c7d3 e63d 0be0 14bf 36ea 08be 757c d5be
000001c0: 1d63 093e e8e9 7a3e 1391 113f f3b5 da3c
000001d0: 8708 8e3d 1b73 90bf a70c 273f fc64 9f3d
000001e0: f035 643e db40 6abe d5c5 0fbd 87cb a0be
000001f0: 2911 bdbe 57a3 1e3f c9de c4be 32ea fe3d
00000200: fd01 d2bd 9b8e b53d 24be 2f3e 651d 1f3e
00000210: 7ca7 61be 72e8 b3be dafe dbbd 582c 7c3d
00000220: e4ff 6bbc 490c 6c3d 5ca4 8cbd 517c 0fbe
00000230: 44f4 1c3e 2d62 503c 56f3 4cbe f2f8 0ebe
00000240: acd6 1bbe 91b9 163d db1c 293e b56c 98bd
00000250: ac0a bebd 5b8f 56bd e9aa ec3d 56a1 fcbd
00000260: 6d6a 34bd df5c 1b3e b051 8abd a5dc 7f3d
00000270: f7f0 713e 65c1 0ebe 438f 193e d332 0f3e
00000280: 1a24 44bd 7d45 d83d 7a28 83bd a73c f23d
00000290: 8891 123d 287a 1f3d 2820 243e 9725 c73d
000002a0: 20a2 e43e a1a7 1bbe 66a4 ae3d 0a33 6a3e
000002b0: 3086 103d 2a63 b8bb 6a2a 403e 1abd c9bd
000002c0: dea3 a1bd 4217 c1bd ef49 483d c279 0ebe
000002d0: 5143 44be 32c0 0e3d 58c6 84be 4ea5 393d
000002e0: 87bd 423e be1d aebe aded a5bb 8289 933e
000002f0: 4f32 2c3d 33d4 a53d 9efe 89bc 2735 a53d
00000300: 34a9 83bc e3a6 2fbe 1b1c 533d 4c7c 97bc
00000310: dc4a a33e 5d4b d03d 71fc 993b 5fe2 963c
00000320: c5c0 e4bd 6830 54bd 12e0 983d a62a c2bd
00000330: 8a02 ff3d 866e 4f3b 63ab f23d 07b9 113e
00000340: 1a33 343e 7f87 063e 4903 8fbd 10e7 643e
00000350: e627 88bd 59ca f13c 4e84 123e c68d 863c
00000360: 35cd 13be 0101 3ebe d305 c33c 00d4 813d
00000370: 0cef 973b 3d27 fe3d 97b4 a0bd f4b1 debd
00000380: cd66 f43c 7fc4 cf3e 1a26 99bd a050 0bbe
00000390: 7ff1 5fbe 7d53 0f3e ebbc 1e3e d2af 00bd
000003a0: 829f 803e d279 07be b3cf bd3e 2098 8bbd
000003b0: 252a 413e ed4a 1fbd 4219 853d 6b9e 6dbe
000003c0: a543 453e 1286 603d 4fa7 db3e b7ae cc3d
000003d0: 594a f93e d311 7f3e 4433 823d 9ce4 193e
000003e0: d5ed 18bd 2ce1 c9bc 0514 523e 80ab 10be
000003f0: 05c3 543f 3a59 e63d 43f1 a8bb 5440 3ebd
-0.18716985 0.117576405 0.10170973 -0.052750856 0.22025104 0.7277951 -0.077655934 1.3608277
0.014557886 0.513745 -0.2916319 -0.029344784 0.04677981 0.060947206 0.015912777 -0.40525156
-0.87517756 -0.019049834 -0.45111424 -0.18008299 1.2593011 0.3096565 0.034439314 -0.4011298
0.13123477 -0.086083025 0.15907055 -0.09366969 1.4148656 -0.21675012 -0.10249236 -0.18724571
-0.024712795 -0.7024817 -0.3714484 -0.0039994493 0.19165345 -0.39962062 0.10484478 -0.027415212
0.40956587 -0.103780776 -0.29396668 0.48913562 0.841991 -0.1523759 0.6315339 -0.06481221
-0.1256186 -0.4002838 0.105078354 -0.112708524 -0.16207372 -0.035719074 -0.2226548 0.13235995
-0.17417327 0.31078076 0.1314085 -0.31626877 0.1857223 -0.13963413 -0.25524658 0.322837
-0.9742357 -0.27176285 0.2628908 0.1167753 -1.0906701 0.14999917 -0.1966711 -0.34315854
-0.096157655 -0.8899602 -0.2767866 -0.6706169 0.020100804 0.2539483 0.13357024 0.090941615
-0.38439304 -0.76142806 -0.17205028 0.073103875 -0.2701885 -0.17783377 0.1759361 -0.017583419
-0.17165272 -0.9851716 0.04442181 0.13032071 -0.8160602 0.0664379 -0.16168074 -0.06705415
0.13602093 -0.34620556 -0.007602364 0.23250642 0.091210224 -0.30370224 0.109256804 -0.12483309
0.18633573 -0.066606246 0.77398545 -0.23988257 0.11270862 -0.5815436 -0.13370594 -0.41696516
0.13416715 0.2450329 0.5686199 0.026698088 0.0693522 -1.1285127 0.6525368 0.07782933
0.222862 -0.22876303 -0.035100777 -0.3140528 -0.36927155 0.61967987 -0.38451222 0.12447013
-0.102542855 0.088650905 0.17162377 0.15538557 -0.22036546 -0.3513828 -0.107419685 0.061565727
-0.014404271 0.057628904 -0.068672866 -0.14012267 0.15327555 0.012718719 -0.200147 -0.13962153
-0.1521861 0.036798064 0.16514914 -0.07442609 -0.09279379 -0.05238281 0.11556036 -0.1233546
-0.044046808 0.15172146 -0.06753862 0.062466282 0.23627077 -0.13940962 0.14996056 0.13984232
-0.04788599 0.10560129 -0.06404205 0.11827975 0.03578332 0.038934857 0.16027892 0.097239666
0.44654942 -0.15200664 0.0852745 0.22871032 0.03528422 -0.0056270557 0.1876618 -0.098505214
-0.07892583 -0.09428264 0.048898634 -0.13913634 -0.19166304 0.03485126 -0.25932574 0.045323662
0.19017611 -0.34007066 -0.0050637336 0.28815848 0.042040166 0.080971144 -0.016845044 0.08066779
-0.016071893 -0.17153506 0.051540475 -0.018491887 0.3189305 0.101706244 0.004699283 0.018418489
-0.1116958 -0.051803976 0.07464613 -0.09480791 0.12451656 0.003165157 0.11849096 0.14230739
0.17597619 0.13137625 -0.069830485 0.22353768 -0.06648235 0.029515432 0.14308283 0.016425025
-0.14433749 -0.1855507 0.023806488 0.06339264 0.004636651 0.12409828 -0.07846945 -0.108737856
0.029834175 0.40579602 -0.074779704 -0.13604975 -0.21869467 0.13996692 0.15501754 -0.031417675
0.25121695 -0.13230065 0.37072524 -0.06816125 0.18863733 -0.038889814 0.06498958 -0.23204963
0.19264086 0.05481536 0.42901084 0.09994262 0.48689535 0.24909143 0.063574344 0.15028614
-0.03733619 -0.024643503 0.2051545 -0.14127922 0.83110076 0.11247487 -0.0051557138 -0.046448067

bias f4 [128]
00000000: d30c a13e 8d23 7dbe 02dc d8bd b66b d83d
00000010: 287b d83b 04df 49be 4739 7ebe 8175 5f3f
00000020: 170c 3b3e 3d50 793e d3c6 d93e 4599 5f3e
00000030: 0b6d 0fbd 3efc f23d 0187 5ebe 48ce 3f3e
00000040: 51ad a73c b69b 0e3d bd1c bcbd fa2f 52be
00000050: 89d1 833d a120 973d 6624 423e 7f3c 493e
00000060: 75d8 173e 71cf 5abe e086 0fbc 4702 703d
00000070: 7d60 2b3e da7b 343f 4e43 d63e f479 ab3e
00000080: 23e3 013d 4ba5 d1bd 8ee1 53be 9a37 a6bd
00000090: 2569 53bc a8f3 45bd 1ba2 6e3e 5524 0f3e
000000a0: c080 55bd 7c22 efbd 8ebd ebbe 92cd 8a3c
000000b0: 6df8 c43d c9af 07bf 6e97 303e 40cc a0bc
000000c0: 79e0 0dbe 7e4c 11be bfce f23e 5a06 d4bd
000000d0: 897c bebc 2bf3 0a3e bb47 b73e 7b11 0bbf
000000e0: 3c9e 30be 7613 99be cc87 f2bd 36a4 dfbe
000000f0: 88b8 61be badd f7bc 1c34 b3bd 14b5 d0bc
00000100: c480 abbd 2092 ebbe 2759 863d b8d7 a5be
00000110: 0009 0c3e 4f73 a4bd d6e9 d23c c105 9dbd
00000120: 6d70 9f3d 7e41 4f3e c9d9 c1bd b3e2 d6bb
00000130: 2231 3e3d f824 bb3e 78cc 00bf 47e1 c3bd
00000140: 2f24 203d d016 72be 15f8 8a3e 8eb9 a33e
00000150: d014 f9be 73ad 2e3e f125 af3d 4848 173f
00000160: bd12 9fbd fada 73bd bda4 533e 9b5a 28bd
00000170: 6d14 6abe c2c3 c13e 4544 48be 52fb 85bd
00000180: 4e09 0b3e ac1a 8b3d 22aa a5bc b68e 2cbf
00000190: 5174 113d a13e 073e 1a47 edbd 6334 223f
000001a0: 595b 0e3e 0714 153d 8461 243f 947a 17bd
000001b0: 1dc8 93be a5b1 96be c3b3 d13e 9cd4 7bbe
000001c0: 82e3 973e 97c6 78be 88ac 893e eb06 1d3e
000001d0: 58d8 c83d ce66 d43e 5069 76be 66f4 003f
000001e0: 9fcd 01bf 4562 b23e f8d8 23bf 8fdc 0dbd
000001f0: f80e c5be 601b 21be 81b7 8bbe b213 45bd
0.31455097 -0.24720593 -0.10588838 0.10567419 0.0066064782 -0.1971398 -0.24826537 0.8728867
0.1826633 0.24347015 0.42534503 0.21835811 -0.0350161 0.11864518 -0.21731187 0.18731034
0.020468386 0.034816466 -0.09185169 -0.20526114 0.0643645 0.0737927 0.18959197 0.19651984
0.14828666 -0.21368195 -0.008760184 0.05859592 0.16736026 0.7050148 0.41848224 0.3349148
0.031710755 -0.10236605 -0.20691511 -0.08116074 -0.012903486 -0.04832807 0.23304026 0.13978703
-0.05212474 -0.11676499 -0.46043056 0.016943727 0.09617696 -0.530026 0.17245266 -0.019628644
-0.13855161 -0.14189336 0.4742336 -0.10352774 -0.023252742 0.13569324 0.35796914 -0.5432355
-0.17247862 -0.2989766 -0.118423074 -0.4367997 -0.2204305 -0.030257095 -0.087501734 -0.02547697
-0.083741695 -0.46009922 0.06559973 -0.32391143 0.13675308 -0.08029806 0.025746267 -0.07667113
0.077851154 0.20239827 -0.09465367 -0.0065577864 0.046433575 0.36551642 -0.50311995 -0.095644526
0.039097007 -0.23641515 0.27142397 0.31977504 -0.4864869 0.17058353 0.085521586 0.5909467
-0.07767246 -0.059535004 0.20668311 -0.041102033 -0.22859354 0.37844664 -0.19557293 -0.06542076
0.13577768 0.06792197 -0.020222727 -0.6740526 0.03551132 0.13207485 -0.11585827 0.63361186
0.13902034 0.036396053 0.642113 -0.036982134 -0.28863612 -0.29432407 0.4095746 -0.24592823
0.29665762 -0.24294506 0.26889443 0.1533467 0.09806889 0.41484684 -0.24063611 0.5037292
-0.5070438 0.348406 -0.64002943 -0.03463417 -0.38487983 -0.15733099 -0.2728844 -0.048114486

weight f4 [128, 128]
00000000: 0907 67bd a520 573e 8786 59be 839a 093e
00000010: d5d9 493e 9f8c 843e 6a39 75be e873 a53d
00000020: 777b 9d3d 65a6 85be ca25 ac3d d1b1 11bf
00000030: 5101 86bd 1da9 103e 13ec 683e f064 fa3d
00000040: b52e abbd c9fb 8c3e 6ae4 30bd b17c 0cbd
00000050: 6c1b 4f3e 7918 a63d 5991 063f 5692 883e
00000060: 4d55 9b3c dc4d 8abd 7300 373e 5b31 993d
00000070: aeab ddbd 3c59 cb3e 1657 c2bf a6f0 223d
00000080: 8da5 3cbf cf2b 5ebd e831 c7be 64c5 83be
00000090: b262 cebe ebd7 233e 20fa 49be c9bb ecbf
000000a0: 8795 51be d5ec e1be 5ac4 5ebe e114 cb3d
000000b0: d1ec c13d 29dd c4bf 7122 3cbf 7a87 8dbb
000000c0: 3494 1a3d 99f4 333e 223f 713e dccd 023e
000000d0: 1b8c da3e 3ed0 583e ee40 ee3e 04bd 99be
000000e0: a5a4 71be 6cdc bdbd 74ce 993e 6afd 69be
000000f0: 995d bf3e bf3b 7e3e f5ab d73d 6294 073f
00000100: 3887 9abe 582d 43be b28a 393f 200c 573d
00000110: 2a62 8f3f 4739 2cbe 21cc 68bd 0290 ddbc
00000120: f8ec 413e ce52 303e 65d9 88be 8e49 a3be
00000130: ad3e dabe ab71 903e 7edf a9be 9bb8 023f
00000140: b2c5 1f3e 0696 b9be 7dd7 993e ce06 143d
00000150: c9cd 08be c57f 33bd 59b0 ccbc b236 7c3e
00000160: c886 95be 539e f3bd 6f15 d13e f4b1 c53c
00000170: 6e8f 403d be99 673d b728 d4be 740e 74be
00000180: a6a8 58be 1062 85be 5a03 96be f066 b9bd
00000190: a04f 8fbf bcad febe 478d 8b3d a386 f73e
000001a0: bc85 61be 69b4 07bf ee6e 4f3e 3261 8ebd
000001b0: 6270 8bbd 746b e8bc b64c 2d3e 0df7 d7be
000001c0: 9fad f33d 1f4e 753f c577 2ebf 4155 383e
000001d0: 14c6 37be f029 89bd d754 60be 809a 843e
000001e0: fcc0 293e d691 9e3e 10dc b0bd 2c96 05bc
000001f0: a233 0a3f d1ab d7be 82a4 edbd ccb2 2abe
00000200: bf96 8dbd e7f5 123f 5840 08bf 0224 663e
00000210: 8662 3fbe 054e 0b3e ceb5 6dbf 2c62 dcbd
00000220: 437c ea3e fef0 8abe b800 653d 4620 4ebd
00000230: d21e 063e a473 30bf 0647 4cbd 967e 8fbc
00000240: 76e5 64c0 1548 913e 9e47 483c 9c1b 7ebe
00000250: 8a80 9bbd 9238 cc3d 2117 f6be f658 cb3e
00000260: 29a2 a1be 3634 debd 7536 55be f903 d2bf
00000270: 3387 f0be 1bd4 03be 3ad0 2bbf 9a71 2a3e
00000280: e90e 2c3f 22d7 063f 2fe4 ba3f 0c61 a33d
00000290: 3201 393f dc03 e2be b5c0 5a3e c3f1 86be
000002a0: 4a6a bfbe dc89 a63d 5b63 4c3e a58c a83e
000002b0: 462f c9bd f7a4 853e 7fdf 8dbd c1b3 ca3e
000002c0: fa1d 363f 921a a93d ce6b 043e ff73 763e
000002d0: ac30 8b3d 4d40 af3e f531 1e3d 148b d1be
000002e0: 71bb 3a3e 295a 63bd ee32 86be 22ec 053f
000002f0: 07fa bfbc 8f3f 743f 51c1 d9be 2c23 12bf
00000300: bc65 f43e d5c3 09bf 1b49 22bd 489e 023f
00000310: 22b3 d7bf 7a37 063d 101a 13bf 9d05 7d3d
00000320: 0b8d c1be 99c1 5fbe 2913 07be e035 2fbd
00000330: e405 0fbf 2de5 a53e 2b9e 70be 9a30 173e
00000340: e633 cc3c acc9 b4be fef3 8e3e 0c4c a4be
00000350: cf20 2dbe fab0 75be f893 503e bd00 003e
00000360: c5ff 64be cbff adbe 4230 40be 4470 8f3e
00000370: 9423 8d3c 3fc8 a63c a519 8d3e 3607 6d3d
00000380: 02c9 cf3e 18a6 3bbe c5fc 163e 57da 20bd
00000390: baaa c6be 7f38 afbd 88cf cbbe e592 83be
000003a0: 9b58 9c3e 8520 1cbe 4288 4abd 4b48 5fbf
000003b0: 4b20 013f 5e95 903d d238 4d3e 6af0 efbc
000003c0: ae48 1f3e bb2c 783e da48 e23e fc31 5abf
000003d0: 74f4 323f 58d0 03bd 7cd3 47be e10a 713d
000003e0: 3679 793f 4788 4ebe fdc0 a6be 73c3 b3be
000003f0: 17b1 2ebe 49ac 84bf 9cb9 5f3e 30ec 883e
-0.056403194 0.21008547 -0.21242724 0.13437848 0.19712003 0.25888535 -0.23947683 0.08078748
0.07689565 -0.2610351 0.08405645 -0.5691195 -0.0654322 0.14127012 0.22746305 0.122262836
-0.08358518 0.27535847 -0.043186583 -0.034298602 0.20225304 0.081101365 0.5256553 0.26674145
0.018961573 -0.06753132 0.17871265 0.07480117 -0.10823761 0.39716518 -1.5182827 0.03978028
-0.7369011 -0.054240998 -0.38905263 -0.25736535 -0.40309674 0.16000335 -0.19724321 -1.8494807
-0.20467196 -0.44126 -0.2175459 0.09916092 0.09468997 -1.5379993 -0.73490053 -0.0043191286
0.037738994 0.17573775 0.2355924 0.12773842 0.42685017 0.21173188 0.46533912 -0.3002702
-0.23597963 -0.09270558 0.30040324 -0.22850576 0.37376097 0.24827479 0.10530845 0.5296079
-0.3018129 -0.19060266 0.7247726 0.052501798 1.1201832 -0.16818725 -0.056835297 -0.027046207
0.18938053 0.17219087 -0.2672836 -0.31892055 -0.42625943 0.28211722 -0.33178324 0.51062936
0.15602759 -0.3624727 0.30047217 0.036139302 -0.13359751 -0.043823022 -0.024986433 0.2463024
-0.29204392 -0.11895432 0.40836665 0.024132706 0.047011785 0.056543104 -0.41437313 -0.23833638
-0.21158084 -0.26051378 -0.29299432 -0.09052837 -1.1196175 -0.49741924 0.06814056 0.48344907
-0.22023672 -0.5300966 0.2025716 -0.06952132 -0.06808545 -0.02837155 0.16923794 -0.42180672
0.1189835 0.9582233 -0.68151504 0.18001272 -0.17946655 -0.06697452 -0.21907364 0.25899124
0.16577524 0.3097064 -0.086357236 -0.00815348 0.53985035 -0.42123273 -0.11603643 -0.16669768
-0.06913518 0.5740647 -0.5322318 0.22474673 -0.18689927 0.13603981 -0.92855537 -0.10760912
0.4579793 -0.27136987 0.05590889 -0.050323747 0.13097695 -0.68926454 -0.04987242 -0.017516416
-3.5765052 0.28375307 0.012224106 -0.2481522 -0.07592876 0.099717274 -0.4806452 0.3971631
-0.3156903 -0.10849802 -0.20821555 -1.6407462 -0.4697815 -0.1287388 -0.67114604 0.16644898
0.6721025 0.52672017 1.4600886 0.079774946 0.7226745 -0.4414357 0.21362574 -0.26356325
-0.3738578 0.08131763 0.19959776 0.32919803 -0.0982347 0.2610242 -0.06927394 0.39590266
0.7113949 0.08257021 0.12931749 0.24067686 0.06796393 0.34228745 0.03862186 -0.4092642
0.18235566 -0.055505905 -0.2621073 0.52313435 -0.023434652 0.9540948 -0.425303 -0.5708492
0.47733867 -0.5381444 -0.0396205 0.5102277 -1.6851542 0.03276775 -0.57461643 0.06177293
-0.3780292 -0.21851195 -0.13190903 -0.04277599 -0.55868363 0.3240141 -0.23497836 0.14764634
0.02492709 -0.35310113 0.27920526 -0.3208927 -0.16907047 -0.23993292 0.20368946 0.12500282
-0.22363193 -0.33984217 -0.18768409 0.2801534 0.017228879 0.020359157 0.27558628 0.057868205
0.40583044 -0.18325078 0.14744861 -0.039270725 -0.3880213 -0.08555698 -0.3980677 -0.2569801
0.3053635 -0.1524678 -0.04944635 -0.87219685 0.504399 0.070597395 0.20041206 -0.029289443
0.15555069 0.24235813 0.44196206 -0.8523252 0.69904256 -0.032181114 -0.19514269 0.058848266
0.9745058 -0.20169173 -0.32569113 -0.35110053 -0.17059742 -1.0365077 0.21848148 0.26742697

bias f4 [128]
00000000: 09ac 8a3e b1a4 bfbd 7d11 d7bd d384 823e
00000010: a0d0 043e 90af b0be e239 e53e 182f 33bf
00000020: f8ab 823f 7f5d 2c3d 73d0 2cbf 2250 b5be
00000030: 2941 0f3f 19c5 923d 17fb 1cbe b0e8 943f
00000040: 4281 0b3f df06 46be 26bc 90be 5f74 04be
00000050: ee9b 66be 7604 7bbf 1acb dcbe 9218 8dbc
00000060: 574b d93e f2c9 af3e d39b e93d a5b4 fc3e
00000070: 19e3 c9be cf97 64be 6b7f 9abe 2dd4 cc3e
00000080: b595 0dbf 88d5 6f3e 38ae 113e d619 2fbf
00000090: f1c2 27bf a87c 98be fc3c a73e b1bc b4be
000000a0: 940c f93d 8120 243f edb2 d53c f1f4 f0be
000000b0: 4c91 233f 387e 1ebe 8d7a dc3d f73a e93e
000000c0: 96ac c0be a525 543d 427b 503d 6931 163e
000000d0: 80f3 153f 7988 cf3e f9bd 4b3e 192a 0d3d
000000e0: f26b 01be 59d9 8dbe a05e cd3e 98e1 2e3e
000000f0: 500e c4be bf81 95ba 7527 9d3e 39a5 ccbe
00000100: cbfe 4dbe 5973 7e3e 840d 16be 94cd 1dbf
00000110: 7368 d53e 82f0 883e 77ee 4d3f 993b cc3e
00000120: 8125 7fbf 73c5 acbd 839e 12bf 2778 db3e
00000130: 1dbd 56bf 8c86 b73e b13e 093e 7431 2cbd
00000140: 40af c2be 1dcc 9c3f afd0 94be 0ae0 22bf
00000150: f417 e4be 114a db3e c88c 61bf 1501 cebe
00000160: 2536 d2be 398e fabc adc6 433f 67ef 013b
00000170: db16 233f f2fe 80bf 8aa1 953e 6c83 503e
00000180: 14c8 02be 4592 063f f73a d23d d4f2 703e
00000190: 99f5 0c3d 8967 2e3b 74fa 6a3e a7b4 1ebd
000001a0: a77b 73bc c242 8bbc 5fe9 4c3e a4d4 22be
000001b0: fe21 65bf 915d 08be 692e 11bf 6d19 4dbe
000001c0: 7778 15bf 8903 2bbf 2ecd dbbd d32b d5be
000001d0: 4bf5 5cbf 5cfb 263e 6fd9 efbc 4367 bcbd
000001e0: 879a 37be a7e8 2a3f 1092 e0be c334 ca3e
000001f0: dc6f 4fbe 8779 463e 7d59 f83e 1b12 d5be
0.27084377 -0.09357584 -0.105013825 0.25491962 0.12970209 -0.34508944 0.44770724 -0.69993734
1.0208731 0.042081352 -0.6750557 -0.354127 0.559588 0.071665 -0.15330158 1.163351
0.54494107 -0.19338559 -0.28268546 -0.12935017 -0.2252042 -0.9805368 -0.43123704 -0.01722363
0.42440292 0.3433376 0.11406674 0.4935657 -0.39431074 -0.22323535 -0.30175337 0.40005627
-0.5530656 0.234213 0.14226615 -0.683988 -0.6553183 -0.29782605 0.32663715 -0.3530021
0.12160602 0.641121 0.026086295 -0.47061875 0.6389358 -0.15477836 0.10765562 0.455528
-0.37631673 0.051793713 0.050898798 0.14667286 0.58574677 0.40533808 0.19896688 0.034463976
-0.12638834 -0.27704886 0.40111256 0.17078245 -0.3829217 -0.0011406465 0.30694166 -0.39969805
-0.20116727 0.24848689 -0.14653593 -0.6164181 0.4168125 0.26745993 0.80441993 0.3988922
-0.996666 -0.08436098 -0.5727312 0.42865106 -0.83882314 0.3584484 0.13402821 -0.04203935
-0.3802433 1.224979 -0.29065463 -0.63623106 -0.44549525 0.42829946 -0.8810544 -0.402352
-0.41056934 -0.030585395 0.7647503 0.0019826533 0.6370675 -1.0077803 0.29224807 0.20362633
-0.12771636 0.5256694 0.10265153 0.23530132 0.034413908 0.0026612005 0.22947103 -0.038746502
-0.014861024 -0.016999606 0.20010899 -0.15901428 -0.8950499 -0.13316943 -0.5671144 -0.2002923
-0.5838694 -0.6680227 -0.10732494 -0.41634998 -0.8631179 0.16306823 -0.029278485 -0.09199383
-0.17930041 0.6676125 -0.43861437 0.3949338 -0.20257515 0.19382297 0.48505774 -0.41615376

weight f4 [1, 128]
00000000: 93ce 16bf 4602 0cbf 8e53 fe3e b87f 9b3f
00000010: 7ded c33f a7a9 a63e b665 29bf 224c 033f
00000020: 43f8 9bbf 7ffc ee3e d069 b83e 3174 ccbe
00000030: 2e2d 563f 0a15 863e adc8 c33e c7b8 27bf
00000040: 10c0 35bf 9c8a 20bf 36db 3e3f a763 f0be
00000050: 1fec 3f3f 377e 213e 19ac 603f 2028 66bf
00000060: 6bd3 2cbe 5b67 eb3e 05b5 62bf 7c94 d6be
00000070: ec0c 9d3e 1cca c23e fb3e 82bf abe1 37c0
00000080: 7e64 6e3f 4173 78bf 24fd 18bf 6034 bf3e
00000090: 5c27 f03e 0a44 503f 086e 6cbf dffa f0be
000000a0: 7e1a 39bf 1aaa 5a3f a264 83bf aa70 6ebe
000000b0: a242 cebe 608e 7abe 7489 193f b23b e73e
000000c0: 857e 123f df4c 47bf 472f 6fbf b3f9 a1be
000000d0: cafe 93bf b812 6fbe ae3f cebe 22aa 76bf
000000e0: c3b1 203e a97b 3c3f 3fb9 fc3f f109 593f
000000f0: f53b 963f 8c05 b9bf f402 66be 547e c6be
00000100: 99d2 643f 3d2c 543f b494 59c0 2eb8 80bf
00000110: 35d3 d8be 14cc 0fbf ddaa 46bf e55a d7be
00000120: 5cfc 45bf 8918 d5bf 1592 453f e8c9 f7be
00000130: 354a 083f 9ce0 f7be 36e2 cc3f 6196 54bf
00000140: 2840 053f 5f25 42bf 76cb 3bbf f2bc 40bf
00000150: 2fae f03e c5ae 48c0 c055 663e d190 83be
00000160: 2711 f43e 3ade 84bf 0319 cebe 6fe4 bd3f
00000170: f3fd 07bf ddf5 a23f 783f bf3f a1dd f8be
00000180: ef51 873f 7a49 793f 318d 98bf b51e 6fbf
00000190: c589 59be 156f 6ebf 4ba0 26bf e9e4 253f
000001a0: 14dd 113e d28f 4fbf 9857 323f 8bb7 193f
000001b0: 5df2 523f 4173 b2be a6d2 ac3e c9bd 23bf
000001c0: cdd5 ea3e 329b cd3e c8d4 593f 49ed e43e
000001d0: 4362 c73d aa8d 133f 3941 2a3f e8a2 1cc0
000001e0: fde6 193f beae 3a3f b0eb 5e3f 780d 33bf
000001f0: 3f13 6fbf 84fc d1be 3e76 543f 3b2f e23e
-0.5890896 -0.5469097 0.49673122 1.2148352 1.5306851 0.3255131 -0.66170824 0.51288044
-1.2185138 0.46677014 0.3601823 -0.39932397 0.8366269 0.26187927 0.3823904 -0.6551632
-0.7099619 -0.627115 0.7455324 -0.4695103 0.7496967 0.15770803 0.877626 -0.89904976
-0.16877525 0.4597729 -0.88557464 -0.4191016 0.3067392 0.38044822 -1.017547 -2.8731487
0.9312209 -0.97050864 -0.5976126 0.37344646 0.4690503 0.8135382 -0.92355394 -0.470664
-0.7230605 0.85415804 -1.0265086 -0.23285165 -0.40285212 -0.24468374 0.5997536 0.4516273
0.57224303 -0.7785167 -0.93431515 -0.31635818 -1.156213 -0.23346984 -0.4028296 -0.9635335
0.1569281 0.7362619 1.9744033 0.84780794 1.1737047 -1.4454818 -0.22462064 -0.38768256
0.89383847 0.8288 -3.399701 -1.0056207 -0.42348638 -0.56170774 -0.77604467 -0.42061535
-0.77338195 -1.6648113 0.7717603 -0.4839623 0.5323823 -0.4841355 1.6006534 -0.8304196
0.5205102 -0.75838274 -0.7335733 -0.7528831 0.47007892 -3.135667 0.22493649 -0.25696424
0.47669336 -1.0380318 -0.40253457 1.4835337 -0.5312187 1.2731282 1.4941244 -0.4860659
1.0571879 0.9737774 -1.1918088 -0.9340623 -0.21243961 -0.9313825 -0.6508834 0.64802414
0.14244491 -0.8107883 0.6966491 0.6004569 0.82401067 -0.34853557 0.33754462 -0.63961464
0.45866242 0.40157467 0.85090303 0.44712284 0.09735539 0.5763804 0.6650577 -2.447443
0.60118085 0.72922885 0.8707838 -0.69942427 -0.9338874 -0.41012967 0.82992923 0.4417666
