robot_rcs_models/actuators/mlp_jit_1307e_6_50000.pt (torch, 48211 bytes, 7 tensors)

weight f4 [64, 12]
000000 a7 97 51 3f be d6 ec 3e 11 9a 10 3e eb 83 41 3e
       0.8187203 0.46257585 0.14121272 0.18897979
000010 61 04 76 3e 59 f8 40 be 6f 73 98 bc 7d 6b 67 bc
       0.24025108 -0.18844737 -0.01860973 -0.014124748
000020 5d 68 9a bd 08 6a f5 bc 7c 82 ec bc a6 bf 5c 3d
       -0.07539437 -0.029957786 -0.028870814 0.053893708
000030 ae 85 2b 40 08 10 e4 3f c9 d4 9b 3f 77 5e 06 c0
       2.6800342 1.7817392 1.2174312 -2.0995157
000040 c0 02 32 c0 41 bd 63 c0 6f 79 34 3e 65 b7 d4 3e
       -2.7814178 -3.5584261 0.17624448 0.4154617
000050 5e 3f 13 3f 4d fd b4 bd e2 0b 52 be 8f 64 70 3f
       0.57518566 -0.08837376 -0.20512345 0.9390344
000060 6b b3 72 3f 8d 2c f6 3e 7d 19 85 3e 9c 19 b3 be
       0.9480502 0.48080865 0.2599601 -0.34980476
000070 46 4d fd be 23 17 84 bf ce 03 86 be 24 23 3d be
       -0.49473017 -1.0319561 -0.26174778 -0.18470436
000080 d6 6b 8c bc 04 56 78 3c 78 c5 cf 3d d3 28 37 be
       -0.017141264 0.0151572265 0.10145086 -0.17886667
000090 ea d3 38 40 73 ff 06 40 78 51 ee be c1 81 e6 bf
       2.8879342 2.1093414 -0.4654653 -1.8008348
0000a0 9d 0e 3c c0 49 02 38 c0 86 a4 0b bf 84 24 9d 3e
       -2.938392 -2.8751395 -0.5454792 0.30691922
0000b0 11 6d 10 3f 41 8b 5a 3f a9 6e 5c 3d 94 26 e2 3f
       0.5641642 0.85368735 0.05381647 1.7668023
0000c0 83 67 be be 9e d6 5d bf a0 fc 40 bf c3 f3 96 be
       -0.37188348 -0.86655605 -0.75385475 -0.2948285
0000d0 b5 b1 e7 be cc 59 05 bb f0 e5 47 3d 63 ce 5b bd
       -0.45252767 -0.0020347713 0.04880327 -0.053663623
0000e0 5a 2c a7 bd 18 96 40 be 21 8e 9f 3d 54 ee cc 3e
       -0.08162756 -0.18807256 0.07790781 0.4002558
0000f0 8c 78 bb be e3 cf 5c be c3 ab 1f be 3a 12 19 be
       -0.36615407 -0.21563677 -0.15592866 -0.14948359
000100 1a 34 2a bd 57 92 a1 3e 03 24 85 3d 40 7e b6 bc
       -0.041553594 0.3155696 0.06501009 -0.022276998
000110 64 cd fb 3d 49 f1 e5 3c dd 42 38 bd 11 1a e7 bd
       0.122950345 0.028069155 -0.04498564 -0.11284269
000120 08 58 7c 3f 05 66 40 3f 2a 8f 3c 3f ba b2 cc 3e
       0.98571825 0.7515567 0.7365595 0.39980108
000130 bf d3 19 3e 47 9a 6a bd 19 02 dd 3c 53 f5 4f 3c
       0.15022181 -0.057276037 0.02697854 0.012692767
000140 b7 8a bb 3d 9a fd 51 3d b2 e5 e9 bb 06 5c d2 be
       0.09157317 0.051267244 -0.0071379775 -0.41085833
000150 b5 84 68 bf a8 f9 7d bf f7 73 48 be ec c2 a5 be
       -0.90827495 -0.9920907 -0.19575487 -0.32375276
000160 6d 49 e4 3e 46 48 d2 3e 2b 68 8a 3d 87 ec c2 bd
       0.4458727 0.41070765 0.0675815 -0.0951777
000170 7d 1a 50 3e 22 8d ce bd c8 e0 32 3d 64 9e c4 bc
       0.20322604 -0.10085513 0.0436714 -0.024001308
000180 af f4 46 3f 9a 6c e4 3e c9 16 51 3e d4 f2 8d be
       0.7771711 0.44614106 0.20418848 -0.27724326
000190 eb 1a cf 3d 76 5e 29 3e 3f da f6 bc a0 c0 f6 bc
       0.10112556 0.1653994 -0.030133365 -0.030121148
0001a0 78 69 01 be 03 0d d0 3d e0 5b 31 bc 11 37 bf bb
       -0.1263789 0.10158732 -0.010825127 -0.005835422
0001b0 52 1e 1b 3f 7f d7 b8 3e 54 e9 20 bd aa ce 26 3e
       0.6059314 0.3610191 -0.03928502 0.16289774
0001c0 77 95 2c be e8 88 67 3e 9f 99 89 bc 97 63 34 bd
       -0.16853891 0.2261082 -0.016796885 -0.04404029
0001d0 ae df 5a bd 86 67 bf bc 96 ef 5a 3d 01 3f c1 3b
       -0.053435974 -0.023364794 0.053451143 0.005897403
0001e0 5a 9b 55 bf a3 f3 6b 3f 33 74 f2 3f ce b8 a8 bf
       -0.8344017 0.92168635 1.8941711 -1.3181398
0001f0 4f 44 98 bf 0b ba ab bf ec 02 87 be 8c c0 2f be
       -1.1895846 -1.3416151 -0.26369417 -0.17163295
000200 b9 a0 6a 3f a2 88 84 3e 57 dd 20 3f f4 03 ec 3f
       0.91651493 0.25885493 0.6283774 1.8438706
000210 c5 34 3a bf e3 46 79 bf 0e 6f 9a be ad de e9 bd
       -0.7273677 -0.9737379 -0.30162853 -0.11419425
000220 b1 84 6b be cf 67 f3 3e 95 0d 44 3d 36 9e 53 bc
       -0.22999837 0.47540137 0.047864515 -0.012916138
000230 a1 42 e4 bc 8b c4 30 3d d2 00 36 bc 04 ce ac 3d
       -0.027863802 0.043156188 -0.011108594 0.08437732
000240 78 ea 1e bf 0f 78 27 bf 42 04 a5 be 74 55 9f be
       -0.6207652 -0.6541757 -0.3222981 -0.31119883
000250 f4 01 64 bd e0 02 15 3f 50 06 8b 3d 7a 29 bf 3d
       -0.055665925 0.5820751 0.067883134 0.09334083
000260 5c 30 34 be 02 6d 9c bd 44 c1 82 bd 7c b9 82 3e
       -0.17596573 -0.07637979 -0.06384519 0.25532138
000270 91 35 7f 3e 8b f7 0d 3e 58 02 e0 bd 41 e0 59 be
       0.24922778 0.13863961 -0.10937947 -0.21276952
000280 b4 b3 30 be d9 d0 98 be 42 3e 1c be 25 76 54 bd
       -0.17256051 -0.29846838 -0.15258124 -0.051870484
000290 03 7f bf bd d0 cf 07 3d ab 6a 5c 3e 5a 18 63 3c
       -0.093503974 0.03315717 0.21525066 0.013860786
0002a0 16 59 45 3f e0 bf 63 3f 27 db d8 3e 12 ec 9c 3e
       0.7708906 0.88964653 0.423547 0.30648857
0002b0 94 f7 94 bd fc 49 19 bf b1 dd 8e bd 9e 83 0d 3e
       -0.07273784 -0.59878516 -0.06975878 0.13819739
0002c0 09 e1 fb bd 16 5b c5 bc a3 05 42 be 42 71 1e 3e
       -0.122987814 -0.024091285 -0.18947463 0.15472892
0002d0 b7 fc 20 3f df 69 1f 3f 23 9a 36 bc e7 3a fa 3d
       0.6288561 0.6227092 -0.0111451475 0.12218266
0002e0 9a e3 06 3d 98 8b 4f bd 76 0e 60 3d 5b 84 33 be
       0.0329319 -0.050670236 0.05470129 -0.17530958
0002f0 a5 b3 94 3c 72 f3 43 bd 1f 0e 05 3d ba ea ca 3c
       0.018152067 -0.04783959 0.03248417 0.02477013
000300 3a ea 9f 3e 36 0e af 3e 11 e1 21 3d b2 39 33 3c
       0.31233388 0.3419053 0.03952128 0.010939049
000310 ce aa 69 3e e5 4f 2c be d4 88 db 3b a6 bf 80 bd
       0.22819063 -0.16827352 0.006699661 -0.06286554
000320 a3 4f ff bd 3d 73 7e 3d 1e 2c ac 3b 06 97 75 3d
       -0.124663614 0.06212162 0.0052542826 0.05995848
000330 dd 8a 43 bf 2b 07 71 bf 02 6e 95 be 64 35 e1 be
       -0.76383764 -0.9415156 -0.29185492 -0.43986046
000340 a1 3e 91 3e 4e ab 16 3f b7 f6 3e bb 83 41 d4 bc
       0.28368095 0.5885514 -0.0029138753 -0.025910145
000350 a7 d8 09 3e 09 6e 7c bd f8 4a 1f 3d 49 82 82 3c
       0.13461553 -0.061628375 0.038889855 0.015931265
000360 12 62 2a 3f 60 1a 71 3e 49 c2 2e 3e b8 6a be 3d
       0.66555893 0.23545218 0.17066301 0.09297699
000370 de f7 58 3e f4 b1 77 be f0 97 61 bd cd e1 5b bb
       0.21188304 -0.24188977 -0.05507654 -0.0033551336
000380 f2 bc b8 bd 9c bf 09 3c 31 8b 92 bc 49 c3 ad 3d
       -0.090204135 0.0084075 -0.017888637 0.08484513
000390 d4 4d 65 bf cb e8 35 bf e9 63 51 bf 3b 07 cb be
       -0.8957188 -0.7105834 -0.81793076 -0.39653954
0003a0 d2 5b ca bc 55 6e 46 3f 4e 08 b0 bc b8 1d 27 3e
       -0.024701986 0.77512103 -0.021488335 0.1631993
0003b0 3b ae b6 bd 52 94 80 bd ca 9c 13 3e 87 37 a9 3c
       -0.089199506 -0.0627829 0.14415279 0.02065636
0003c0 48 d8 da 3e b1 8f 3f 3f e5 9e 14 3f 85 26 44 3e
       0.42743134 0.7482863 0.58054954 0.19155319
0003d0 ed 53 50 3e dd 71 27 bf 1d 52 28 be d3 b5 44 3d
       0.20344515 -0.65408117 -0.16437574 0.048024964
0003e0 e3 90 04 3e 98 9b f3 3a 22 2c 14 3e 46 d2 86 be
       0.12945895 0.0018585799 0.1446996 -0.263323
0003f0 58 81 fe bf 7b ab c5 bf 53 b3 90 bf 24 5c 86 bd
       -1.9883223 -1.5442957 -1.1304725 -0.06560543

bias f4 [64]
000000 fc ec a0 bf 71 27 41 bc f7 63 4a 3f c0 ee 52 bf
       -1.2572322 -0.011789189 0.79058784 -0.82395554
000010 d4 f7 a1 bf fe 37 81 3f e1 51 ab 3f c2 40 89 bf
       -1.2653756 1.0095212 1.3384362 -1.0722888
000020 fd ef a2 bf b9 57 a3 bf 25 73 31 3f c9 89 9e bf
       -1.2729489 -1.2761146 0.6931632 -1.2385799
000030 f0 9c 9e bf ca f5 41 bf 9a c8 91 3f 6e 04 af bf
       -1.2391644 -0.7576567 1.1389344 -1.3673227
000040 03 50 a9 bf 81 0b 84 bf f3 06 9d bf 1d 8b a7 bf
       -1.3227543 -1.0316011 -1.2267746 -1.3089329
000050 2c 88 92 3f bf 37 5b be 39 5d 85 3f 1a 66 99 bf
       1.1447806 -0.21407984 1.0419074 -1.1984284
000060 3f da 3a 3f 35 04 aa 3f 7c ff b1 3f 5d f2 95 3f
       0.7298927 1.3282534 1.3906093 1.1714588
000070 c7 c3 75 bf 7e 23 85 bf 23 92 a5 3f 04 a3 38 bf
       -0.9600186 -1.0401456 1.2935222 -0.7212374
000080 c8 27 99 bf 5f 54 a2 bf 22 f8 87 3f aa bc b6 3f
       -1.1965265 -1.2681998 1.0622599 1.4276326
000090 74 6d 8d 3f 64 50 a5 3f 47 00 8b bf 30 31 46 bf
       1.1049027 1.2915158 -1.085946 -0.77418804
0000a0 b0 0a a1 3f b7 d4 2c 3c 19 6c 9b bf 03 4d 52 3e
       1.2581387 0.010548762 -1.2142364 0.2053719
0000b0 e9 60 6e bf 12 a3 04 3f 07 4a 99 3f f6 4e a3 3f
       -0.93116623 0.51811326 1.1975716 1.2758472
0000c0 7a 4c 8f 3f 88 08 93 3f 8c cc 9a bf fb 32 ce bd
       1.1195214 1.1486979 -1.2093673 -0.100683175
0000d0 89 f7 9e 3f 5e 45 9c bf 51 66 31 bf fa f4 9a 3f
       1.2419292 -1.2208669 -0.6929675 1.2106011
0000e0 da 34 22 bd 03 68 90 3f ed f2 2d 3f 58 f7 a5 bf
       -0.039601184 1.1281742 0.679488 -1.2966108
0000f0 21 44 9e 3f 3b 7f 27 bf 6b a9 8a 3f 38 2b 00 bf
       1.2364541 -0.65428513 1.0832952 -0.50065947

weight f4 [64, 64]
000000 25 20 82 3d 25 d5 12 bf 8c 5f 33 3f 44 fa 66 bf
       0.06353787 -0.5735648 0.7006767 -0.90225625
000010 40 a3 36 bf 2c a2 7f be 7e e4 3e 3f d3 44 62 bf
       -0.7134285 -0.24964207 0.745674 -0.8838627
000020 4b d3 11 be 0d 39 c2 3d b3 e5 a1 3e d8 a8 7d bf
       -0.14240758 0.09483538 0.3162056 -0.9908576
000030 05 30 80 bf 8f 19 0b 3d e9 04 79 3f 51 22 2d 3d
       -1.0014654 0.03395992 0.9727312 0.042269055
000040 08 9b a6 bc 19 78 81 bf 21 78 31 3e 20 d8 37 bf
       -0.020337597 -1.0114776 0.17330982 -0.71814156
000050 8e b1 72 3f 30 4a 3e be 09 b4 4d 3f 30 54 88 bf
       0.94802177 -0.18582988 0.80352837 -1.0650692
000060 19 c5 31 be 5e 74 70 3f 17 0a 6d 3e 45 bd 61 3f
       -0.17360343 0.9392756 0.2314838 0.8817943
000070 ac 42 71 3e 94 89 0a bc a1 32 5f 3f 7d 58 7e be
       0.2356059 -0.008455653 0.8718663 -0.24838443
000080 af 40 70 bf 3c cf 3f be 96 fa 09 be 13 86 e8 3e
       -0.938487 -0.18731397 -0.13474497 0.4541479
000090 db 34 50 3f 06 6e 59 3f 4b d0 cd be b8 98 80 ba
       0.8133065 0.8493351 -0.40197977 -0.0009811139
0000a0 0a b2 74 3f 5a 49 96 bf 96 0f 2d bf 4a b3 2c bf
       0.95584166 -1.1741135 -0.6760191 -0.67461073
0000b0 ef 4b 9c bf 7c 3d 46 be 34 cb 3c 3c b0 bd 52 3f
       -1.2210673 -0.19359392 0.011523057 0.8232069
0000c0 51 c6 75 3f 7c 4c 8c 3e f1 05 56 3d 7d 8f c8 3e
       0.9600573 0.27402103 0.05225176 0.39171973
0000d0 14 10 b0 3c 14 1d 31 3e 61 23 9e bf 8f 37 88 3f
       0.021492042 0.17296249 -1.2354547 1.0641955
0000e0 84 ae a5 bf 5f c5 52 bd 09 39 96 3e 55 94 87 be
       -1.2943883 -0.05145776 0.2934039 -0.26480356
0000f0 7e a8 4d 3f 84 09 3d bf b6 ba 89 bd 28 d9 2e 3f
       0.80335224 -0.73842645 -0.067250654 0.68300104
000100 91 ce 57 3f ae 44 81 bf a7 e7 00 3f 96 af b4 bf
       0.8429957 -1.0099084 0.50353473 -1.4116085
000110 38 34 11 3e 49 97 66 bf d5 37 cc be bf ab e1 3d
       0.14180076 -0.9007459 -0.39886346 0.11019086
000120 45 fe 5c 3f e5 b0 82 3f 02 a8 44 3f bd fb 99 3e
       0.86325485 1.0210234 0.7681886 0.30074874
000130 88 f0 ce 3e fd 83 05 3f 95 88 06 be 4b 8b 6f 3f
       0.40417886 0.52154523 -0.1313804 0.9357192
000140 f3 58 6c 3f 15 bb eb bc 25 bc 85 3f 45 06 8a 3d
       0.92323226 -0.028775731 1.0448042 0.06739477
000150 63 a3 21 be 9f ff 44 bf 8f aa 2a bd ef 5c 7b 3d
       -0.15784983 -0.76952547 -0.041666564 0.061367925
000160 e9 8e b2 bf 29 4b 21 bd ba e4 76 bf e9 9f 83 be
       -1.3949863 -0.03937832 -0.9644276 -0.2570794
000170 51 72 de 3f ae 98 d9 3e 00 c3 8d be 92 ee 17 3f
       1.7378637 0.42499298 -0.27687836 0.59348404
000180 1a d0 8d 3e 7f 0e 3e 3f 18 fc 47 bf 3f 9a 5b bf
       0.2769783 0.7424087 -0.7811904 -0.85782236
000190 43 88 b4 bd 95 91 84 be d9 cb 18 3f c3 44 21 3f
       -0.08815052 -0.2589232 0.59686047 0.6299555
0001a0 28 d7 a2 3e 8f ca 6d bf f9 5a c9 3e 46 20 3f bf
       0.31804776 -0.92887205 0.3932722 -0.7465862
0001b0 0d 8c 40 be 43 3e 27 bf 47 7f 7e bf 40 80 54 bd
       -0.18803425 -0.6532938 -0.9941296 -0.05188012
0001c0 29 60 eb bd eb 1b 45 bf de 42 76 3f 89 82 19 3f
       -0.114929505 -0.76995724 0.9619578 0.59964806
0001d0 a2 ca 77 bf 02 7c 73 3f 74 24 6a bf d1 10 3d be
       -0.9679357 0.95111096 -0.91461873 -0.18463446
0001e0 ff 9b 8d bf a3 73 25 bf 84 b4 52 bf b8 69 54 3f
       -1.1063231 -0.6462957 -0.82306695 0.82973814
0001f0 2b c8 69 be 27 73 31 bf 1f 71 67 bf 00 20 40 3f
       -0.22830264 -0.69316334 -0.90406984 0.7504883
000200 44 0a 87 bf ae 21 43 3f e5 3c 0d bf a2 06 6a 3f
       -1.0550008 0.76223266 -0.5517104 0.9141637
000210 d2 71 03 be 95 fe 41 3f a1 4c af 3e 01 cf 00 3d
       -0.12836388 0.75779086 0.3423815 0.031447414
000220 c4 0c 34 bf 88 98 5a bf e8 6e 68 bf a5 e0 01 3d
       -0.7033198 -0.85388994 -0.9079423 0.03170838
000230 9e f2 4a be 05 e5 96 be e6 9d a8 bc d8 9c 71 bf
       -0.19819114 -0.29471603 -0.020583104 -0.9437995
000240 12 5c 61 bf 54 1f 57 3e 42 17 86 bf 2b 65 cb 3d
       -0.88031113 0.21008044 -1.0475848 0.09931406
000250 93 d7 06 3e 1f 82 ab 3e 69 4e 67 be 94 8b e5 3d
       0.13168173 0.33497712 -0.22588505 0.11208263
000260 55 ac a2 3f cc aa 0c be 0c 4f 79 3f 93 70 88 bd
       1.2708842 -0.13737029 0.9738624 -0.06662097
000270 f7 af f7 bf 60 f2 1b bf cf d9 f0 3d 97 9c 16 bf
       -1.9350575 -0.6091671 0.11760294 -0.5883269
000280 08 c6 f2 bc e9 a0 2d bf 0e af 61 3f 4b fe 85 3f
       -0.029635444 -0.67823654 0.8815774 1.0468229
000290 8d fb 42 be ba b9 71 3e 3a 85 1d bf 50 f1 01 bf
       -0.19041272 0.23606005 -0.6153141 -0.5075884
0002a0 e7 c5 0d bf 87 0b 88 3f 16 15 68 bf 1c e3 57 3f
       -0.553801 1.0628518 -0.90657175 0.84330916
0002b0 d1 4f fe 3e be d7 c3 3e 23 ef 88 3f 45 6d 88 3d
       0.4967027 0.38250536 1.0697979 0.066614665
0002c0 e8 40 6e be 27 34 3a 3f 70 25 63 bf 43 2d 2d bf
       -0.23266947 0.7273583 -0.88729 -0.6764719
0002d0 33 5a 8c 3f 24 31 49 bf 5c 2f 75 3f 00 96 65 3c
       1.0965027 -0.7859061 0.9577539 0.014012814
0002e0 4e 88 00 40 0f 66 4e 3f 29 eb 34 3f 01 92 52 bf
       2.0083194 0.8062448 0.70671326 -0.82254034
0002f0 8c 1b f9 bc 3c 98 75 3f 12 62 37 3f b1 37 9c bf
       -0.030408643 0.95935416 0.7163402 -1.2204496
000300 1d 3a 57 39 28 45 04 bf d8 00 2c 3f 9a 83 7d bf
       0.00020525647 -0.51668024 0.6718879 -0.99028933
000310 9b d4 59 bf 55 7c 51 be d6 7a 58 3f 44 d8 3c bf
       -0.85090035 -0.20457585 0.8456243 -0.73767495
000320 75 eb 96 bd 84 a0 0b 3d 5f d2 9d 3e dd 61 67 bf
       -0.073691286 0.034088627 0.30824563 -0.903837
000330 17 21 8a bf d4 26 5a be 5b 68 76 3f a1 e3 c7 bd
       -1.0791348 -0.21303874 0.96252984 -0.09760214
000340 77 7b d2 bc 3d 37 55 bf 8c f8 5b 3d b9 5d 41 bf
       -0.025693638 -0.8328741 0.05370383 -0.75533634
000350 2a 12 5c 3f 06 a3 dd 3d b7 50 6b 3f f7 48 69 bf
       0.85965216 0.1082211 0.91920036 -0.9112696
000360 37 dc b1 3c b8 78 56 3f ad f1 5b 3e 43 b6 36 3f
       0.021711452 0.8377795 0.2147891 0.7137186
000370 af 50 9d 3d b9 36 cc 3c d3 2c 3f 3f 58 aa cb be
       0.07681405 0.024928438 0.7467777 -0.397784
000380 f0 33 42 bf f5 ca 78 bd 8a 62 5a be b2 d4 46 3e
       -0.758605 -0.06074043 -0.21326652 0.19417074
000390 c1 a7 5f 3f 39 bc 80 3f 0e 1f d4 be ef 8b 49 be
       0.8736535 1.0057441 -0.41429943 -0.19682287
0003a0 cb a8 50 3f 8a 3a 85 bf 1f f5 ee be cd a6 e1 be
       0.8150756 -1.040849 -0.46671388 -0.4407257
0003b0 4d 26 9e bf 5a 37 ae be 78 aa 26 bd c2 83 39 3f
       -1.2355438 -0.34026605 -0.040689915 0.7246667
0003c0 20 dc 44 3f 3d cb a9 3e 09 42 cf bc 37 db 05 3f
       0.76898384 0.3316287 -0.025300043 0.5228762
0003d0 e0 b8 ed bd 74 63 91 bb 38 8a 89 bf 66 2c 6b 3f
       -0.11607528 -0.0044369046 -1.0745306 0.9186462
0003e0 c9 94 a0 bf 7f 12 87 bc 44 ac 55 3e 4b 43 7c be
       -1.2545406 -0.016488312 0.20866495 -0.24635045
0003f0 fb 20 45 3f 1e 8d 3d bf e7 3e 1a be b0 25 12 3f
       0.7700345 -0.7404345 -0.15063058 0.57088757

bias f4 [64]
000000 31 0a 15 3f 1b 95 52 bf 56 f8 13 3f 9b f9 1a 3f
       0.58218676 -0.82258767 0.57800806 0.6053712
000010 33 c8 3f bf a2 2b 11 bf af ed 39 bf fb 0f 21 bf
       -0.74914855 -0.56707203 -0.726283 -0.6291501
000020 90 8e 47 3f fd bf 1c 3f 96 73 33 3f 4e dc 27 3f
       0.7795191 0.6123045 0.70098245 0.65570533
000030 b1 2c 23 3f d0 04 51 3f e2 b2 ea be d7 ad 23 3f
       0.6374007 0.8164797 -0.45839602 0.63937134
000040 7c ca 01 bf 60 34 12 bf 7c 33 1c bf ee 8f 2b 3f
       -0.5069959 -0.5711117 -0.6101606 0.67016494
000050 ec 36 18 bf 9a 27 4a 3f 80 a4 3f bf c5 b5 3f 3f
       -0.59458804 0.7896668 -0.7486038 0.74886733
000060 68 32 3e 3f e1 a1 16 3f 5d 9a 17 bf f0 65 3e 3f
       0.74295664 0.5884076 -0.59219915 0.74374294
000070 00 3b 21 bf 21 77 1c bf 83 42 cf 3e 2b 5f 0d bf
       -0.6298065 -0.61119276 0.40480432 -0.5522334
000080 19 6c 08 bf 64 5b 42 bf ac dd 2f bf d7 a1 2d bf
       -0.53289944 -0.759207 -0.6869762 -0.67825073
000090 03 46 05 3f 79 2d 3b 3f 3d 03 4c bf c5 62 fe 3e
       0.52059954 0.7311626 -0.7969244 0.4968473
0000a0 9a 15 1e bf 4f cf 4a 3f 93 3b 48 bf 28 f7 10 3f
       -0.6175171 0.7922258 -0.78215903 0.5662713
0000b0 e5 55 38 bf c1 35 4e bf 90 74 27 bf 00 2d 0e bf
       -0.72006065 -0.8055077 -0.65412235 -0.55537415
0000c0 7a 60 0b 3f 60 1d 24 3f 11 0e 10 3f 5a dd 08 3f
       0.54444087 0.6410732 0.56271464 0.53462756
0000d0 7b 45 fc be 43 28 3e 3f 8d 8f 19 bf 47 d8 2e bf
       -0.4927176 0.74280185 -0.59984666 -0.68298763
0000e0 83 d9 1a bf 20 a4 2d bf 3a de 28 3f 52 12 34 bf
       -0.60488147 -0.6782856 0.6596409 -0.70340455
0000f0 a7 ec 27 bf 06 be 49 bf 24 9f 2a bf 8a fd 08 3f
       -0.6559548 -0.7880558 -0.6664908 0.5351187

weight f4 [64, 64]
000000 a9 03 7c 3f 71 14 82 3f 75 1b 5b bf d7 84 82 3f
       0.98443085 1.0162488 -0.8558877 1.019679
000010 cf 9a 88 bf 83 4d 95 bf ee dc 80 3f 98 36 88 bf
       -1.0672244 -1.166428 1.0067422 -1.0641661
000020 5b d9 85 3f 43 3a 6b 3f 0b 2d 84 3f 6c 1c 72 bf
       1.0456957 0.91885775 1.0326246 -0.9457462
000030 2f 86 61 bf 02 dd 7d bf 9b d2 8b 3f 0d f5 77 3f
       -0.8809537 -0.99165356 1.0923647 0.9685829
000040 74 5f 67 3f 6c 77 64 bf 15 cb 6a bf 70 2e 88 3f
       0.90380025 -0.89244723 -0.9171613 1.0639172
000050 b8 35 72 bf 6d 1b 55 bf 0b e0 67 bf 9f 2f 79 3f
       -0.9461322 -0.83244973 -0.9057624 0.9733829
000060 56 d8 5a bf 2a fd 80 3f 41 de 51 bf 5b da 4b 3f
       -0.8548635 1.007726 -0.8197976 0.7963006
000070 7f 31 5d 3f ce 2a 87 3f 7f 38 83 3e e8 4d 5c bf
       0.8640365 1.0559938 0.2562904 -0.86056376
000080 82 bd 77 3f 1b 2b 7a 3f 94 2f 62 3f 60 34 79 3f
       0.9677354 0.97722024 0.8835385 0.9734554
000090 46 ec 6f bf 34 a2 78 bf cd 2c 8a bf 4b f9 a7 3f
       -0.937199 -0.971225 -1.0794922 1.3122953
0000a0 07 e0 78 3f c5 fa 7e 3f e5 c8 7c 3f ca 3b 82 3f
       0.9721684 0.99601394 0.9874404 1.0174496
0000b0 5f c9 7b 3f 66 7c 84 bf 08 b5 9c bf 40 d3 59 3f
       0.9835414 -1.0350463 -1.2242746 0.85087967
0000c0 30 ab 67 bf 79 98 57 3f 35 81 3c 40 17 59 40 bf
       -0.90495586 0.8421703 2.9453862 -0.7513594
0000d0 0f 2e 81 3f 9e d3 74 3f a9 c4 78 bf c8 d0 7c 3f
       1.0092181 0.956354 -0.9717508 0.98756075
0000e0 1a 24 9a bf a7 5f 6d 3f da 66 8e 3f d9 b1 7e bf
       -1.2042267 0.9272408 1.1125138 -0.99490124
0000f0 85 d4 59 3f 04 20 6a 3f 70 a7 7b 3f 3c d2 6e bf
       0.85089904 0.914551 0.98302364 -0.9328954
000100 5f 32 73 3f d3 7a 5b 3f a6 11 7f bf 9c 42 78 3f
       0.94998735 0.8573429 -0.99636304 0.9697664
000110 e2 70 38 bf 8c b5 5f bf 21 54 82 3f d3 30 65 bf
       -0.72047246 -0.87386394 1.0181924 -0.89527625
000120 3c 7f 74 3f 9f 40 5c 3f 23 db 6f 3f a3 30 85 bf
       0.95506644 0.86036104 0.9369375 -1.0405468
000130 a4 89 5e bf 8d a9 56 bf 9e f1 7a 3f 1e 81 57 3f
       -0.8692877 -0.83852464 0.9802493 0.8418139
000140 3c 25 85 3f ee 72 5b bf a9 f2 62 bf d8 e2 7f 3f
       1.0401988 -0.85722244 -0.8865152 0.9995551
000150 d5 b5 61 bf fa 67 64 bf 91 ac 74 bf 31 9c 6f 3f
       -0.8816808 -0.89221156 -0.95575815 0.93597704
000160 da b2 87 bf 35 02 5b 3f 22 80 3a bf 87 67 4e 3f
       -1.0601456 0.8555024 -0.72851765 0.8062672
000170 10 0b 56 3f 1d 89 8d 3f cc 90 15 3f 4f 9f 3b bf
       0.8361063 1.1057469 0.5842407 -0.7328996
000180 84 a4 82 3f 7b 6a 63 3f 19 d0 66 3f 8b e6 81 3f
       1.0206456 0.8883435 0.9016128 1.0148481
000190 2a ec 66 bf 57 71 82 bf 8e 53 67 bf a0 cc 5f 3f
       -0.9020411 -1.0190839 -0.9036187 0.8742161
0001a0 4c 74 74 3f b8 57 67 3f 76 7a 60 3f 19 02 43 3f
       0.95489955 0.90368223 0.8768686 0.76175076
0001b0 67 35 8d 3f 96 04 71 bf 7a 4a 63 bf 7a 79 63 3f
       1.1031922 -0.9414762 -0.8878552 0.88857234
0001c0 82 50 7b bf 3b db 6a 3f 92 b0 66 3f ab a3 64 3f
       -0.9816972 0.9174077 0.90113175 0.8931224
0001d0 91 1d 65 3f d6 47 40 3f 1d 0d 67 bf 61 9c 7f 3f
       0.8949824 0.7510961 -0.90254384 0.9984799
0001e0 60 54 61 bf 67 e5 88 3f f6 35 63 3f 1f e7 4e bf
       -0.8801937 1.0695008 0.8875421 -0.8082141
0001f0 01 ab 5a 3f 99 3c 75 3f e5 00 86 3f 02 60 69 bf
       0.8541718 0.9579559 1.0469023 -0.9116212
000200 e7 ee 83 bf a5 27 8a bf bd 74 88 3f 6b 24 61 bf
       -1.0307282 -1.0793349 1.0660626 -0.87946194
000210 9b 54 54 3f 28 bd 68 3f 83 c7 7d bf d5 16 92 3f
       0.829416 0.9091363 -0.99132556 1.1413218
000220 ef 37 88 bf 10 20 90 bf 19 02 6c bf cc fd 82 3f
       -1.064207 -1.1259785 -0.921907 1.0233703
000230 ab 78 79 3f a9 97 8f 3f e1 fa 8b bf 90 54 66 bf
       0.9744975 1.1218158 -1.0935937 -0.8997278
000240 34 4f a0 bf 64 2a 70 3f 92 6f 85 3f ab de 7d bf
       -1.2524171 0.9381468 1.0424674 -0.9916789
000250 92 f8 88 3f ab aa 94 3f b5 52 90 3f 50 b3 8f bf
       1.0700858 1.1614584 1.127524 -1.1226597
000260 ec fa 88 3f 15 50 82 bf a7 d8 77 3f 36 6b 83 bf
       1.0701575 -1.0180689 0.9681496 -1.0267093
000270 bf 55 8d bf ff 77 b9 bf c5 97 df be 53 6d 84 3f
       -1.1041793 -1.4489745 -0.43670478 1.0345863
000280 4d 73 86 bf 7a 11 89 bf de 84 85 bf 0b 15 80 bf
       -1.0503937 -1.0708458 -1.0431173 -1.0006422
000290 ef 75 8b 3f 57 96 8a 3f f5 af 8c 3f 10 6f 81 bf
       1.0895365 1.082713 1.0991198 -1.0112019
0002a0 2e 8c 82 bf bd 65 92 bf 4a 86 82 bf 9f ea 63 bf
       -1.019903 -1.1437298 -1.0197232 -0.8902988
0002b0 c5 42 94 bf 75 55 80 3f b3 03 47 3f 3f b4 93 bf
       -1.1582876 1.002608 0.7774002 -1.1539382
0002c0 b8 c8 95 3f 37 53 8c bf 15 4d 7c bf c1 6f cd bf
       1.170188 -1.0962895 -0.9855512 -1.604973
0002d0 1d 00 84 bf b1 8f 7c bf d4 4d 8a 3f ca c5 93 bf
       -1.0312535 -0.98656756 1.0805001 -1.1544735
0002e0 1a 5d 3e 3f 81 a1 88 bf 3b 18 7f bf 62 49 6a 3f
       0.7436081 -1.0674287 -0.9964635 0.91518223
0002f0 ef 6f 92 bf 88 da 86 bf 3b 83 7d bf 64 28 80 3f
       -1.144041 -1.053544 -0.99028367 1.0012326
000300 ef 7d 61 3f f4 2e 85 3f 25 b0 7f bf 8f 01 69 3f
       0.88082784 1.0404954 -0.9987815 0.91018003
000310 4e 1b 62 bf 4c 95 86 bf a5 df 87 3f 51 d0 61 bf
       -0.88322914 -1.0514312 1.0615126 -0.8820849
000320 83 cb 67 3f 29 bb 80 3f df 3c 74 3f f0 b7 95 bf
       0.9054491 1.0057117 0.9540538 -1.1696758
000330 4f 32 7e bf e4 77 87 bf 80 1d 83 3f 85 1b 7b 3f
       -0.99295515 -1.0583463 1.0243378 0.98088866
000340 71 c1 83 3f d8 f4 65 bf d4 0f 43 bf 82 1c 84 3f
       1.0293409 -0.89826727 -0.76196027 1.03212
000350 cd 26 63 bf f6 ff 74 bf a2 13 78 bf b3 5d 78 3f
       -0.8873108 -0.95703065 -0.9690496 0.97017974
000360 f8 ed 8e bf 38 24 6c 3f 0d ad 42 bf 87 88 60 3f
       -1.1166372 0.92242765 -0.76045305 0.87708324
000370 8c c6 84 3f cf 16 8c 3f 0f 5c 82 3f e0 7a 7c bf
       1.0373092 1.0944461 1.0184344 -0.9862499
000380 65 c7 79 3f b8 b9 8d 3f e9 cd 92 3f df c4 8a 3f
       0.97569877 1.1072302 1.1469089 1.084133
000390 d1 73 8a bf f3 ee 92 bf d8 16 81 bf 07 0f 55 3f
       -1.0816594 -1.1479172 -1.0085096 0.83226055
0003a0 ea 93 77 3f 8e 3d 72 3f 95 ce 95 3f c3 a2 73 3f
       0.96710074 0.94625175 1.1703669 0.9517023
0003b0 06 88 7e 3f a6 72 48 bf db 04 5d bf de 9c 83 3f
       0.99426305 -0.7829994 -0.86335534 1.0282247
0003c0 fd ce 8a bf ae 50 57 3f e6 02 83 3f 56 ae 67 3f
       -1.0844418 0.8410748 1.023526 0.9050039
0003d0 7a 09 62 3f 13 d1 57 3f f0 46 5b bf b9 f7 87 3f
       0.8829571 0.84303397 -0.8565512 1.0622474
0003e0 6e 36 56 bf f5 e6 85 3f 96 a2 63 3f 9e 4d 84 bf
       -0.83676803 1.0461107 0.8891996 -1.0336187
0003f0 7d 42 71 3f ec af 80 3f 01 63 93 3f 87 3a 87 bf
       0.9424208 1.0053687 1.1514589 -1.0564736

bias f4 [64]
000000 9a ad 7a 3f e5 72 a7 be 18 68 ed bd f5 bb 07 bf
       0.97921145 -0.32704845 -0.1159212 -0.53021175
000010 33 53 21 3f 0d 09 31 3e 8e 58 3e 3f a4 f8 a2 3e
       0.63017577 0.17288609 0.74353874 0.31830323
000020 89 35 06 bf b2 41 5b 3f 4e 25 4e 3e cd ee 45 3d
       -0.5242544 0.8564712 0.20131418 0.04832344
000030 07 9c b8 3d 5f 61 b4 3d 96 85 14 3f c8 03 6c 3e
       0.09014135 0.088076346 0.58016336 0.23048317
000040 14 0d 3d 3e a4 2f 07 bf c3 8b 10 3f d1 6d 47 3d
       0.1846202 -0.5280707 0.5646326 0.048688713
000050 56 7f 1d 3f 6d d2 09 bf 19 56 81 3f c5 77 95 3e
       0.61522424 -0.5383671 1.01044 0.2919294
000060 19 13 18 bf da 18 7a 3f 7c 33 09 3e 47 1d 1d 3f
       -0.5940414 0.9769417 0.13398546 0.613728
000070 77 c6 3a 3e 93 23 25 3f bd 32 63 3e b6 f0 17 3f
       0.18239771 0.64507407 0.22187324 0.5935167
000080 26 38 52 3f 4e 7e e9 3e d4 09 7a bc c2 54 e4 be
       0.82116926 0.45604175 -0.015261132 -0.44595915
000090 1b 71 1e 3f 26 c0 9a 3e bb 15 f1 be 2d 32 39 3f
       0.61891335 0.30224723 -0.47086892 0.7234219
0000a0 ac 22 8e 3c ad a4 13 bf 91 88 45 bf 43 7c 48 3d
       0.017350517 -0.5767315 -0.7716151 0.04894663
0000b0 c0 07 06 3f 34 0c 08 bc 15 55 f4 be 60 a6 79 3e
       0.52355576 -0.008303691 -0.47721162 0.24379873
0000c0 02 14 04 bf 4c 5d 59 3f 58 00 09 3f 3a bb a1 be
       -0.5159303 0.84907985 0.5351615 -0.31588155
0000d0 81 d3 19 3f 5e 7e 5a bd 99 59 14 3e 11 a1 28 bf
       0.60088354 -0.05334317 0.14487304 -0.6587077
0000e0 34 8d fd bd d7 d9 1b bf 04 21 fc 3e 04 5c 2a 3f
       -0.12380448 -0.6087927 0.4924394 0.66546655
0000f0 b2 1c 11 3f fa 7c 3f 3c 5c 21 2a 3f a5 9d 2f 3f
       0.5668441 0.011687512 0.6645715 0.6859992

weight f4 [1, 64]
000000 5d e7 08 c0 e0 46 ca bf fe c7 0c 40 e0 22 07 c0
       -2.1391213 -1.5802879 2.1997066 -2.1115036
000010 7f da 00 40 45 ea e0 3f 30 cf 07 40 c2 b9 dd 3f
       2.013336 1.7571493 2.1220207 1.7322314
000020 f6 2f 05 c0 97 40 fd 3f 70 8b db 3f 5a 43 09 c0
       -2.0810523 1.9785336 1.7151928 -2.1447358
000030 53 39 e7 3f 8f 30 df 3f d7 d8 07 40 aa 5c de 3f
       1.8064369 1.7436694 2.1226099 1.7372029
000040 1d 20 e5 3f 4a 7a 07 c0 d9 12 09 40 f2 02 e9 3f
       1.7900425 -2.116839 2.1417754 1.8204024
000050 be 47 02 40 5c 44 04 c0 fa e4 13 40 7c c8 0a 40
       2.0356288 -2.0666723 2.3108506 2.1684866
000060 71 e5 05 c0 17 2d 0d 40 49 e8 ed 3f 48 e1 03 40
       -2.092129 2.205877 1.8586513 2.060625
000070 23 3a c9 3f 0a be 05 40 9c fc ec 3f 34 fc 05 40
       1.5720867 2.089724 1.851459 2.0935183
000080 c9 6b 17 40 dc 0c 0a 40 c8 47 da 3f 0c 66 ce bf
       2.3659537 2.1570349 1.7053156 -1.6124892
000090 bc 59 04 40 b8 1c 08 c0 40 0b e0 bf 63 27 0a c0
       2.067977 -2.1267529 -1.7503433 -2.158654
0000a0 2a ed 22 40 39 f1 02 c0 19 47 07 c0 f0 4b 08 40
       2.5457253 -2.045973 -2.1137145 2.1296349
0000b0 b7 f0 09 c0 68 af da 3f 7a 16 08 c0 1e 35 0b 40
       -2.155317 1.708478 -2.1263719 2.175117
0000c0 44 b3 03 c0 fb f6 01 40 e5 2f 06 40 db d2 e9 bf
       -2.0578165 2.0306995 2.0966733 -1.8267473
0000d0 74 a9 03 40 b8 cf 0a 40 d4 fc 0e c0 a4 b9 09 c0
       2.0572176 2.1689281 -2.2341814 -2.1519556
0000e0 40 b5 0b 40 bf 78 04 c0 46 e2 06 40 16 6e b6 3f
       2.1829376 -2.0698698 2.1075606 1.4252346
0000f0 01 48 07 40 83 51 08 40 41 e5 08 40 c7 37 05 c0
       2.1137698 2.129975 2.1389925 -2.0815294
