robot_rcs_models/actuators/mlp_jit_1307e_8_50000.pt (torch, 152659 bytes, 7 tensors)

weight f4 [128, 16]
00000000: 6941 ffbd dab4 19be 64f0 a1be 331f afbd
00000010: 1f72 18be 78de 713e 65ea 2d3e a1f1 133e
00000020: 98ec 3cbe 4cb7 143e 5747 e33c e6bd bb3d
00000030: 454a ea3c 9480 edbd 425d e03b 6131 1b3e
00000040: b391 bdbf 3cd9 71bf d98f 79bf a39e 80be
00000050: a9fe b13d 12d7 0e3f 6d99 2c3f bfb0 863f
00000060: 4624 f13f debd 9a3e 02ee b23e 8cb4 b63d
00000070: 75b3 9fbe 7c71 813e a975 c63f a70b 963e
00000080: c5ef 27bf e668 d8bc 2f69 38bd 1d88 16be
00000090: 9e13 c5bd ddb2 613e c10c 233e fed6 9b3d
000000a0: 7dba ab3e 4e79 1d3e d646 7f3d 598e 753d
000000b0: a4a4 86bd 8cc9 c2bd aed1 6cbe 10a0 cebe
000000c0: 87c7 093f 144a d33e 4842 243e 8b35 693e
000000d0: 149d 39bd f6dc 17be cd50 293d bc7e debe
000000e0: 2ee3 d7bd b2e0 e6bd 5add 883e c9f7 8a3e
000000f0: 4c41 f73d d244 97be 53f4 893d 5757 82be
00000100: f2e2 3cbf 5224 0ebf aaac 04be 6b5a e33d
00000110: 831e cc3d 171d b53e f58c 2e3f ab1a 133f
00000120: ddc1 7ebd 4c69 9e3d 79ff ddbc a836 3abe
00000130: 2a5b 0e3e 3692 b4bd 47f6 c93d 883e 153d
00000140: d53d 0440 37f9 893f 5215 4abd f2e4 aabe
00000150: f9ed 15bf 3c67 8ebe 42bd 18be 6cf5 ef3e
00000160: 5f34 9b3f 51e6 c4be a214 89bf 6640 e83e
00000170: c62f 0a3f 6501 153f 16d9 f1be ce3e 9a3e
00000180: 6f7f a63e 923f c93e 8675 113f e29c 7e3d
00000190: 0375 c83e 876f c03d e6d5 ffbd 433f b8bd
000001a0: 857f 133e 479d 943d cbe1 40bd bfb1 df3d
000001b0: 7cc6 453e 5ee0 66be a59c 63be e184 50bd
000001c0: 2779 183f f208 053f 46fd 183f f165 b63e
000001d0: 5e42 e33e b906 503e 74ff 833e 384b 6cbd
000001e0: e640 343e 0132 2c3e 9946 8539 46cd 9ebe
000001f0: bdb2 48be 2243 533d 59d3 56bc 4074 09be
00000200: 4f47 073e 2d94 773e 63a7 8c3e b68c 1fbe
00000210: ebd0 8d3d 2e12 303e b7ac 04be 4c40 79bd
00000220: 25fe 82bd 925b c73d faa8 3fbe edc5 8d3c
00000230: 4f71 043e b631 1ebc 4986 85bd 3d4e 09be
00000240: 9316 473f 561d 043f b531 813e 87e4 dd3e
00000250: 044e 6b3d cffa 8b3d 2b39 ef3d d1aa 4ebe
00000260: 963d f5bd 79d7 d93a 662d 313e d517 6a3d
00000270: ecb3 593e 2e91 8dbd edda 1e3d 05da c8be
00000280: cfe3 dd3e 838f 383f 2bf5 a63e 0fe6 9b3e
00000290: b226 16be a18c 78be 118f 03be 0417 5abe
000002a0: 7d71 72be 58c8 893e 609f 363e 220f 15bd
000002b0: 929e 83be e98a d7bd 5a6e d1bc b8fc 3c3e
000002c0: 48a7 8c3f a7db 49be 895a f6be 882a debe
000002d0: f9ba 44bf 13fc 32bf 50cc 0dbf 5c62 41bf
000002e0: 0245 2bbe f6f1 363e 2554 863e 9f5e b03e
000002f0: bbd4 683d 8582 4d3e 135f b13e 8a3f 6040
00000300: a0d0 823f 57c7 5a3f 7fe9 003f d026 e13e
00000310: 0b62 ff3e 3d6f 42be 99aa 9bbe 469a 1cbe
00000320: 5d04 69bd 1500 213d caa4 303d f90a 503d
00000330: 9a74 82be f209 483d 0f3c ee3d 5d4f 7bbe
00000340: 7e2e fa3e 1e31 313e 4e39 173d a4e2 0dbe
00000350: 0e31 c4bd 284b 1a3d 7f88 883d 7876 5a3e
00000360: d88e fcbd 2e76 c1bd 37d8 093e b5c8 123e
00000370: ad64 1cbe 20d1 36bd f724 983d c883 2cbe
00000380: 2b9c cdbe d0de c43e f7bf 303f 70ef 223f
00000390: f787 383f 3410 423f 0e32 733f caa2 413f
000003a0: 3e71 6c3f c4c8 ffbd 6c9c 4cbe 3e48 ccbe
000003b0: 8750 30bf e4d6 4ebf 93cd 49be 7d3c 9fbf
000003c0: f3da 413f a725 ea3d c478 cb3e abd7 223d
000003d0: 6aba 053e ac3d 5fbe 415c e53d e22e 73be
000003e0: af1e 563e 2971 b7bd 2591 833d f0e4 95be
000003f0: 72ec 883d 34a8 21be 3b09 db3d 584a e0bb
-0.12463648 -0.15010396 -0.31628716 -0.08550873 -0.14887284 0.23620021 0.16983946 0.14447643
-0.18449628 0.14523047 0.027743978 0.0916708 0.028599868 -0.1159679 0.0068470547 0.15155555
-1.4810089 -0.944721 -0.9748512 -0.2512103 0.08691151 0.5579692 0.6742161 1.0522689
1.8839195 0.30222982 0.3494721 0.08921155 -0.31191602 0.25281894 1.5504657 0.29305765
-0.65600234 -0.026417207 -0.045022186 -0.1470036 -0.09622882 0.22040887 0.15922834 0.07609366
0.33540717 0.15378305 0.062323414 0.059950206 -0.065743715 -0.09511098 -0.23126861 -0.40356493
0.5382008 0.41267455 0.1604091 0.22774331 -0.045315817 -0.14830384 0.041336823 -0.43456066
-0.10541378 -0.11273326 0.26731378 0.2714217 0.12073001 -0.29544693 0.06736054 -0.2545726
-0.7378379 -0.5552417 -0.12956491 0.1110123 0.09966757 0.35373756 0.68183833 0.5746257
-0.0621966 0.077349275 -0.027099358 -0.18184912 0.13901964 -0.0881695 0.09861427 0.036436588
2.066274 1.0779179 -0.04933674 -0.33377796 -0.5856624 -0.27813137 -0.14915946 0.4686693
1.2125357 -0.38456967 -1.0709422 0.45361632 0.53979146 0.5820525 -0.47235936 0.3012604
0.325191 0.39306313 0.5681995 0.062161334 0.39151773 0.09396272 -0.1249197 -0.08996441
0.14404114 0.07256561 -0.047090333 0.10922574 0.19313997 -0.22546527 -0.22227724 -0.050907973
0.59559864 0.51966774 0.59761465 0.3562465 0.44386572 0.20315064 0.25780833 -0.05768892
0.17602882 0.1681595 0.00025420336 -0.31015986 -0.19599433 0.051577695 -0.013111913 -0.13423252
0.13210796 0.24177618 0.27471456 -0.1558102 0.069246136 0.17194435 -0.1295651 -0.060852334
-0.063961305 0.097342625 -0.18716803 0.017306292 0.12933849 -0.009655407 -0.065197535 -0.13408752
0.7776882 0.51607263 0.25233236 0.43338415 0.05744745 0.06834947 0.11680826 -0.20182349
-0.11974637 0.0016620002 0.17302474 0.057151634 0.21260041 -0.069124565 0.038783003 -0.39228836
0.43337867 0.7209398 0.32608923 0.30448958 -0.14663199 -0.24272396 -0.12847544 -0.21297842
-0.23676105 0.26910663 0.17834234 -0.036391385 -0.25706917 -0.10524542 -0.025565315 0.1845578
1.098855 -0.19712697 -0.48115948 -0.43391824 -0.768478 -0.69915885 -0.5538988 -0.7554071
-0.16725543 0.17865738 0.26236072 0.3444719 0.0568435 0.2006932 0.34642848 3.503878
1.0219917 0.8546042 0.50356287 0.43974924 0.49879488 -0.18987747 -0.30403593 -0.15293226
-0.056888927 0.03930672 0.043125905 0.050791714 -0.25479585 0.04883761 0.11632549 -0.24541993
0.48863596 0.17303893 0.036919884 -0.13855988 -0.09579669 0.03766933 0.066666596 0.21334255
-0.12331933 -0.09446369 0.13461386 0.14334376 -0.1527278 -0.04463303 0.074289255 -0.16847146
-0.4015821 0.38451242 0.69042915 0.636466 0.72082466 0.75805974 0.9499825 0.7563902
0.92360294 -0.12489465 -0.19981545 -0.39898866 -0.68872875 -0.8079665 -0.19707327 -1.2440335
0.75724715 0.11432963 0.39740574 0.03975646 0.13059393 -0.2180087 0.11199237 -0.23748353
0.20910142 -0.089571305 0.064241685 -0.29276228 0.06685723 -0.1578682 0.1069512 -0.0068448

bias f4 [128]
00000000: c3ab 893f 041b ae3c 8581 b03e e850 28bd
00000010: 721c fabe 3130 b53f 50f8 473f b87e b1be
00000020: dc3c 2a3f 24f4 b13e b48c e03e 6303 28bf
00000030: e125 3abf d7a7 8dbf 4c28 6c3e 9aad d9be
00000040: c31e 403d 8af3 2cbf 5b65 dcbe 4f37 55be
00000050: 3847 32bf ecf5 22bf 297a 223f f8e0 09bf
00000060: 3f8d 583e 0ced 743e 866d 6bbe 19dc 2cbf
00000070: 560c 963e 2c7f 2d3f 6128 f83e a471 b93c
00000080: 0ade 1c3f 0fee 7ebf 0670 f9bd e405 333f
00000090: eeef 75bf d854 653c 3b39 cc3e bef7 963b
000000a0: 7508 0d3f b855 40bf 328a 8abf 8153 72bd
000000b0: 6364 4dbf 2335 663e c2f6 803d a1ef 3d3f
000000c0: c19b 26be e81e 393e aa12 643f f1a2 5dbf
000000d0: ed63 c9be e686 c9be 7139 0d3f 7367 283e
000000e0: 7d74 ae3e ca7b a93c 58d8 32bf 6eab 413d
000000f0: 6b2f 2ebd 8457 8c3e 9f70 903d 4086 f8be
00000100: 1b6a 8ebb 5816 4fbf 7a9d 333f 217c 553f
00000110: be15 09bf df9f 293f 064e ee3b cfc5 f5be
00000120: 7dc8 ce3e da30 5ebf 94c6 273d aff2 6e3d
00000130: 5e1f 9d3e 0e10 84bf feed 30bf 807e 253f
00000140: 3431 e6be 228f 293f 0ac3 0d3f be6d 163f
00000150: 0d98 4e3f dab4 3fbf 9614 19bf d6ee 893c
00000160: a512 013f 5a8a 733f dff1 0e3f ad1b b33d
00000170: ab01 243f 4f9c 3c3f 9ef7 3ebe 876e 443f
00000180: a586 933e 8721 b93e 0e31 0bbf de3f d3be
00000190: 77da c23f 828c 413f 76dd f2be 2a5c df3e
000001a0: d9a3 683f dd11 62bc b487 4fbf c27f 1abf
000001b0: 6257 9ebd a41e 41bf 04c7 4b3f fac6 6cbf
000001c0: 4d5c d43e 2597 89bf b670 b8be 0ab0 c0bd
000001d0: e9c3 43bf 9e0c 403f 080b cb3e 7aa8 f93d
000001e0: adca b93d 608b 073f b66e c73e 6dbe babd
000001f0: 2dc7 53bf c8bb 14bf a627 1dbf e8b7 ba3e
1.0755543 0.021253116 0.34473816 -0.041092783 -0.48849827 1.4155332 0.7811327 -0.3466699
0.66499114 0.34756577 0.43857348 -0.6563017 -0.7271405 -1.1066846 0.23062247 -0.4251526
0.046904337 -0.6755911 -0.43046078 -0.2082188 -0.6963992 -0.63656497 0.6346765 -0.538589
0.21147631 0.23918551 -0.22990999 -0.6752334 0.29306287 0.67772174 0.48468307 0.022637196
0.61276305 -0.99582 -0.1217957 0.69930863 -0.9606923 0.013997279 0.39887413 0.00460717
0.5509103 -0.75130796 -1.0823424 -0.059161667 -0.802313 0.22481208 0.06297065 0.7419377
-0.16270353 0.18078196 0.8909098 -0.86576754 -0.3933405 -0.39360732 0.55165774 0.16445713
0.34073249 0.02068891 -0.69861364 0.04728263 -0.04252569 0.2741052 0.07052731 -0.48539925
-0.004346145 -0.8089347 0.70162165 0.8339253 -0.535488 0.6625957 0.0072724847 -0.48002478
0.40387335 -0.8679329 0.040960863 0.05833691 0.30687994 -1.03174 -0.6911315 0.6464615
-0.44959414 0.6623403 0.5537573 0.58761203 0.8070076 -0.7488533 -0.59797037 0.016837519
0.50419074 0.9513298 0.55837816 0.08745513 0.64065045 0.7367601 -0.18649146 0.7673115
0.28813663 0.36158392 -0.54371727 -0.41259664 1.522292 0.7560502 -0.47434586 0.43625003
0.9087501 -0.013798204 -0.8106644 -0.6035119 -0.07731511 -0.7543738 0.7960055 -0.92491114
0.4147667 -1.0749251 -0.36023492 -0.09408577 -0.7647081 0.7501925 0.39656854 0.121903375
0.090718605 0.52947044 0.38951653 -0.09118352 -0.82725793 -0.5809903 -0.61388624 0.36468434

weight f4 [128, 128]
00000000: 69d2 ab3e 1e66 09be 6ae3 ed3e d16d a4bf
00000010: 2b3e 033e 3887 e13d 2319 ad3d 1df6 77be
00000020: bca5 e83d 3d5f 7b3c 79b1 91bc af52 5bbf
00000030: 78d5 20be 710b b6be 41a9 c63e 6567 c6be
00000040: 78c0 97be b532 4c3e 5987 f33c 6ad2 093f
00000050: c8c7 dcbe 361f 23be 7606 82bd 433e c3be
00000060: 4012 f33d 032d 5cbe f162 9fbe 6930 30be
00000070: 6a8d b0be 560d 33bf 8e31 0e3d ccc9 7bbf
00000080: e191 f9bc ec99 3cbe dcd1 f93e 7e66 0b3d
00000090: c986 83be ffba 4ebe b533 7b3e 602e ef3e
000000a0: cbe8 1d3f 4dba f2bd 83d6 e1be 499d cb3d
000000b0: 129c b73c a350 153f ffa5 393e a33d c13e
000000c0: eccf ddbe 5a89 ddbd ae29 9bbe 1cb6 15be
000000d0: 549e 993d 7027 72be 56a7 be3e 4613 683e
000000e0: 7c96 b43d 76ab 0440 fc75 463e ce33 ea3e
000000f0: b6e4 e2bd 2b29 7bbd d2b5 b6be e6c0 cdbe
00000100: 656d 533e 5948 02be d806 05be 0f3d a4be
00000110: 3486 00bf 3286 e0bd 7355 d53d 03d1 a2be
00000120: 4b8a b83e 0f95 b3bd e95b 3bbf 248a d53f
00000130: a9a6 dc3d e65d 2bbf 13e4 8a3c 596c 21be
00000140: 9992 063e bae1 c2bd c2b3 e23e cbf4 0f3f
00000150: 9531 99be 2cde 34be 924e 503d 0618 c33d
00000160: 828d e93d 085d 983e c2e1 f6bc b248 9fbe
00000170: 6829 333d 8076 c63e ad84 5bbe ea8a 55bd
00000180: 7635 3bbe 1b62 bebe 7ffa f4be c689 41bf
00000190: d234 e13c 8d51 90be bbbb 673e 2d99 893e
000001a0: 5bac 53bc 29f3 c63e 1a01 adbd 8a69 89be
000001b0: ab81 8d3d 0633 c6bd b567 5b3b f983 f23d
000001c0: 8f97 583c 14d0 62be 8dc2 e9be 04ff 873e
000001d0: 3756 66be 800b 98bd 50c8 2b3d 9021 5abe
000001e0: 2a9f efbd 345a 2e3f b9cd ef3f c6da 8c3f
000001f0: c0b8 bdbe 4caa 33bd 7cf9 143f bb47 96be
00000200: b0a3 133e 706b a33e 6c5a f6bd 40f7 023f
00000210: 5294 1c3e c3b4 7dbe 2472 aa3e 41ca d5bd
00000220: 433c 013e 9e60 853e ed86 663b b4d0 203f
00000230: adfe 3cbd 0fca afbd d596 943e 3270 58be
00000240: 61dd 193f ad9d 1dbe f24d cabe e065 93bd
00000250: b5e8 e5bd 69fe 573e 6dd9 6c3e be19 0abe
00000260: 1ea3 f6bd c95a 6d3e 2db4 73bf 56f2 d9bd
00000270: 8e25 fd3e a502 223e a56e c5bd 82b3 4bbf
00000280: 7d3a 5a3e 3aa5 f9bc 5929 2e3d 349d 5f3e
00000290: bde4 debe 70b4 c5be 7a43 0a3d db45 48bf
000002a0: 6a22 a23d 5ea3 ba3d eb21 d0bd 86ca b83e
000002b0: dc01 7dbe 0feb 303e 64dd 173d 8f84 193e
000002c0: 61af 0a3e 84a5 983d 3602 1ebf 210b 85bd
000002d0: 6207 27be 441d a9bc 5c91 c2bd ce79 b7bd
000002e0: e9a6 bc3d e5c1 35be 7805 fabe 16c5 08bf
000002f0: 2164 91be 6549 41be a623 9ebe 1f1b d8bd
00000300: 0d97 09bd dcd4 2bbf 6a1a 173e ab16 393d
00000310: 33dc 243c 01fe 1e3e 9ad1 f33e fc3d e33b
00000320: 7cfc ad3c 582a f3be 462e e53e d641 dc3d
00000330: af49 fbbc 9e0a 42be ccd0 8bbe 3bdb 933e
00000340: 51b1 543e 31ea 0c3e d91c 94bc 9316 883d
00000350: 1448 1e3f 2ff5 42be 4ef4 86be 5e21 4abf
00000360: 2078 cf3d 87bb 313d e388 3b3e 06ac ee3d
00000370: 3bee 4f3e b424 003d f9b5 d13e c7c5 6d3e
00000380: a612 db3d ffe8 a0be f6c0 10be fd13 423e
00000390: 90a8 633d 7579 863e b7d4 36bf f32f b93c
000003a0: 180c 993f 7a53 05be d066 3fbe b205 e03c
000003b0: be10 d23b 1203 e3bc 72ed a33d de0a 7cbe
000003c0: 0513 aebd cbfe b6bd 43b1 15bb d41f 023f
000003d0: ad7a b93d 7e1c 8f3e 3209 783e 372b 093f
000003e0: 9fe3 963d 2bb8 b73c f03f c2bd 5545 1c3f
000003f0: 1405 45be 582f 073e 0945 37bf 7156 263e
0.33558968 -0.13417861 0.46462566 -1.2846013 0.12816684 0.11012119 0.0845206 -0.24214979
0.11359736 0.015342531 -0.01778482 -0.8567304 -0.15706432 -0.35555604 0.38801005 -0.3875076
-0.2963903 0.19941218 0.029727625 0.5383669 -0.4312117 -0.15929875 -0.063488886 -0.3813344
0.11868715 -0.21501546 -0.31130174 -0.17205967 -0.3448289 -0.69942224 0.034715228 -0.9835479
-0.030465068 -0.18418092 0.48792922 0.03403329 -0.2568877 -0.20188521 0.24531443 0.4671507
0.6168334 -0.1185194 -0.44108972 0.09942109 0.022413287 0.58326167 0.18129729 0.37742338
-0.43322694 -0.10817213 -0.30305237 -0.1462025 0.07500902 -0.23647857 0.37237042 0.22663602
0.08817765 2.0729651 0.19380945 0.4574265 -0.110787794 -0.061318558 -0.35685593 -0.40186232
0.206472 -0.12722911 -0.12990892 -0.32077834 -0.5020478 -0.10963096 0.10416689 -0.31800088
0.3604301 -0.08768665 -0.7318712 1.6682782 0.107739754 -0.6694015 0.016954457 -0.15763988
0.1314186 -0.0951571 0.4427777 0.562329 -0.2992064 -0.17662877 0.05085618 0.095260665
0.114039436 0.29758477 -0.030136947 -0.3111015 0.04374066 0.38762283 -0.2143733 -0.052134432
-0.18282112 -0.37184224 -0.47847363 -0.7560085 0.027491007 -0.28187218 0.22630207 0.26874676
-0.012919511 0.3885739 -0.08447476 -0.26838332 0.06909498 -0.09677701 0.0033478562 0.11841578
0.013219728 -0.22149688 -0.45656243 0.2656175 -0.22493826 -0.074240685 0.04193908 -0.21301866
-0.1170028 0.6810639 1.8734657 1.1004264 -0.37055016 -0.04386358 0.5819318 -0.293516
0.1441791 0.31917906 -0.12028965 0.51158524 0.15290955 -0.24775986 0.33290207 -0.104389675
0.12620644 0.26050276 0.0035175637 0.62818456 -0.046141315 -0.085834615 0.29021326 -0.21136549
0.6010342 -0.1539218 -0.39512593 -0.071971655 -0.11226026 0.21093144 0.23129816 -0.13486382
-0.12042831 0.23179163 -0.951968 -0.10641925 0.49442714 0.15821321 -0.096402444 -0.7957078
0.21311374 -0.030474294 0.0425199 0.21837312 -0.43533888 -0.38614225 0.033755757 -0.7823159
0.0791672 0.09113191 -0.10162719 0.36092013 -0.2470774 0.17277168 0.03707637 0.14991973
0.13543464 0.074534446 -0.61722124 -0.06496263 -0.1631141 -0.020643838 -0.09500381 -0.08958779
0.09211523 -0.17749746 -0.48832297 -0.5342573 -0.28396705 -0.18875654 -0.30886573 -0.10552048
-0.03359132 -0.6712167 0.1475617 0.045187633 0.010062265 0.15526582 0.4762085 0.0069348793
0.021238558 -0.47493243 0.44761866 0.10754745 -0.030674784 -0.18949363 -0.27307737 0.28878197
0.20770766 0.13761212 -0.018080162 0.06644931 0.6182873 -0.19038843 -0.26358265 -0.78957164
0.10130334 0.04339173 0.18313937 0.116539046 0.20305721 0.031285003 0.40959147 0.23219977
0.10696916 -0.31427762 -0.14136109 0.18952937 0.055580676 0.2626454 -0.7141833 0.022605872
1.1956816 -0.13020125 -0.18691564 0.027346466 0.006410687 -0.027711425 0.080042735 -0.2461352
-0.084997214 -0.08935317 -0.0022841252 0.50829816 0.09056602 0.27951425 0.24222258 0.53581566
0.07367634 0.022426685 -0.09484851 0.6104329 -0.19240218 0.13201654 -0.71589714 0.16243912

bias f4 [128]
00000000: f668 f03e 2049 7e3e a447 1f3f 719d fdbd
00000010: 85fa 103f 7a37 24be d3f0 ebbe e0d4 f63e
00000020: d289 c53e 091c 0d3e 29fa a6be 2f07 1dbf
00000030: 5f09 98bc 82bd 0bbf cf94 0bbf e842 08bf
00000040: ac84 843e 2202 da3e 4e70 aebd 716f 17bf
00000050: b433 5ebe f838 25bf 227d 1f3f b77f d93e
00000060: 881c 863e 0f74 07bf fe05 e5be 08b4 04bf
00000070: 8b46 e13d ea6d 983e 85ad 09bf b65e 853e
00000080: a4a4 5dbe ef65 a93d dd38 233f ac15 d33e
00000090: a1b3 cf3e d365 aa3e 82b6 dbbd a4e1 203f
000000a0: 98de cd3e 6b47 c3be e945 d33e ad26 173f
000000b0: b30e 1a3f 6c40 043f 630b d5be c916 74be
000000c0: dc33 17bf fbab 833e 2034 07bf 89b3 9c3e
000000d0: d404 ec3e 0543 ad3e 8a19 e6be f45a ce3e
000000e0: d3e6 1a3f aa6d f2be a176 04bf a968 86be
000000f0: 0996 593e 3443 fdbe 809f 1e3f 9e26 ae3e
00000100: aa94 183f 23c6 eb3e 6ca5 ed3e 6eeb 17bf
00000110: 4cdb d83e 64b2 e73e d0f4 efbe a98a 30be
00000120: 9b39 dc3e eac9 633e ee4e 9c3d d97b a2be
00000130: c75b d9be 5d14 b03e a157 643e 2bb7 8abe
00000140: 25f4 223f c32d 973e 457c 8b3e 7d61 f63e
00000150: d6ef 033f 4e73 103f 0147 a2be 49b8 d73e
00000160: 51d7 2b3f b0cb 113f a5cc e13e a154 043c
00000170: 1f8d 1cbf 21b5 2ebe 0c63 093f c910 e33e
00000180: 4745 b73e e0d7 b23d e91c e83d 9d85 0b3f
00000190: 28d4 213d b9d2 0abf 6cba 123f e100 1a3f
000001a0: b257 bf3e b946 03bf 947d 103f 0f57 aa3e
000001b0: d498 07bf 0ec3 f63e a160 f4be 55a6 b73e
000001c0: 3b35 b63e 5106 ce3e bf6b ea3e 3d0d 49bc
000001d0: ad34 c7be 6f70 e73e 4a75 d53d 9ea0 ed3e
000001e0: 3099 003f 7e3c c93e 76ef 003f ec1e 073f
000001f0: 74ea 1d3f 0f77 233f 6594 c7be 8c8f 203f
0.4695508 0.24832582 0.6221869 -0.12383545 0.5663226 -0.16036788 -0.46082172 0.48209286
0.3858171 0.13780226 -0.32612732 -0.61339086 -0.018559156 -0.5458604 -0.5452394 -0.5322709
0.2588247 0.42579752 -0.08517514 -0.5915442 -0.2169941 -0.6454005 0.6230031 0.4248025
0.26193643 -0.52911466 -0.44731134 -0.51837206 0.10999783 0.29771358 -0.53780395 0.2604882
-0.21644837 0.082713954 0.6375864 0.41227472 0.40566733 0.3328081 -0.1072817 0.628443
0.40208888 -0.38140425 0.41264275 0.5904339 0.6017868 0.516608 -0.4161025 -0.23836817
-0.59063506 0.25717148 -0.5281391 0.30605724 0.46097434 0.33840194 -0.4494136 0.40303767
0.6050846 -0.47349292 -0.51743513 -0.26251724 0.2124864 -0.49465334 0.6196213 0.34013838
0.59601843 0.46049604 0.4641527 -0.5934361 0.4235481 0.4525329 -0.46866465 -0.17240395
0.430127 0.22244993 0.07632242 -0.31735113 -0.42452833 0.34390536 0.22299053 -0.2709287
0.63653785 0.295271 0.27243248 0.48121253 0.51537836 0.5642594 -0.31694797 0.42132786
0.6712542 0.5695143 0.44101444 0.008076818 -0.61152834 -0.17061283 0.5366676 0.44348744
0.35795042 0.08732581 0.11333639 0.5450075 0.03950897 -0.5422779 0.5731571 0.6015759
0.37371594 -0.5127979 0.56441617 0.33269545 -0.5296757 0.4819569 -0.47729972 0.3586909
0.35587487 0.40239194 0.4578533 -0.012271223 -0.38907376 0.45202968 0.10422762 0.46411604
0.50233746 0.39303964 0.5036539 0.5278156 0.6168587 0.63853544 -0.38980404 0.62719035

weight f4 [128, 128]
00000000: b317 c63f 158a 28be ab2e ca3e b641 cabe
00000010: 429c f13e 1f03 8c3e aac9 513e 364f e53e
00000020: 2d75 2ebe e87b 59be 769f fb3e 58e1 cdbe
00000030: a48f e43e f681 b6be 568f abbe 9532 5fbe
00000040: 9905 5cbe cdfb 8cbf 17b9 41c0 9fa0 92be
00000050: faa6 833e 7ef8 febe 631f 8f3e 4df5 08be
00000060: acb8 51be 7756 3c3e bffa 6bbe 3ffb 5d3e
00000070: 09af be3f 0737 16bd 748c 2abe 9e41 9ebd
00000080: dee8 7f3e 4ce3 8d3e fcb9 b63e a121 853f
00000090: cb06 9cbf 5c97 60be a737 793e 58a3 ed3e
000000a0: 1890 2c3f e566 a1be 3704 823e 4ca6 d23e
000000b0: d260 113e ddad 263f e260 0a3e e3e3 8ebe
000000c0: 4850 b3be 44ab a5be f8bc adbe de39 19bf
000000d0: d44c 9cbe 8241 68be 994e 303e 7b80 50be
000000e0: 34b4 bb3e 970c dd3a a161 ab3d dd18 1e3e
000000f0: 0aaf 0cbe 5774 10be 9804 0f3f 0eb7 0ebe
00000100: a226 d33e 130a 153e d8b8 19be b5c4 9dbe
00000110: 4855 1ebe ced7 87be fa6c 6fbe daea 003e
00000120: 94d0 59be f65b 5abe f14a f73e ebbc ab3d
00000130: 0fcd 5ebf 25a8 7bbe 984d 69bd 2e96 89bf
00000140: 37fe cb3e 5e67 1fbe 59f1 f0bd 5e6a 2bbf
00000150: 1152 babe bc75 bd3e 7aa9 763d 7914 a4bd
00000160: bdcb c13e 06d6 8c3e 913b 413f 33ac 1840
00000170: a4b0 a8be 5f7d 863d 94fb c13e a634 5dbd
00000180: d9e4 2cbd 51a7 abbd bd49 a7bd a459 b63e
00000190: 8c1d 0840 f55a ddbe 8be2 833e 9224 de3e
000001a0: 2e9e cbbd 254c 61be 874f d83e 9c2d 05be
000001b0: c0aa aabe ca57 94be 51fd bebe 8f47 07be
000001c0: a6cc 3dbe 5cd8 66bf ffc2 b93e 878d e53d
000001d0: 2ce0 2ac0 4ae6 c53e 1413 a53f 24e8 08be
000001e0: f86d 8c3e 6e68 d1bd 6a30 9dbe 77e7 2e3e
000001f0: 6592 a63e 5ff9 153f 3c2f ae3d aaae d53e
00000200: 2b20 a63e d06a 11bf b6cb a23e 677c 45bf
00000210: afa3 8e3e 0163 b63e 0649 ff3e eb4f 913e
00000220: 8a54 bbbe ab3d bcbe 135b 6b3f 3d0b 84be
00000230: a279 cd3e 03a1 94be 12f1 d4be c46b 94be
00000240: 53c7 04bf 5855 8d3e 6042 bcbf 28dc 5abe
00000250: 10bf ab3e b44f c9be 4c27 4d3e 65da f8be
00000260: 6920 a9be d13c 193f b359 89be 0cbb de3d
00000270: 09f0 243f 664f b5be 1347 4cbe ad8e 5abf
00000280: b31d 013f aff7 883f 2d33 c53e e714 983e
00000290: 28e6 62bc 4977 a5be d12b 023f 173f f13e
000002a0: 9a36 d13e 03d4 2abf bee1 823e 2c28 943e
000002b0: 99bc 443e 5349 0c3f 6449 0d3f 46c7 b23e
000002c0: 2317 91be c42c acbe 2e89 a8be 62f1 aebe
000002d0: 3d92 1abf 305a c5be b5f3 ad3e 4244 e6be
000002e0: b287 463e 4e03 59bf 54ff c93e f2d6 b03e
000002f0: 09f5 b4be c31d 11bf bf53 e03e 4b9e 02bf
00000300: ae28 b93e dec3 463e 2d9a 03bf f5e2 5bbe
00000310: cd5e 43be c899 0bbf e617 bcbe 1d33 0c3f
00000320: 1abf f2be b099 cbbe 650d 8540 62ed 383f
00000330: c269 85be f5b4 babe 076f e3be 2573 73bf
00000340: f1d4 d03e 2d74 c1be d3c8 9ebe 355c f93e
00000350: 0938 09bf 1fd1 af3e cbed 5e3f 36f5 0bbf
00000360: 8433 ce3e 40df 4a3e b978 0e3f 2b97 8abe
00000370: 66d3 8abe b653 533f da64 903e b7d4 eebe
00000380: b82f 3ac0 be4f 413d 20bf 97be 2d41 a63e
00000390: 9e88 0540 339f c5be 48bb a13e 3d9b 823e
000003a0: 0555 abbe 0a77 28be 00ed ab3e 4dde c5be
000003b0: 0aa3 b9be 9e48 04bf fbde e9be 5c74 d7be
000003c0: 4a12 febe 1d71 c93e 45e3 a53e acfe ac3e
000003d0: 4fe2 dcbe 2dcc 6b3e 5e08 1d40 f098 d1be
000003e0: 79af b23f 7a33 fcbe fc47 3dbf 8783 273e
000003f0: 1575 323e f6e3 b53e 8824 e63e f436 dc3e
1.5475982 -0.16458924 0.3948873 -0.39503258 0.47189528 0.2734613 0.20487085 0.44786996
-0.17036887 -0.21238673 0.49145097 -0.40210986 0.4464084 -0.35646027 -0.33507794 -0.2179664
-0.2148651 -1.1014344 -3.026922 -0.2863817 0.2571333 -0.4979896 0.27953634 -0.13374825
-0.20480603 0.18392359 -0.23044871 0.21677874 1.4897166 -0.036673572 -0.16655141 -0.07727359
0.24991176 0.27712476 0.3568877 1.0400888 -1.2189573 -0.21932739 0.24337636 0.46413684
0.6740737 -0.31523815 0.2539384 0.411425 0.1419709 0.65109044 0.1351352 -0.2790824
-0.35022187 -0.32357228 -0.33933234 -0.59853923 -0.30527365 -0.22681239 0.17217483 -0.20361511
0.36660922 0.0016864714 0.083682306 0.15439172 -0.13738647 -0.1410688 0.55866385 -0.13937017
0.41240412 0.14554624 -0.15011919 -0.30814138 -0.1546222 -0.26531833 -0.23381415 0.12589589
-0.21270972 -0.21324143 0.48299363 0.083856426 -0.87031645 -0.24575861 -0.056958765 -1.0748956
0.39842388 -0.15566775 -0.117647834 -0.6695918 -0.36390737 0.37003887 0.06022022 -0.08011717
0.37850752 0.27507037 0.75481516 2.3855102 -0.32947266 0.065668814 0.3788725 -0.054005288
-0.042210434 -0.083815224 -0.08168361 0.35615265 2.1268034 -0.43233457 0.25758776 0.43387276
-0.0994228 -0.22001703 0.42248175 -0.1300568 -0.33333397 -0.28973228 -0.3730264 -0.13210891
-0.18535098 -0.9017389 0.36281583 0.11208635 -2.6699324 0.3865226 1.2896447 -0.13369805
0.2742765 -0.102249965 -0.30701 0.17080484 0.32533565 0.58583635 0.08505103 0.4173482
0.32446417 -0.5680361 0.31796044 -0.7714295 0.27859256 0.3562241 0.498604 0.28381285
-0.36587936 -0.367658 0.91935843 -0.25789824 0.4013186 -0.29029092 -0.41590172 -0.2898847
-0.51866645 0.27604175 -1.4707756 -0.21373045 0.33544207 -0.3931862 0.20034522 -0.48604122
-0.3303254 0.59858423 -0.26826248 0.1087552 0.64428765 -0.3541214 -0.19948988 -0.85373956
0.5043594 1.0700587 0.38515607 0.29703447 -0.013848819 -0.3231757 0.5084811 0.47118446
0.4086197 -0.66729754 0.25562853 0.289369 0.1921257 0.54799384 0.5519011 0.3491766
-0.28337964 -0.33627903 -0.3291716 -0.34168535 -0.6037939 -0.3854537 0.33974996 -0.44973952
0.19387701 -0.8477067 0.39452612 0.3453899 -0.35343197 -0.5668604 0.43813893 -0.51022786
0.3616385 0.19410655 -0.5140713 -0.21473296 -0.19079132 -0.54531527 -0.36736983 0.5476549
-0.47411424 -0.39765692 4.157885 0.7223722 -0.2605725 -0.36466184 -0.44420645 -0.9509757
0.4078746 -0.37783948 -0.31012592 0.4870316 -0.5360113 0.34339234 0.87081593 -0.5467104
0.40273678 0.19811726 0.5565296 -0.27068457 -0.2711441 0.8254961 0.28201944 -0.46646664
-2.9091625 0.04719519 -0.29638004 0.324716 2.0864635 -0.38598022 0.31588197 0.25509062
-0.33463302 -0.1645166 0.33579254 -0.38646165 -0.362572 -0.51673305 -0.45677933 -0.42080963
-0.49623328 0.3934411 0.32399955 0.3378805 -0.4314141 0.23027106 2.4536357 -0.40936995
1.39598 -0.49258024 -0.73937964 0.16358767 0.17427476 0.35525483 0.44949746 0.43010676

bias f4 [128]
00000000: 4763 cd3e 8331 58be 186c ab3e fe96 c1bb
00000010: 5377 8cbe 40f4 05be 5bbd 00be dc82 8c3e
00000020: 8eab c1be 9815 8b3e e9f5 7ebe c45a bb3e
00000030: bd3b bfbe 3154 073f 0bd4 96be 9c3c 96be
00000040: 6820 89be f1c9 b2be 6a26 4dbd d247 ecbe
00000050: c2ce c23e 880e 323e c998 c0be a4d6 883e
00000060: 7818 c23e 0a86 1fbe 6ebd 22be 617f 62be
00000070: bb2f 943d 37da d1bd d836 37be 064e 643e
00000080: fe6b b8be 2b65 7b3e 0c23 95be b59f 9e3e
00000090: 4027 d4be 3a4d 313e 1568 f4bd cd85 c2bd
000000a0: 858a 99be 7603 81be 20a9 a3be eaec a2be
000000b0: 604e c7be e3a3 763e 6a4c bcbe 58ef df3e
000000c0: ea0d 213e a864 edbd 69ec 4e3e a62c 513e
000000d0: f7ad bebe 5b7e a3be f1c0 00be 8129 adbe
000000e0: 401c c33e 848e 61be 3820 5e3e 67ce e9be
000000f0: 4aee afbe 3bad 28be d304 7a3e 9783 a83e
00000100: ca08 7e3e c5d3 8fbe b0e5 b9be 21fd 083e
00000110: 44b1 77be c0f8 e83e 9586 81be e966 203d
00000120: 1f8c dc3d 62a7 8dbe a61a 5d3e 8d84 69bb
00000130: ac53 d8bc 38c7 733e b1a3 ecbe 0c5f a7be
00000140: a7b4 57be ec1e dbbe 06f1 6abe 0dba a73e
00000150: 3568 bcbe 682c d13e 8d27 393e 42bb a3be
00000160: 875e ab3e f8c3 033d 5194 9e3d 8085 93be
00000170: 9772 483e c04d 55be fdb1 873e f0a8 b1be
00000180: d1fe 473e 5fd0 35be 7c91 933e 2600 c8be
00000190: e003 13be 6593 093e a334 09be f8ea 8c3d
000001a0: 831f 6ebe 45f7 d9be 92fe c0be 75a7 723e
000001b0: 8f98 f3bd e155 c6be ca08 1a3e 5457 783e
000001c0: 32fd c13e 2ae7 dfbe e638 a93e fa5a cfbe
000001d0: 8cb6 5c3e 58b1 9d3e bd64 653e 1f12 aebe
000001e0: 6116 cfbe f613 a23e ccc1 933c 1745 94be
000001f0: 9314 da3e 6b27 a13e de65 b83e b638 963e
0.40114805 -0.21112637 0.33480906 -0.0059078922 -0.27434787 -0.13081455 -0.12572233 0.27443588
-0.37826198 0.27164912 -0.24898495 0.36592686 -0.37350264 0.5286284 -0.2945865 -0.29343116
-0.26782537 -0.34919694 -0.050085463 -0.46148545 0.3804837 0.17388356 -0.37616566 0.26726258
0.37909293 -0.15578476 -0.15892574 -0.22118904 0.07235666 -0.10246699 -0.17892015 0.22295389
-0.36019892 0.24550311 -0.291283 0.30981222 -0.41436195 0.17314616 -0.119339146 -0.09498177
-0.29988495 -0.25197953 -0.3196497 -0.31821376 -0.38926983 0.24085955 -0.3677705 0.43737292
0.15727964 -0.11591464 0.20207371 0.20427188 -0.372421 -0.3193234 -0.12573601 -0.33820727
0.3810749 -0.22027022 0.21691978 -0.45665285 -0.34361488 -0.16472332 0.24415903 0.32912895
0.2480804 -0.28091255 -0.3630805 0.13377811 -0.24188715 0.4550228 -0.2529799 0.039160643
0.107689135 -0.27666765 0.21592197 -0.0035631985 -0.026407085 0.23806465 -0.46218637 -0.32689703
-0.21065007 -0.4279703 -0.22943506 0.32759133 -0.36798254 0.40854192 0.18081494 -0.31978804
0.33470556 0.032169312 0.07743133 -0.2881279 0.19574963 -0.2083044 0.26502982 -0.34699202
0.19530798 -0.17755269 0.28821933 -0.39062613 -0.14356947 0.13435133 -0.13398986 0.06880754
-0.23254208 -0.42571464 -0.37694222 0.23696692 -0.118943326 -0.38737395 0.15042415 0.24252063
0.37888485 -0.43731052 0.33051223 -0.40499097 0.21554011 0.30799365 0.2240171 -0.339982
-0.4044676 0.31655854 0.018036745 -0.2895896 0.42593822 0.31475386 0.36015218 0.29340142

weight f4 [1, 128]
00000000: 8c92 6bbf 08e2 45bf 9582 6d3f 6890 a3bf
00000010: 950e 703f 17af 743f 9fba 923f 7eb6 8bbf
00000020: a8f5 9c3f 9881 633f 35e7 92bf 9586 91bf
00000030: 74e5 853f 31ea 9cbf bcc2 3dbf 3640 4a3f
00000040: c5c4 a93f a908 873f 1a02 e53f b37f 96bf
00000050: a786 ebbf eb62 cd3f 4cf4 4f3f 3f44 5d3f
00000060: 1a14 abbf 2562 263f 4796 2fbf f092 893f
00000070: e44b 64bf 07ee ac3f 82b6 4cbf 9fd1 f43f
00000080: 6373 643f 3622 3d3f 0a02 a3bf 2cdd 7c3f
00000090: 1a07 76bf d110 9c3f d1ed 30bf 7783 5b3f
000000a0: 4f2c 9fbf 7446 64bf 7101 ce3f 2e4d 80bf
000000b0: c5dc 9ebf be01 4f3f 9fdc 853f 311f 1dbf
000000c0: 303f 6dbf f6b1 d23f e9ff 49bf 092c e1bf
000000d0: 3646 8ebf c32b 9cbf 46dd 4ebf b00c 183f
000000e0: edb7 563f f567 3f3f 7cc2 6cbf 31d0 60bf
000000f0: c362 96bf 1884 37bf 27f6 473f f481 6fbf
00000100: 7d31 aebf d41f a4bf 0d00 9a3f 001f 413f
00000110: 226f 5cbf f3b4 97bf 279d ecbf 3082 a0bf
00000120: 3537 463f 2280 1bbf 53ae 973f 027d cc3e
00000130: 9898 0b3f 6ff0 273f 43bf a8bf edb2 823f
00000140: 357d 5e3f 3967 9b3f 3bb6 a3bf 3e1e 763f
00000150: 1366 4b3f 3293 6b3f 6829 a03f b7ea 433f
00000160: 3940 7d3f c174 673f 0709 c8bf 87de 9d3f
00000170: 633b 56bf b54b bcbf 3bde 26bf 417c 9bbf
00000180: 2040 63bf 6174 91bf b921 453f b17c 71bf
00000190: 9f34 a6bf 37b9 06c0 4f9f b43f 56ba 2cbf
000001a0: 8590 a6bf 0788 12c0 4561 613f f3ce 1f3f
000001b0: aad0 243f bd4b 043f dd0d eebf 9a99 bdbf
000001c0: f080 9dbf d0a2 a13f 39af 413f f2bb 773f
000001d0: 7aea 2140 bb7b 0540 e608 5fbf 88c1 95bf
000001e0: 1398 9a3f 35de 803f fdcc 58bf 7d87 e3bf
000001f0: 9d1c 71bf 9d52 9dbf 8e89 9abf 163b 8bbf
-0.9202049 -0.7729802 0.9277738 -1.2778444 0.9377225 0.95579666 1.1463202 -1.0915067
1.2262468 0.8886962 -1.1476809 -1.1369196 1.0460649 -1.225897 -0.74125266 0.7900423
1.3263174 1.0549518 1.7891266 -1.1757721 -1.8400468 1.6045812 0.8123214 0.8643226
-1.336551 0.64993507 -0.6858868 1.0747967 -0.891783 1.351014 -0.79965985 1.9126471
0.89238566 0.73880327 -1.2734997 0.9877498 -0.96104586 1.2192632 -0.6911288 0.85747474
-1.2435397 -0.8917 1.609419 -1.0023553 -1.2411124 0.80862033 1.0457953 -0.6137572
-0.9267454 1.6460559 -0.7890611 -1.7591563 -1.1115177 -1.2200855 -0.80806386 0.5939436
0.838744 0.74768 -0.9248426 -0.87817675 -1.174889 -0.71685934 0.78109974 -0.9355767
-1.3608853 -1.2822213 1.2031265 0.7543793 -0.86107075 -1.1852096 -1.8485459 -1.253973
0.7742799 -0.6074239 1.1850075 0.39939123 0.54529715 0.6560125 -1.3183368 1.0210854
0.869098 1.2140876 -1.2789987 0.96139896 0.7945263 0.9202148 1.2512636 0.7653002
0.9892612 0.9041253 -1.5627755 1.2333535 -0.83684367 -1.4710604 -0.65182847 -1.2147294
-0.8876972 -1.1363641 0.7700458 -0.9433089 -1.2984809 -2.1050546 1.4111117 -0.67471826
-1.3012854 -2.2895525 0.88039047 0.62425154 0.64380896 0.5167807 -1.8597981 -1.48125
-1.2304974 1.2627811 0.75657994 0.96771157 2.5299363 2.085677 -0.8712295 -1.1699686
1.2077659 1.0067812 -0.8468779 -1.7775723 -0.94184285 -1.2290837 -1.2073228 -1.0877407
